maraboupy/examples/networks/graph_test_cnn.onnx (onnx, 43768 bytes, 5 tensors)

b2:0 f4 [32]
000000 11 ac 51 3e 25 24 ee 3c f4 11 06 3e d0 ea 3b be
       0.20475794 0.02906997 0.13092786 -0.18351293
000010 cd 9a 5c bd a0 75 9d be 8b 6d 5a be f8 9d 4c be
       -0.053858567 -0.30753803 -0.2133085 -0.19982135
000020 65 44 96 3e c4 33 9a 3e e8 32 82 3e d5 3b 9f 3d
       0.29349056 0.3011762 0.25429463 0.07775084
000030 75 2b ba 3e 54 5a c8 bd 5d aa 98 be 79 dd 27 be
       0.3636128 -0.09782854 -0.29817477 -0.16393079
000040 89 9d 65 be 74 d2 87 3e a4 a3 7b 3e 91 3b 99 3d
       -0.22423376 0.2652775 0.24574143 0.074820645
000050 3e 6e 30 be 7d e3 e0 3e 60 7a a7 bd 0e b4 79 3e
       -0.17229554 0.4392356 -0.08177638 0.24385092
000060 8b 40 b2 3c d6 92 48 bc 54 1f 7e be c3 b3 84 be
       0.021759292 -0.01224204 -0.24816638 -0.25918397
000070 6f 67 a5 be ad 02 d3 bc 34 38 e3 bd 02 ed 2c 3e
       -0.32305476 -0.025758112 -0.11094704 0.16887286

b1:0 f4 [32]
000000 ae 44 22 be 4d 7f 06 bf c4 0d b1 be 45 39 05 bf
       -0.15846512 -0.52537996 -0.34580815 -0.5204051
000010 ae 95 ed bb 92 25 e0 bd e2 64 8b 3c ce 01 1b 3f
       -0.007250509 -0.10944666 0.017015878 0.6054963
000020 ca d9 a9 bc a5 8f 0b bf 8f d2 64 be 48 93 b1 be
       -0.020733733 -0.5451606 -0.22345947 -0.3468268
000030 b3 d5 08 3f c0 b9 ca be b9 81 ee bc ed bf d8 be
       0.5345108 -0.3959484 -0.029114591 -0.42333928
000040 0e 1e e6 3e da f3 ba be 92 1b e5 3e 71 5b dd 3e
       0.44944805 -0.3651417 0.44747597 0.43233827
000050 dd ce 71 3f a5 ce f6 be 28 1a 21 be ff 16 49 3f
       0.94456273 -0.48204532 -0.15732634 0.78550714
000060 a4 9d 11 bc 89 88 c2 be 40 82 ee be 18 01 04 3f
       -0.008887682 -0.37994793 -0.46583748 0.5156417
000070 7e b2 cb be 6a d6 a5 3d 31 d1 39 be 51 04 ee be
       -0.39784616 0.08097537 -0.18146206 -0.46487668

W3:0 f4 [1, 32, 3, 3]
000000 12 d3 97 3d 0c 4a 0a be cf fc 4e 3d 6e d8 db bd
       0.07413305 -0.13504809 0.050534066 -0.1073464
000010 13 bc 75 bd 20 25 0d be 40 7b 2a be a1 13 cd bd
       -0.059993815 -0.13783693 -0.16648579 -0.100135095
000020 d2 02 5f 3d 12 e1 01 bd e8 2c c5 bd c4 b2 78 bd
       0.05444605 -0.031708784 -0.09627706 -0.06071736
000030 f0 7f 2d 3c 76 cc 14 3e 7b ab 9b 3d df f1 66 3d
       0.010589585 0.1453112 0.07601067 0.05638301
000040 30 3f 76 3e 0e 76 18 3e 65 5d db bd 6b 9b fd bd
       0.24047542 0.14888784 -0.10711173 -0.12383159
000050 3d b7 d5 bd a2 5a 1e be f9 17 1b be 7e f8 e5 bd
       -0.104353406 -0.15464261 -0.15145864 -0.11229037
000060 87 f5 a5 be 9a 27 53 be ff c6 1d be 8f 6a 19 be
       -0.32413885 -0.20620576 -0.15407942 -0.14982055
000070 5d fb b1 bd 5b c7 b7 3b 5a eb 67 be 58 03 15 be
       -0.08690522 0.005608482 -0.22648373 -0.14552057
000080 d0 b3 95 bd 10 bc 92 bd 36 51 6c be ff 94 11 be
       -0.07309687 -0.07164776 -0.23077855 -0.14216994
000090 fb 1b a7 3d 79 ca f6 bc da 80 8d bd c1 0b fd bc
       0.08159634 -0.030125843 -0.06909342 -0.030889394
0000a0 5c 71 b8 bd a4 e2 38 bd c7 f5 ea 3d 88 b6 17 be
       -0.090059966 -0.045138016 0.114726596 -0.14815724
0000b0 44 ef b1 bd f8 a5 90 3d ea e4 fd bd 00 5b 1f bd
       -0.086882144 0.07062906 -0.123971775 -0.038905144
0000c0 a7 05 be 3d fb d6 a2 3d 68 5f ec 3d 5f 20 75 bd
       0.09278422 0.079511605 0.11541635 -0.059845325
0000d0 02 b1 1b bd 73 a9 01 be 74 e8 eb 3c bc b6 3e 3d
       -0.038010605 -0.12662296 0.028797366 0.046560988
0000e0 1c db 1a 3b 03 25 ff bc a8 0b 65 bd df 6f 19 bc
       0.0023629135 -0.031145578 -0.05591932 -0.009365051
0000f0 36 5a 69 bd 9f 3b de 3d 8a be 05 be 95 0f b5 3d
       -0.056970797 0.108512156 -0.13060966 0.08840863
000100 20 61 22 3d 0c 66 4a ba 7a e2 15 3e a3 c7 aa 3d
       0.039643407 -0.00077208946 0.14637175 0.08338859
000110 ef 29 02 3d f3 3a 8b 3e f3 40 0f 3e 57 bc 9c 3d
       0.031778272 0.27193412 0.1398962 0.076531105
000120 55 00 1b be 57 1c e0 bd bd 61 02 3e f9 bd 4f be
       -0.15136845 -0.109429054 0.12732597 -0.20287313
000130 02 da 0c be bf 7c ca bd 5c a7 a1 be 1f 09 42 be
       -0.13755038 -0.09887075 -0.31572998 -0.18948792
000140 b8 17 02 be b7 1c af bd 5d d7 3d bd 5e a2 02 3e
       -0.1270436 -0.08550399 -0.046347965 0.1275725
000150 cd 32 f7 bd 9b 3d a4 bd 8b d7 28 bd bf 49 2d be
       -0.12070236 -0.08019563 -0.041221183 -0.16922663
000160 d2 b6 e9 bd 9a 61 ad bc 77 08 50 ba de dc fa 3c
       -0.11411823 -0.021164704 -0.00079358317 0.030622896
000170 83 ac 98 bd 30 52 ee 3d f6 e4 7c 3d c5 33 fe 3c
       -0.07454779 0.1163677 0.06174179 0.031030545
000180 3a 7d 54 3e e5 b4 f1 3d 93 b8 92 3d da 19 16 3e
       0.20750895 0.11802081 0.07164111 0.14658299
000190 a6 f2 81 3d 7d 6b d8 3d 22 d1 80 3e 15 f8 17 3e
       0.0634511 0.10567377 0.25159556 0.1484073
0001a0 68 84 c1 bd 6c ce d4 bd dc fc d6 3d 31 49 c7 3d
       -0.094490826 -0.10390934 0.10497448 0.09730757
0001b0 c1 fe 6a bd 28 e6 89 bd 49 03 4a bd 66 f9 0d bd
       -0.05737186 -0.06733352 -0.04931954 -0.034661673
0001c0 eb 3a 58 bd 7b 7e 25 bd 0a 9e 16 bd aa 0a 6f bd
       -0.052790564 -0.040403824 -0.03677181 -0.05835978
0001d0 98 c5 3a bd ff ff 8d 3d d5 15 42 be 85 78 e7 bd
       -0.045598596 0.06933593 -0.18953641 -0.11302284
0001e0 a4 7e cd 3d 34 ee 97 be 82 4c 40 be 18 f3 9d bd
       0.100339204 -0.29673922 -0.18779185 -0.07712382
0001f0 36 af 0e bd fd 76 a2 3d 4c a9 bc 3d 41 20 0a 3d
       -0.034835063 0.079328515 0.09211978 0.033722166
000200 e6 59 51 bb b5 d4 3d 3e fe 1a d6 3d 04 da 42 3d
       -0.0031944453 0.18538173 0.10454367 0.047571197
000210 27 1c ae 3e 72 c0 50 3e 19 24 e5 3d 61 51 02 3e
       0.34005854 0.20385912 0.11188526 0.12726356
000220 a2 0b 5e 3d 87 9a e2 3c b4 26 6e 3e 39 0f 01 3e
       0.054210313 0.027661575 0.23256952 0.12603463
000230 dd 51 87 3d 9c 0c c2 bc 3a cf bd bd 5f 7f fa bd
       0.06607411 -0.023687653 -0.09268041 -0.12231325
000240 55 f2 dc bd ad f4 92 bd f3 46 46 bd 17 06 0a be
       -0.10788409 -0.071755745 -0.048407506 -0.13478886
000250 c2 9c c5 bd 26 91 99 bd a8 f6 32 be 10 f6 fe bd
       -0.0964904 -0.07498388 -0.17476904 -0.124492764
000260 9f 56 e3 3d ba 00 2e 3e c6 31 f5 bd 34 b4 7f bd
       0.11100506 0.16992465 -0.11972384 -0.062427714
000270 36 5e 5a 3d 83 86 4a be 6d 4d ec bd 0a cc 97 3d
       0.053312503 -0.19777875 -0.11538205 0.07411964
000280 ca 07 a2 be 66 82 4a be 72 d2 d8 bd b1 d2 a3 bd
       -0.31646568 -0.19776306 -0.10587014 -0.079991706
000290 41 4c ba 3d 8d fc 12 3d a1 5e 36 bb d7 af aa bd
       0.090965755 0.035885382 -0.00278274 -0.0833432
0002a0 54 97 fd bd 3c d5 c2 bd f9 48 b9 3d 5f 78 32 3d
       -0.12382379 -0.095133275 0.090471216 0.043571826
0002b0 6a a9 06 bd 9d c3 76 bb 21 e0 07 be e9 eb 96 3d
       -0.03287641 -0.0037653216 -0.13269092 0.07369215
0002c0 92 33 05 3d f9 d9 b8 bd 09 4a d6 bc 4e c2 77 bd
       0.032519884 -0.0902595 -0.02615835 -0.060488038
0002d0 13 36 c7 3d fb b9 23 3d e2 a5 51 3c 8d 3a 34 3e
       0.09727111 0.039972287 0.012795897 0.1760046
0002e0 1b 39 cb 3d bd ab 43 3d d7 4a 9d 3c 21 f0 01 3e
       0.099230014 0.047771204 0.019200725 0.12689258
0002f0 9e 1c 38 3d 83 01 3f bd 41 cf 67 bc cf df 40 bc
       0.044949166 -0.0466323 -0.014148534 -0.01177211
000300 7c 79 fd bd af 75 76 bd 38 78 13 bd 3a 31 c8 3d
       -0.12376687 -0.060170826 -0.03600332 0.09775014
000310 bc 06 dd bd 28 f6 7b bd e5 57 96 bd 5a c2 99 bc
       -0.107923 -0.06151405 -0.07340983 -0.018769432
000320 80 72 23 3d 5b 89 b8 3c f3 d2 52 3d b3 2d c8 3c
       0.039904118 0.022526434 0.051470708 0.024435854
000330 ef 6e ae bd 4d 53 c3 3d c4 78 69 3d d4 26 c0 bc
       -0.08517253 0.09537373 0.056999937 -0.023456015
000340 3d 07 38 bd 30 2e 8f 3d 85 3f 2e be 79 3f 05 be
       -0.044928778 0.069912314 -0.17016418 -0.13012494
000350 7f b3 93 bd e2 7a 10 be c2 89 43 be 49 54 fb bd
       -0.072119705 -0.14109376 -0.19095519 -0.122719355
000360 79 bc 01 be 8f ad a6 bd 01 26 af bd af b7 3b be
       -0.12669553 -0.081385724 -0.085521705 -0.18331788
000370 0a 15 f5 bd 79 40 b4 bd 63 5d 64 be 29 10 1b be
       -0.119669035 -0.0880136 -0.22301249 -0.15142883
000380 c5 4b dd bd c9 10 ed 3c ad 87 08 3e f0 24 0a 3e
       -0.108054675 0.028938668 0.13333006 0.13490653
000390 7c ef 1e be f8 d8 ad bd 36 7a 82 bd d5 0b 7f be
       -0.15521044 -0.08488649 -0.06370966 -0.24906857
0003a0 38 f9 13 be 5d 91 d4 bd 50 2c 27 3e 5a bd 81 3d
       -0.14450538 -0.10379288 0.16325498 0.06334944
0003b0 d9 51 bc 3c c4 ca 99 3e e3 a0 29 3e 54 89 bd 3d
       0.022988247 0.3003751 0.1656528 0.09254709
0003c0 91 40 3c 3c 6b f2 33 3c 81 d0 dd bc 1f 41 be bd
       0.011490003 0.01098309 -0.027076961 -0.092897646
0003d0 52 81 16 3d e8 ff 1b 3b 1a 70 5a be af 67 b1 3d
       0.036744423 0.0023803655 -0.21331826 0.08662354
0003e0 fe 16 10 3d 69 6a 34 3d 91 5a 35 3e 86 d4 bb 3d
       0.035178177 0.044046793 0.1771033 0.09171395
0003f0 b0 83 eb bc 61 49 09 3e aa 57 09 be 93 84 cb bd
       -0.028749317 0.13406898 -0.13412347 -0.09937396

W2:0 f4 [32, 32, 3, 3]
000000 83 73 9c bd 01 20 62 bd fd f2 fc bb 04 2c 9b 3d
       -0.076392196 -0.055206303 -0.007719396 0.07576755
000010 c2 92 2d 3d 38 c8 99 bd 7b 7a ab bb 79 a0 fa bc
       0.042376287 -0.07508892 -0.0052331067 -0.030594097
000020 8a dc 65 3d 4f ab 69 3b 4c 33 97 3d 35 96 48 bd
       0.056118526 0.0035655086 0.07382831 -0.048971374
000030 19 25 e5 bd e7 ba 2c be 8a a1 ed bc 8a d5 b2 bb
       -0.111887164 -0.16868173 -0.029007692 -0.0054575847
000040 31 b4 45 bd b6 e1 13 3d 95 d4 ee bd 6d 02 82 3d
       -0.048267547 0.036103927 -0.116616406 0.06348119
000050 5c 0d d8 bc f3 ba 85 bd 0c 3f 2e be d0 36 02 3e
       -0.026373558 -0.06529798 -0.17016238 0.12716222
000060 5a 3a f1 3c 6c 1b 96 3d 28 4b 8a bd 11 5d 39 bd
       0.02944677 0.07329449 -0.06752616 -0.04525477
000070 19 06 f9 bd 3b df 68 bc 13 aa a8 3d e8 7f 8b bd
       -0.12159366 -0.014213379 0.08235564 -0.068115056
000080 ed bd 8a bd 5d 3f 63 3c cd d7 f7 3b 7b 72 93 3c
       -0.06774507 0.013870087 0.0075635673 0.017998924
000090 e8 21 d4 bd 69 c1 42 bd 9b 21 30 3d b7 9e 04 bd
       -0.103580296 -0.04754773 0.0430008 -0.032377925
0000a0 b0 bf 57 bd 27 b4 e9 3d 86 06 81 bc 4e 6d 81 3d
       -0.05267304 0.114113145 -0.01575018 0.06319676
0000b0 fa 49 91 bd 68 13 22 3d 2c 0c 98 3d 2e f6 d6 3c
       -0.07094188 0.03956929 0.074241966 0.026240434
0000c0 28 5c f1 bb aa 7a 90 bd b0 c4 c8 bd 70 e7 80 bc
       -0.007365722 -0.07054646 -0.0980314 -0.015735358
0000d0 8a 07 05 3c d7 65 47 bd df b8 5c bd d8 d6 09 bb
       0.008119473 -0.048681106 -0.053887244 -0.0021032598
0000e0 1e d1 0a 3d c0 05 bd bd 9a b2 3d 3c 54 dc c8 3d
       0.033890836 -0.09229612 0.011578226 0.09807649
0000f0 fd 29 af 3c 4e c2 99 bd 94 44 99 bd 27 67 a4 bd
       0.021382326 -0.07507764 -0.07483783 -0.08027487
000100 00 4b aa bd a5 5a ab bc 22 34 39 bc cc a4 a9 3b
       -0.08315086 -0.020917246 -0.011303933 0.005177116
000110 13 d8 0f 3d c5 3c b3 3d 24 6c fd bd 7f 16 88 3d
       0.035118174 0.08751825 -0.12374142 0.06644916
000120 30 d5 29 bd dd 82 73 3d 05 b9 8e bd bf c5 8d 3b
       -0.041463077 0.059450973 -0.069688834 0.0043265517
000130 17 d8 e2 3c ca 05 92 3d a3 64 3a bc ca 68 f1 bd
       0.02769093 0.071300104 -0.011376533 -0.11787565
000140 de 26 1f 3d fd 5a 71 bc 9c c1 cf bd ff 55 45 be
       0.038855426 -0.014731166 -0.1014435 -0.19271086
000150 58 d7 1a 3b d8 8c 96 bd e1 9e 8b 3c 3f c9 7a bd
       0.002362689 -0.073510826 0.017043533 -0.06122708
000160 be f1 89 3d f2 ec 03 3c c9 d9 aa bc fb 3d 9b 3c
       0.06735562 0.008052098 -0.020855801 0.018950453
000170 02 44 2f be 75 e8 a2 bc ff e2 03 bc ad 95 fe 3b
       -0.17115787 -0.019886235 -0.008049726 0.0077693076
000180 59 1f d0 3c 3f 36 65 bc 2e 97 b9 3c f0 3b 45 bd
       0.025405573 -0.013989984 0.022655096 -0.048152864
000190 dc 76 82 3c cd ea 3f 3d d7 e5 58 3d 81 c5 67 3c
       0.015925817 0.046854783 0.052953567 0.01414621
0001a0 06 95 c1 bd 54 d7 e6 bc 97 73 7f bc c2 71 ce bd
       -0.09452252 -0.028178848 -0.015591524 -0.10080291
0001b0 fa 1f 75 bd 01 bc b3 3b 11 9c b7 bd 1b e3 d3 bd
       -0.05984495 0.0054850583 -0.08965314 -0.10346051
0001c0 11 e5 a5 3d d4 a0 a4 bc 4f 31 d0 bb fc 60 33 3d
       0.081003316 -0.02009622 -0.0063535343 0.043793663
0001d0 1f 16 7d 3c f8 59 92 bd 8e 20 96 3d 75 66 dd bc
       0.015447169 -0.071460664 0.07330428 -0.027026394
0001e0 25 08 a3 3d fa ab a6 bd e3 00 4f 3d da 7b a2 bd
       0.07960538 -0.08138271 0.050537955 -0.07933779
0001f0 2d 0e 94 3d da cb 05 3c c6 0d 00 bd dd d9 bb bb
       0.07229266 0.008166278 -0.031263135 -0.0057327584
000200 b9 60 3a 3d de 9f 3c bd a5 a1 08 bd 89 bd 13 bb
       0.0455024 -0.0460509 -0.03335728 -0.0022543392
000210 bf 66 b0 3d d3 40 35 3d 50 ee 8a bc 5e 2a de ba
       0.08613347 0.044251274 -0.01695934 -0.0016949882
000220 a3 a1 b6 bc d6 68 64 3d 2a a7 56 3d 15 e4 b2 3d
       -0.022293871 0.05576404 0.052405514 0.087349094
000230 5c fa f4 3d 64 16 e7 bc 4b 28 68 bd 46 ad 0a bd
       0.11961815 -0.028208919 -0.05667905 -0.033856653
000240 e9 d4 58 3c f5 18 0a 3d c3 c3 18 bc ce 18 8d bd
       0.0132343555 0.033715207 -0.009324017 -0.06889497
000250 c8 1b 81 3d b9 f2 7e bd 68 f9 6f bd 58 2c 49 bd
       0.06304127 -0.062243197 -0.05858746 -0.049114555
000260 59 eb 02 bb 3a 7d 8f 3d bd 0f 05 3d 60 9d ed bc
       -0.0019976704 0.07006307 0.032485712 -0.029005706
000270 83 7a ca bd 98 57 11 be 57 f5 57 be 54 f2 02 bd
       -0.098866485 -0.1419357 -0.21089683 -0.031969383
000280 bc af d9 3a b7 a2 84 bd 50 67 5d bd e1 89 41 bd
       0.0016608159 -0.06476348 -0.054053605 -0.047250632
000290 f0 4f ef 3d 80 7c 6a 3d b6 5f 73 3d dd 4c ea bc
       0.11685169 0.05724764 0.05941745 -0.028601104
0002a0 08 92 a4 3d f1 14 d7 bd 90 7b 75 3c 5f d3 2a 3d
       0.08035666 -0.10502041 0.014983073 0.041705485
0002b0 14 c8 e1 b8 37 34 b2 bd 22 2b dd bd cc d3 e3 3c
       -0.000107661035 -0.087013654 -0.107992426 0.027810954
0002c0 33 fe 74 bd 61 c6 c4 bd 7a 02 60 3d 73 54 06 3d
       -0.059812736 -0.0960815 0.05468986 0.03279538
0002d0 13 6c f5 bb be c7 cb bd b4 94 b2 bd 0c 10 b3 bd
       -0.00748969 -0.09950207 -0.08719769 -0.08743295
0002e0 de cb e0 bd 28 2e 8c 3d ed 7d 25 3c 8a bf ef 3c
       -0.109763846 0.06844741 0.010100824 0.029266138
0002f0 9a 18 9a bd c0 ab 09 bc 84 f9 9e bd 4f 52 a6 bd
       -0.075242236 -0.008402765 -0.07762435 -0.08121168
000300 da f5 01 3d 25 a7 49 be 43 ca eb bd 9d b5 e1 bc
       0.031728603 -0.19692667 -0.11513188 -0.02755242
000310 d8 3c c4 bd c4 75 0a 3d bd d6 22 bc 17 91 4d 3d
       -0.095819175 0.033803716 -0.009938893 0.050187197
000320 2a 92 b2 3d 89 8c b7 bd 99 f0 0a be ac b1 75 bd
       0.08719285 -0.08962352 -0.13568343 -0.059983894
000330 4e 25 12 bd 80 b8 50 3c fc 15 aa 3d 51 af 5b 3d
       -0.035680108 0.012739301 0.083049744 0.05363399
000340 a3 ea e5 bb f9 3c d7 3d 8b 96 84 bd ba 37 b5 bd
       -0.0070164963 0.105096765 -0.06474026 -0.088485196
000350 38 49 7b 3d 90 f8 76 bd ca bf 29 bd b0 72 9b bd
       0.061349124 -0.06029564 -0.04144267 -0.07590234
000360 24 8f c1 bd be ca 74 bd 75 ce e3 bd e0 9b 29 bd
       -0.0945113 -0.059763663 -0.11123363 -0.04140842
000370 af 5c 37 bc 01 c3 7e 3c 09 70 44 3b f5 18 be 3c
       -0.011191531 0.015549422 0.0029974005 0.02320526
000380 3d 4f a8 bd c4 76 4f 3d e7 5a a4 bd 95 62 f3 bc
       -0.082182385 0.050650373 -0.08025151 -0.029710094
000390 a9 ba 9b 3d 2c 7b 06 be 1d 50 39 bc be a5 a8 bd
       0.07603962 -0.13132924 -0.011310604 -0.08234738
0003a0 8e 40 bc bd 6e 35 42 3b 87 e3 f6 3c 65 ad 14 3e
       -0.09192 0.0029633897 0.03013779 0.1451927
0003b0 68 cd df 3d d9 b3 d6 bd a7 da f9 bd 73 88 8d bd
       0.1092785 -0.10483522 -0.12199908 -0.06910791
0003c0 3b b9 43 3c 27 f2 c5 bc ea 74 a0 3d e0 58 68 3d
       0.011946018 -0.024163319 0.078347996 0.056725383
0003d0 d7 3a e7 3d 76 d0 4d bc bd bf 09 3d 5e 81 b7 bd
       0.1129052 -0.012561908 0.03363012 -0.08960222
0003e0 51 c1 c4 3d 97 fd 87 bc 2f bd 9c bc 87 31 de bd
       0.09607185 -0.016600413 -0.019133179 -0.1084929
0003f0 30 04 b7 bc af d2 23 3d ca b8 38 3d cf 0c 29 3d
       -0.022340864 0.039995845 0.045098104 0.04127198

W1:0 f4 [32, 3, 3, 3]
000000 bd aa 29 bd 96 48 ad 39 5d dc a0 bb 0f b9 8a bc
       -0.041422594 0.00033051212 -0.004909082 -0.016933946
000010 a5 61 23 3b fc 1e 24 3d 37 dc 73 bd 3b f3 23 3d
       0.0024930027 0.04006861 -0.059536185 0.040026885
000020 64 78 24 bd c7 96 57 3c f1 b0 a6 bc 2f c4 f6 bc
       -0.040153876 0.013158507 -0.020348044 -0.030122845
000030 c6 56 83 3d ea 5c 36 3d e5 db 86 3c b2 98 a7 bc
       0.06413035 0.044522204 0.016462276 -0.020458553
000040 22 27 43 bd af 3e 08 3c fc 43 ca 3c 68 e0 14 bd
       -0.04764474 0.008315726 0.02469062 -0.036346823
000050 9e 4a ca bc b6 44 88 bc 41 9a 67 3d 40 18 f1 3c
       -0.024693783 -0.016634326 0.056543592 0.029430509
000060 46 fd a8 bc 36 1a 8f bd 02 e5 3b bd 0d eb 7a 3d
       -0.020628583 -0.06987421 -0.045872696 0.06125932
000070 c8 39 c1 bc 18 af a0 bc cd 0d e7 bc 5f 19 c9 3c
       -0.023587123 -0.019614741 -0.028204823 0.02454823
000080 e5 e2 45 3d bb 90 8a bc ce fc b1 bc 51 b7 d6 3c
       0.048312087 -0.016914716 -0.021726992 0.026210459
000090 c8 6a b1 bc 9b 1b f8 bc 87 1c 0c bd a9 d9 8f bb
       -0.021657363 -0.0302866 -0.034206893 -0.004389961
0000a0 ce 92 87 bb 09 6d 50 3d ba 42 2b bc e5 6b 06 bd
       -0.0041373735 0.050885234 -0.010452921 -0.03281774
0000b0 20 89 7d 3d 9f 71 90 bc c8 c2 22 bc ea 66 ae 3c
       0.06189835 -0.017632304 -0.009934135 0.021289308
0000c0 0f 1d 89 3c c6 a1 0a bd 38 57 68 3d 86 f2 0f 3c
       0.016737489 -0.033845685 0.056723803 0.008785849
0000d0 10 00 0b 3d 23 91 aa 3c 38 f0 9f bc 0d 52 01 bd
       0.033935606 0.02082116 -0.019523725 -0.03157239
0000e0 aa 8e b1 37 18 b6 12 bc 49 a3 e1 3a 74 8e 4d 3d
       2.1166477e-05 -0.008954547 0.00172148 0.050184682
0000f0 cc b5 c7 3b 68 53 ef bc 11 9a 63 3d c4 f2 c7 3c
       0.00609467 -0.029214576 0.05556685 0.024407752
000100 df a9 db 3a ee 8e 73 3c f8 07 b2 3c b4 2e f0 bb
       0.0016759 0.01486562 0.021732315 -0.007329786
000110 38 8c fa 3c 47 a8 c6 3c 7b 18 3c 3d dc fb 30 3d
       0.03058444 0.024250163 0.045921784 0.04320894
000120 05 42 f7 3c 4d fc 0b bc bc af be bc 1d 03 b5 3c
       0.030182848 -0.00854404 -0.023277156 0.022096211
000130 fd ca 29 3d 0e ea 66 bd 66 b4 80 3c 9e 90 be bc
       0.04145335 -0.056375556 0.01571102 -0.023262318
000140 fc cf ee bc e1 09 ce 3b 89 be 36 bd eb 2d 15 3d
       -0.029151909 0.0062877988 -0.044615302 0.036420744
000150 3f 32 9c bb 24 fb 07 bc c6 9e 62 bc 77 f7 4c bc
       -0.004766732 -0.008299623 -0.0138318 -0.012510172
000160 4f bb b2 bc 74 8f 47 bd 56 91 63 3b 34 d2 96 bd
       -0.021817831 -0.048720792 0.0034724078 -0.07364312
000170 ad ba e0 bb b1 29 d7 3b d6 bb ee bc 0f 28 1b bd
       -0.006858191 0.0065662493 -0.029142302 -0.03788
000180 c5 3b b2 3c b6 d1 23 bd f3 ef d8 bc 44 26 b4 bc
       0.021757016 -0.039994918 -0.026481604 -0.021990903
000190 b4 90 f2 3c 4e 26 b6 bc 28 5b 84 bb 02 a2 4b 3d
       0.029610015 -0.022235062 -0.004039187 0.04971505
0001a0 32 b8 78 3b 88 4e 92 3c da 1a 42 bd f2 33 a9 3c
       0.0037951586 0.017859712 -0.04738889 0.020654652
0001b0 4b 45 8f bb 90 3f 2c 3b 7d bd 1e 3d 41 f5 f5 bc
       -0.004372274 0.0026283003 0.03875493 -0.030024173
0001c0 c1 65 20 bd c3 e1 01 bd 48 5b 9f 3c 21 a1 43 3c
       -0.03915954 -0.031709444 0.019452706 0.011940272
0001d0 ac da cb 3c a7 a2 16 bc 53 2c 16 3c c5 1b 98 bc
       0.024884544 -0.009194053 0.009165841 -0.018567929
0001e0 da 34 c1 bc 52 0a c0 bc a7 52 e5 3c bf 80 66 3d
       -0.023584772 -0.023442421 0.027993513 0.056275126
0001f0 e1 68 81 3c d9 ba 52 bc 5c c5 15 bd 72 d8 5e 3b
       0.01579708 -0.012861931 -0.03656517 0.0034003523
000200 c6 72 7c 3c 4b 9a 98 bc 65 61 22 bb bf 4c 10 bc
       0.0154082235 -0.01862826 -0.002477729 -0.00880736
000210 e2 90 4e bc 6b 64 8e bc 8a 94 21 bd 34 07 66 bc
       -0.012607785 -0.017381867 -0.0394483 -0.014039803
000220 a9 89 f0 bc d4 0b 42 bd 38 e6 4e bc 60 63 a3 bc
       -0.029362516 -0.04737456 -0.012628131 -0.019944847
000230 9f a1 94 3b e7 a7 2b 3c fc d6 0c bc 6c ef d6 bc
       0.0045358683 0.010477043 -0.008596178 -0.026237212
000240 a4 ce c3 3c e5 67 bb 3a ee 20 e0 bc ac 30 83 bc
       0.023902245 0.0014297931 -0.027359452 -0.01601442
000250 b9 f8 e1 3c 74 70 84 3c 3a 2e 78 bc 8a d0 ca 3c
       0.02758442 0.016166903 -0.01514774 0.024757642
000260 d6 e0 25 bc bc 08 16 3d b6 61 9f bc 45 f5 23 bc
       -0.010124406 0.036629423 -0.019455772 -0.010007207
000270 21 4c 22 3c 86 a7 90 bc 8e f6 31 3d c4 0a 25 bc
       0.009905846 -0.017658006 0.043448023 -0.0100733675
000280 fc 2d b4 3c 1c cb f5 bb 28 a9 47 ba 5d 5d f9 bb
       0.021994583 -0.007501019 -0.0007616454 -0.0076100067
000290 47 45 b3 3b 23 7c ee 3c ba 6f 14 3d c6 19 89 3d
       0.005470905 0.029111927 0.036239363 0.06694369
0002a0 54 08 7a 3c dd 15 38 3d 65 a5 a1 bc 22 53 ca bc
       0.015260775 0.044942725 -0.019732187 -0.024697844
0002b0 d5 9d 5b bd 8a 44 b3 3c 8b 70 b4 3c 6a 20 76 3d
       -0.053617317 0.021883268 0.02202632 0.060089506
0002c0 71 70 a0 3c 19 a1 4e 3b 26 3e 39 bd a5 cc 6c 3c
       0.019584866 0.0031529127 -0.045225285 0.014453088
0002d0 f1 1b 39 3c 15 1f b0 39 3b d3 c4 3c 96 40 00 bd
       0.011298166 0.00033592494 0.024026504 -0.031311594
0002e0 ce 55 e7 3c d7 d2 3e 3d 5c dd 4c 3a 1e f3 03 bd
       0.028239157 0.04658779 0.00078149675 -0.032214276
0002f0 0c e7 2a 3c 15 93 3b 3c 49 b1 ae bc 6a 4a 78 bc
       0.010431062 0.011448641 -0.02132477 -0.01515446
000300 9d 4a d3 bc 34 95 39 bb 88 dc 91 3c 23 87 27 b8
       -0.025792414 -0.0028317692 0.017805353 -3.994176e-05
000310 5c f2 32 bc 2a 56 d1 3b 81 cb 51 3b b4 f7 f5 3b
       -0.010922041 0.0063884454 0.0032012167 0.007506335
000320 b9 04 54 bc fc 2e a2 bb 61 f0 c5 3b 11 4c d7 3b
       -0.012940579 -0.0049494486 0.0060406183 0.006570347
000330 60 43 e2 bb f7 65 6b bc 92 63 fe 3c 37 64 c8 bb
       -0.0069050044 -0.014367572 0.031053338 -0.006115462
000340 9d cb fd ba ba e4 9c 39 82 e3 88 3c 2c 52 62 bc
       -0.001936305 0.00029925053 0.016710047 -0.013813537
000350 78 6a b4 3c a3 64 f6 bb b9 96 b0 3a 01 9d c4 3b
       0.022023425 -0.007519321 0.0013472653 0.0060001616
000360 a6 41 c0 bc d9 a0 01 bc 65 aa 9b bc f7 37 bc bc
       -0.023468804 -0.007911884 -0.019002149 -0.022975905
000370 c0 ec a0 bb 3c 18 0e bd 92 83 46 3d 45 6e 41 3b
       -0.0049110353 -0.03469108 0.04846532 0.0029515189
000380 47 d4 09 bc 2e 9b 92 39 9e 34 66 bb 93 e2 b0 3b
       -0.008412427 0.00027962908 -0.0035126577 0.0053981035
000390 68 8a 7d bc 53 1b e5 bc 90 86 68 bc 3b 4b 42 bc
       -0.015474893 -0.02796713 -0.014192238 -0.011858757
0003a0 df 40 fb bc 7d ed bc 3d 0a d7 2d bc 8e f9 9c 3b
       -0.030670581 0.09224985 -0.010610351 0.0047904914
0003b0 0f fe 35 3c 5e ba cd 3b 99 6e be bc ef b7 8d 3a
       0.011107936 0.00627832 -0.023246096 0.0010812263
0003c0 7b 15 09 bc 96 91 00 bd c1 4d 17 bd 89 47 66 bc
       -0.008366938 -0.03138884 -0.036939386 -0.014055141
0003d0 8f cf 78 bc 26 0a bb 3c 43 4e c1 b9 7a 1c 90 bb
       -0.015186205 0.022831988 -0.00036870138 -0.004397926
0003e0 3e 7e 75 bd 6c cc d5 bc da 00 25 bd 99 b8 f9 bb
       -0.059934847 -0.026098453 -0.040284015 -0.0076208827
0003f0 84 eb a7 bb 3c 1e 8c bc d1 1a 9e 3c 98 52 2a bc
       -0.005124511 -0.01710426 0.019299896 -0.010395668
