resources/onnx/acasxu/ACASXU_experimental_v2a_3_7.onnx (onnx, 55889 bytes, 15 tensors)

input_AvgImg f4 [1, 1, 1, 5]
0.0 0.0 0.0 0.0 0.0
00000000: 0000 0000 0000 0000 0000 0000 0000 0000
00000010: 0000 0000

Operation_1_MatMul_W f4 [5, 50]
-0.0192248 -0.831308 0.0957709 0.00270354 0.261472 -0.000596261 0.0636014 -0.0464169
-0.0763251 -0.158969 0.0542527 -2.41323 0.00207077 -0.404558 0.059818 -0.152746
0.0340706 -0.00101912 0.0386523 0.0576233 -0.0656038 0.0582329 -0.0249657 0.146626
0.067069 0.0827161 0.092766 0.143881 0.243149 1.50567 -0.0959561 0.0144506
0.135702 0.104035 -0.00959835 0.527534 0.0602422 -0.0314788 -0.414617 0.194064
-0.0325304 0.210364 0.366309 0.33776 -0.00670381 -0.0972164 0.0115294 -0.115406
0.26701 8.26039e-05 -0.236551 -0.0228881 -1.45745 -2.17045 2.15523 0.00294319
-0.962529 0.5871 1.52615 -1.13156 1.64416 -0.00434527 1.80746e-05 2.13811
0.672565 2.45822 0.220598 -0.730161 0.307222 -1.22319 -0.993323 0.0176986
1.40909 1.5292 0.136367 0.125886 -0.451734 0.0140977 -0.200708 0.0102077
0.302123 0.190944 -1.36703 2.45557 0.857224 -0.459514 -0.619377 0.0361145
2.10311 1.66816 0.331361 -0.139827 1.93258 1.36725 -0.584509 0.942324
-0.554339 1.54142 0.718495 -0.000200497 0.0856924 0.00429791 0.0540406 2.28358
-2.31095 0.0283136 1.47521 -0.271994 0.0498472 1.59018 0.434108 -0.0055336
0.00793977 -2.10553 0.232728 -1.65199 -0.301466 -1.2083 1.21872 1.08755
0.845491 0.0468038 0.964315 -1.57311 -0.152774 0.209126 -0.0102195 0.311678
2.38433 0.0146551 0.0460841 -0.132193 -0.31247 -0.0396492 0.921071 0.526059
1.04483 -0.793038 -2.16629 -1.23148 -0.832915 0.143303 0.0844209 -1.86454
-0.406907 0.799793 -0.792849 2.18477 -0.523112 -0.0035075 0.200317 0.0215723
0.520521 -0.33347 0.295295 0.00391705 0.229052 -0.343503 0.0396683 -0.190519
0.986632 -0.038302 0.0259361 -0.109826 -0.379388 0.194936 0.0148213 -0.258133
-0.1087 -0.214284 0.123455 -0.125637 -0.194149 -0.310598 -0.0514448 -0.297228
-1.30673 0.371955 0.325547 0.00457299 0.071701 0.449135 0.216897 0.619857
0.653747 -0.277562 0.0424991 0.120974 -0.243224 0.115517 -0.279113 -0.0059344
0.320295 0.15427 0.863706 -0.600385 -0.96283 0.106084 -0.382229 -0.0236127
0.271468 -0.0241813 -0.568239 0.477844 -0.827088 0.00083806 -0.303901 0.470977
-0.738197 0.468766 -1.17364 -0.0189904 -0.00196897 0.505237 0.195361 -0.799001
0.29602 0.188973 0.0959046 0.368127 -0.368917 -1.45639 0.765758 0.534765
-0.216232 -0.0835105 0.175244 -0.38866 -0.0378334 0.0639517 0.0199826 -0.455585
-0.0749274 -0.742374 -0.150781 0.248028 0.285455 -0.076952 0.656098 0.0835524
-0.799415 -0.234224 -0.103844 -0.22728 -0.96987 0.151126 1.01621 -0.0504861
0.377785 -0.00617684
00000000: 547d 9dbc 9ad0 54bf 8923 c43d e02d 313b
00000010: a8df 853e 664e 1cba 7341 823d a61f 3ebd
00000020: 5650 9cbd c5c8 22be 1438 5e3d 5c72 1ac0
00000030: c1b5 073b 3a22 cfbe b803 753d 7369 1cbe
00000040: 9d8d 0b3d fe93 85ba e051 1e3d 6906 6c3d
00000050: 495b 86bd 9f85 6e3d de84 ccbc 2025 163e
00000060: 795b 893d 0f67 a93d 1afc bd3d 8a55 133e
00000070: 0dfc 783e cbb9 c03f a284 c4bd 36c2 6c3c
00000080: 77f5 0a3e 4d10 d53d 6642 1dbc 780c 073f
00000090: 86c0 763d eaef 00bd ae48 d4be b7b8 463e
000000a0: 993e 05bd a969 573e da8c bb3e e1ee ac3e
000000b0: a2ab dbbb 6419 c7bd cfe5 3c3c fb59 ecbd
000000c0: 89b5 883e a23b ad38 6d3a 72be d37f bbbc
000000d0: b98d babf a7e8 0ac0 4aef 0940 89e2 403b
000000e0: 4d68 76bf 304c 163f e258 c33f f5d6 90bf
000000f0: d673 d23f c462 8ebb e89e 9737 cbd6 0840
00000100: 382d 2c3f 7a53 1d40 71e4 613e d5eb 3abf
00000110: 344c 9d3e 7d91 9cbf 6b4a 7ebf a8fc 903c
00000120: 105d b43f d3bc c33f caa3 0b3e 42e8 003e
00000130: ae49 e7be 0afa 663c 6686 4dbe 323e 273c
00000140: deaf 9a3e d386 433e d7fa aebf 0f28 1d40
00000150: 0873 5b3f 6b45 ebbe 7e8f 1ebf ccec 133d
00000160: 5b99 0640 4486 d53f 26a8 a93e cf2e 0fbe
00000170: c85e f73f 0c02 af3f 62a2 15bf 253c 713f
00000180: 29e9 0dbf 404d c53f 4aef 373f 813c 52b9
00000190: 7f7f af3d 7bd5 8c3b ad59 5d3d 2d26 1240
000001a0: 9be6 13c0 ecf1 e73c aed3 bc3f cc42 8bbe
000001b0: 942c 4c3d 058b cb3f 6743 de3e 3453 b5bb
000001c0: cf15 023c 01c1 06c0 4050 6e3e 6974 d3bf
000001d0: c059 9abe 93a9 9abf 04ff 9b3f d734 8b3f
000001e0: 1972 583f 57b5 3f3d 59dd 763f ab5b c9bf
000001f0: ca70 1cbe 2025 563e b16f 27bc 4294 9f3e
00000200: dd98 1840 f21b 703c aec2 3c3d 9a5d 07be
00000210: 11fc 9fbe 3367 22bd 4fcb 6b3f cdab 063f
00000220: fdbc 853f 8a04 4bbf 7fa4 0ac0 23a1 9dbf
00000230: eb39 55bf 06be 123e dde4 ac3d 3fa9 eebf
00000240: 1d56 d0be 3cbf 4c3f 27f8 4abf 46d3 0b40
00000250: abea 05bf 16de 65bb e61f 4d3e 64b8 b03c
00000260: dd40 053f 94bc aabe e830 973e 995a 803b
00000270: 9c8c 6a3e a0df afbe 3a7b 223d 6a17 43be
00000280: ea93 7c3f 8fe2 1cbd f277 d43c 74ec e0bd
00000290: 253f c2be 4e9d 473e 0ad5 723c 022a 84be
000002a0: 1b9e debd 446d 5bbe fad5 fc3d fca6 00be
000002b0: ffce 46be b306 9fbe c8b7 52bd 452e 98be
000002c0: ee42 a7bf e370 be3e 19ae a63e 05d9 953b
000002d0: f9d7 923d 06f5 e53e 3f1a 5e3e f3ae 1e3f
000002e0: f75b 273f 9b1c 8ebe 8913 2e3d 37c1 f73d
000002f0: b60f 79be 2d94 ec3d e6e7 8ebe 5b75 c2bb
00000300: b5fd a33e f4f8 1d3e d61b 5d3f d5b2 19bf
00000310: 077c 76bf 9142 d93d 85b3 c3be 6c6f c1bc
00000320: dbfd 8a3e dd17 c6bc 1c78 11bf f8a7 f43e
00000330: 0abc 53bf 41b1 5b3a e998 9bbe e623 f13e
00000340: 7bfa 3cbf 1902 f03e d639 96bf c191 9bbc
00000350: d609 01bb 3657 013f b70c 483e 548b 4cbf
00000360: ef8f 973e 2382 413e a269 c43d 247b bc3e
00000370: b0e2 bcbe fd6a babf b708 443f 5ce6 083f
00000380: ec6b 5dbe 8e07 abbd 2a73 333e 72fe c6be
00000390: 32f7 1abd 1cf9 823d 8db2 a33c 7042 e9be
000003a0: 8973 99bd 390c 3ebf 5666 1abe 0dfb 7d3e
000003b0: 2827 923e 0399 9dbd 0af6 273f 851d ab3d
000003c0: 76a6 4cbf 6bd8 6fbe 2aac d4bd 17bc 68be
000003d0: 6649 78bf c6c0 1a3e 2b13 823f 83ca 4ebd
000003e0: 096d c13e 1767 cabb

Operation_1_Add_B f4 [50]
0.0431272 -0.0401916 -0.0585449 -1.0055 -0.477324 -0.020929 -0.323109 0.114672
-0.200925 -0.255762 -0.154282 -0.370077 -0.020573 -0.618581 -0.218585 -0.0791463
0.0769122 0.102669 0.00705174 -0.371219 -0.103562 -0.602158 -0.0181815 -0.707295
0.0436356 -0.0939766 -0.345696 0.122867 0.115288 0.441991 0.0424874 0.113828
0.0938446 -0.219265 -0.0453555 0.112696 -0.31325 0.0477372 -0.304823 -0.467416
-0.413897 0.00173897 0.0511982 0.151261 -0.0639235 0.00237467 0.107278 0.180653
-0.155859 -0.019312
00000000: 26a6 303d f29f 24bd c7cc 6fbd 39b4 80bf
00000010: d063 f4be 4b73 abbc 8b6e a5be 27d9 ea3d
00000020: 48bf 4dbe 3df3 82be 1afc 1dbe bc7a bdbe
00000030: b588 a8bc 535b 1ebf bfd4 5fbe 7517 a2bd
00000040: 2584 9d3d 2044 d23d 4812 e73b 6b10 bebe
00000050: 5018 d4bd 0727 1abf 5ef1 94bc 4911 35bf
00000060: 3ebb 323d ce76 c0bd 11ff b0be b2a1 fb3d
00000070: 1d1c ec3d a54c e23e 4507 2e3d a81e e93d
00000080: 9931 c03d 0187 60be b0c6 39bd 29cd e63d
00000090: 4e62 a0be 1588 433d c311 9cbe 2651 efbe
000000a0: 4fea d3be 27ee e33a 34b5 513d 2ae4 1a3e
000000b0: 53ea 82bd 5aa0 1b3b 91b4 db3d 1afd 383e
000000c0: 8099 1fbe 3334 9ebc

Operation_2_MatMul_W f4 [50, 50]
0.471634 -0.0189216 -0.112401 1.03591 0.517439 0.0230318 0.598864 -0.0300388
-0.051741 -0.00159969 -1.09588 -0.969604 0.0554859 -0.0419515 -0.254904 -0.227146
-0.00262673 0.112319 0.484909 -0.014181 0.0485625 -0.0606312 -0.66848 -0.196575
0.168838 -1.7338 -0.0935283 -0.333957 -0.297972 0.278108 0.00331333 -1.74083
-0.230417 0.930034 -0.0373946 -2.07734 -0.489215 0.0241509 -0.219973 -0.1543
-0.00460783 0.462325 -0.0958785 -0.944406 0.551873 0.632491 0.535947 -0.858487
0.464665 2.02726 0.0339394 -0.0181883 -0.910264 -0.635793 0.00621334 0.0272339
0.414672 0.0360761 -0.00371815 -1.11878 0.286485 -0.288523 -0.163523 -0.603977
-1.17553 -0.00513728 0.0103586 -0.506675 -0.925454 -0.465766 -0.0667049 -0.0103195
-0.759031 0.0322376 -0.496651 -4.3694 0.327075 0.198778 0.0187369 0.336508
-0.0392278 0.674082 -0.653821 0.256723 0.018012 -0.310766 -0.531651 -0.0106973
0.277792 -0.320425 -0.0291413 -0.562644 -0.00297441 -2.08783 0.596877 -0.196891
0.283258 -0.768651 -0.322503 0.701484 -0.0532099 -0.0294312 -0.507129 -0.325012
0.46788 0.0219388 2.04096 -0.00393762 0.0117685 -0.446293 -1.27343 0.0174558
0.228687 1.45122 0.113302 -1.40096 -0.0365566 0.924107 -1.45234 0.481622
-0.495489 -0.0465741 -1.85286 0.21547 0.356001 0.011504 -0.556965 0.513225
-0.203351 -1.38826 -0.0180259 0.0749449 0.33108 0.243111 0.0373265 0.924832
-0.791935 0.0332115 -0.451976 0.999968 -0.00157625 -0.0268869 0.138581 1.35845
0.809595 -0.560621 -0.312151 0.42372 -0.323811 0.296371 -0.248636 -0.0251698
0.832216 -3.05112 -0.297158 0.0105079 -1.40306 -0.0413823 0.00911321 -1.87747
-1.74624 -0.297673 0.127685 1.07711 0.22537 0.00791737 -0.00664154 0.744919
-1.09741 -1.31022 -0.134285 0.0166672 0.95297 1.94339 -0.302961 0.00928987
0.0964453 -0.0405912 -1.48239 -0.611726 0.00700425 0.124244 -0.894856 -0.0502853
-0.00348221 0.131216 -0.641514 -0.0132519 -0.119128 1.18367 -0.0512501 -0.714059
-0.263247 2.24052 -0.900886 -0.111862 0.353692 1.64187 -2.32918 0.197676
0.326486 -0.0116585 -0.0214269 0.47737 0.514978 -0.0141769 0.326617 0.023609
0.00633951 0.113216 0.399574 0.380959 -0.153272 -0.509336 0.0576518 0.621944
0.0368989 -0.375837 1.31735 0.664132 -0.392621 -0.00344312 0.314845 0.556137
-0.257275 1.52084 -0.0225454 0.371438 -0.300572 -0.311 0.00752258 0.0182328
0.259369 -0.148703 0.0248274 0.316604 0.519967 -0.0415923 0.282187 -0.437573
0.0190927 -0.218104 -0.42485 -0.257115 0.42835 -1.2685 -0.153291 0.172508
-0.694517 0.502523 -0.011214 -0.00375126 -0.0377779 -0.0105169 0.0254217 0.0402844
00000000: 037a f13e 7901 9bbc 7f32 e6bd b398 843f
00000010: e276 043f 2fad bc3c 274f 193f ee13 f6bc
00000020: 5fee 53bd b0ac d1ba cc45 8cbf f837 78bf
00000030: 2f45 633d 56d5 2bbd c782 82be f698 68be
00000040: 3725 2cbb 8107 e63d fe45 f83e 6d57 68bc
00000050: 79e9 463d 6c58 78bd 8121 2bbf f54a 49be
00000060: dee3 2c3e 29ed ddbf c48b bfbd 69fc aabe
00000070: c98f 98be 2c64 8e3e 7424 593b 84d3 debf
00000080: 6ff2 6bbe b516 6e3f 152b 19bd 23f3 04c0
00000090: 637a fabe 1cd8 c53c 9a40 61be d200 1ebe
000000a0: 48fd 96bb ddb5 ec3e f25b c4bd 97c4 71bf
000000b0: 8d47 0d3f eeea 213f d333 093f cec5 5bbf
000000c0: 92e8 ed3e a1be 0140 0a04 0b3d a1ff 94bc
000000d0: 1007 69bf 54c3 22bf 4699 cb3b a119 df3c
000000e0: e34f d43e 88c4 133d 35ac 73bb 2f34 8fbf
000000f0: 29ae 923e 49b9 93be 9372 27be 3d9e 1abf
00000100: c477 96bf a156 a8bb 1eb7 293c 74b5 01bf
00000110: 8eea 6cbf e278 eebe 949c 88bd 1f13 29bc
00000120: db4f 42bf 930b 043d 0a49 febe 20d2 8bc0
00000130: 6076 a73e 768c 4b3e 217e 993c c74a ac3e
00000140: 54ad 20bd a390 2c3f d060 27bf 3271 833e
00000150: e78d 933c b91c 9fbe 481a 08bf ba43 2fbc
00000160: c13a 8e3e bf0e a4be bcb9 eebc 7009 10bf
00000170: 52ee 42bb 029f 05c0 eecc 183f cb9d 49be
00000180: 3107 913e 50c6 44bf 1d1f a5be 7594 333f
00000190: a0f2 59bd b319 f1bc 35d3 01bf f967 a6be
000001a0: f88d ef3e 00b9 b33c 179f 0240 2707 81bb
000001b0: abd0 403c 8480 e4be c1ff a2bf 77ff 8e3c
000001c0: ed2c 6a3e 94c1 b93f e10a e83d a852 b3bf
000001d0: 60bc 15bd 4792 6c3f 47e6 b9bf 2997 f63e
000001e0: bcb0 fdbe 7cc4 3ebd 842a edbf 2ba4 5c3e
000001f0: c345 b63e 467b 3c3c 4295 0ebf b762 033f
00000200: 3f3b 50be 81b2 b1bf 0dab 93bc b67c 993d
00000210: 5183 a93e 17f2 783e ace3 183d cac1 6c3f
00000220: 41bc 4abf c808 083d 6669 e7be e7fd 7f3f
00000230: 2c9a ceba eb41 dcbc 2de8 0d3e b1e1 ad3f
00000240: 9e41 4f3f dc84 0fbf 42d2 9fbe d4f1 d83e
00000250: 8eca a5be f1bd 973e 709a 7ebe e530 cebc
00000260: 1c0c 553f 8d45 43c0 1825 98be 5429 2c3c
00000270: 7897 b3bf 7d80 29bd 934f 153c f050 f0bf
00000280: cb84 dfbf 9868 98be dbbf 023e bede 893f
00000290: 65c7 663e dbb7 013c 47a1 d9bb 03b3 3e3f
000002a0: ee77 8cbf 4ab5 a7bf 0282 09be a789 883c
000002b0: d8f5 733f 01c1 f83f b41d 9bbe 8a34 183c
000002c0: 1d85 c53d f542 26bd f5be bdbf 139a 1cbf
000002d0: e883 e53b a373 fe3d 4815 65bf f5f7 4dbd
000002e0: ca35 64bb 7d5d 063e 433a 24bf 7f1e 59bc
000002f0: 62f9 f3bd 8082 973f a0eb 51bd 92cc 36bf
00000300: 50c8 86be ae64 0f40 77a0 66bf e717 e5bd
00000310: 1e17 b53e cc28 d23f 4911 15c0 946b 4a3e
00000320: 2c29 a73e 4b03 3fbc 7787 afbc d769 f43e
00000330: 99d5 033f 3a46 68bc 583a a73e a967 c13c
00000340: aabb cf3b cadd e73d f794 cc3e 0f0d c33e
00000350: 56f3 1cbe d863 02bf 4b24 6c3d b937 1f3f
00000360: 4d23 173d b56d c0be ed9e a83f 8e04 2a3f
00000370: 9f05 c9be f8a5 61bb 5d33 a13e ff5e 0e3f
00000380: 8cb9 83be e3aa c23f 21b1 b8bc 1f2d be3e
00000390: 93e4 99be 643b 9fbe fa7f f63b f45c 953c
000003a0: 03cc 843e 9945 18be d562 cb3c eb19 a23e
000003b0: 8f1c 053f b05c 2abd d17a 903e 9109 e0be
000003c0: 4b68 9c3c a856 5fbe f085 d9be 94a4 83be
000003d0: b150 db3e 355e a2bf 51f8 1cbe f0a5 303e
000003e0: decb 31bf 59a5 003f edba 37bc b3d7 75bb
000003f0: 00bd 1abd 134f 2cbc 2b41 d03c 4101 253d

Operation_2_Add_B f4 [50]
-0.20769 -0.0108832 0.0229485 1.00512 -0.813316 -0.0168151 0.0737148 -0.0149607
-0.0112389 0.765333 0.160393 0.65211 -0.283459 0.385884 1.17672 -0.841651
-0.00885195 -0.350855 0.392412 -0.677577 -0.280763 -0.0315113 -0.406521 -0.282666
0.0525866 -1.39727 0.28939 -0.174217 0.199102 -1.01602 -0.0172245 -0.903313
-0.424674 -0.0065654 -0.0148428 -0.330074 0.515645 -0.0103069 0.780041 -0.455794
-0.0150817 0.764783 -0.178888 -0.407995 0.65919 -0.653812 -0.226833 -0.583916
0.962187 0.473837
00000000: b0ac 54be 734f 32bc 7efe bb3c c6a7 803f
00000010: 7a35 50bf d2bf 89bc c9f7 963d b91d 75bc
00000020: 5d23 38bc ddec 433f 103e 243e aef0 263f
00000030: 8a21 91be 9692 c53e c39e 963f 7176 57bf
00000040: c507 11bc 44a3 b3be 3aea c83e b075 2dbf
00000050: 2bc0 8fbe fe11 01bd 8523 d0be 99b9 90be
00000060: 0c65 573d bed9 b2bf ed2a 943e f165 32be
00000070: 65e1 4b3e f20c 82bf 651a 8dbc 853f 67bf
00000080: df6e d9be 9122 d7bb 372f 73bc 76ff a8be
00000090: 5001 043f 46de 28bc c4b0 473f d55d e9be
000000a0: 3c19 77bc d2c8 433f 6a2e 37be b8e4 d0be
000000b0: adc0 283f 3960 27bf e946 68be 857b 15bf
000000c0: e351 763f c39a f23e

Operation_3_MatMul_W f4 [50, 50]
0.393981 -0.397124 0.559504 -0.5539 0.466957 0.126086 0.11555 0.408733
-4.26554 -2.45904 0.371275 0.904664 1.17991 -1.04526 0.44633 0.0481965
0.253961 1.03853 0.816212 0.0818619 0.637741 0.747389 2.26936 -1.00522
-0.16905 1.6453 -1.35854 -0.601396 -3.09105 0.734278 -0.0414914 0.990064
-6.22933 0.194665 -0.0679795 -1.03151 -0.128865 1.19448 0.995799 -0.0308037
0.353307 0.14029 -1.10473 3.70479 -2.18808 0.132752 0.287778 -2.15388
1.52134 1.91643 -0.0155381 -0.0155149 -0.0443274 0.0382964 0.0063767 0.0143115
0.0279607 -0.0460979 0.0411737 -0.00905041 0.00748468 -0.0315526 0.00569284 0.00873458
-0.00581551 -0.0105657 0.0189925 0.0138218 0.0143322 -0.0440539 -0.0363922 0.037704
0.0242444 0.0434128 -0.0163913 -0.0148578 -0.0384153 -0.0448409 -0.0479045 -0.0393336
0.00268747 -0.00144405 -0.0328902 0.0374472 -0.00649711 0.0331675 -0.0278226 0.0480503
-0.0208953 -0.00985416 0.0306557 0.0134513 -0.0312178 -0.00448633 0.041534 -0.011942
-0.0102938 0.0361041 0.00397199 -0.0264347 0.461754 1.40392 -0.780499 -3.18572
-2.0201 -0.905822 0.0465587 -0.652541 0.0487518 1.33721 1.0941 0.895892
0.934773 -1.60772 0.468413 0.678799 -15.3161 0.0714639 0.113353 0.403436
-0.383756 0.210912 2.6881 -4.15776 1.1497 1.97324 0.336213 -0.257032
-0.444142 0.56974 2.0138 0.676275 -6.29637 1.13318 1.24178 -0.49204
0.986662 1.2027 1.11314 -0.0487401 0.603815 0.458011 -0.349408 0.0930058
-2.10003 -0.185694 1.72459 -1.21267 -0.280687 0.232466 -0.0478437 -0.492922
-0.20553 0.214384 0.0239167 -0.0461854 0.0443968 0.161399 -1.63532 0.476168
0.298334 -0.177385 -0.146636 -1.3181 -0.178865 -0.13039 -0.393854 -0.131929
-0.430619 0.429546 -0.467003 0.0918775 0.689364 -0.0123385 0.19369 -0.691338
-0.00247318 0.193378 0.733633 0.140468 0.663443 -0.791857 0.253342 0.334585
0.0329326 0.596681 0.168033 -2.0523 -0.533521 -0.0471113 0.0822595 0.280929
0.244174 0.38784 -0.233407 -0.185565 -0.272308 -0.181572 -0.45537 -0.224635
-0.0314279 0.640584 0.793728 1.47108 -0.489017 -5.17837 0.00584976 0.32798
-3.62367 1.31744 1.58542 -1.4419 -0.124945 -1.90683 0.245259 -0.445014
0.701841 0.343829 -1.13738 1.73144 1.27413 0.463695 3.58093 -0.185962
0.531867 0.965147 0.557989 0.446341 -2.71208 -0.540808 1.48851 1.64166
-2.8517 0.644397 1.77631 -0.530181 1.52824 -0.0270246 0.2945 0.0229685
1.81962 1.49789 0.849498 3.3971 1.07845 0.792107 0.0721568 1.84292
1.3354 0.61692 -0.00458025 -0.024246 0.0477819 -0.00342264 -0.0392799 0.0394581
00000000: e1b7 c93e d653 cbbe a73b 0f3f 64cc 0dbf
00000010: fd14 ef3e b01c 013e 7aa5 ec3d 7445 d13e
00000020: 4e7f 88c0 e960 1dc0 c217 be3e 0f98 673f
00000030: 4a07 973f 14cb 85bf 5e85 e43e b169 453d
00000040: 2d07 823e 8dee 843f 45f3 503f 36a7 a73d
00000050: ff42 233f e354 3f3f 323d 1140 0dab 80bf
00000060: 711b 2dbe 3199 d23f a4e4 adbf 17f5 19bf
00000070: c3d3 45c0 a5f9 3b3f e3f2 29bd d674 7d3f
00000080: ac56 c7c0 4356 473e d638 8bbd 8508 84bf
00000090: 30f5 03be b8e4 983f afec 7e3f 0b58 fcbc
000000a0: a8e4 b43e 2fa8 0f3e cb67 8dbf 481b 6d40
000000b0: 8109 0cc0 24f0 073e a357 933e 2bd9 09c0
000000c0: 45bb c23f 944d f53f 8493 7ebc 3532 7ebc
000000d0: a690 35bd b0dc 1c3d a3f3 d03b c87a 6a3c
000000e0: d70d e53c 27d1 3cbd c1a5 283d 2c48 14bc
000000f0: 0c42 f53b 4d3d 01bd 018b ba3b 7c1b 0f3c
00000100: 0990 bebb c21b 2dbc 2996 9b3c d574 623c
00000110: 9bd1 6a3c dd71 34bd fd0f 15bd 826f 1a3d
00000120: 319c c63c 9fd1 313d 0c47 86bc 216e 73bc
00000130: 5d59 1dbd 17ab 37bd 8237 44bd 451c 21bd
00000140: 4420 303b 4746 bdba e0b7 06bd 3c62 193d
00000150: b5e5 d4bb a5da 073d 39ec e3bc 64d0 443d
00000160: 9f2c abbc 5873 21bc aa21 fb3c d762 5c3c
00000170: 79bc ffbc 1002 93bb 8e1f 2a3d 61a8 43bc
00000180: 54a7 28bc e5e1 133d 7827 823b 958d d8bc
00000190: 056b ec3e a7b3 b33f c8ce 47bf d6e2 4bc0
000001a0: 5249 01c0 f3e3 67bf 56b4 3e3d ed0c 27bf
000001b0: f8af 473d b329 ab3f 780b 8c3f 2e59 653f
000001c0: 494d 6f3f c5c9 cdbf d4d3 ef3e c5c5 2d3f
000001d0: bf0e 75c1 aa5b 923d 9e25 e83d 2a8f ce3e
000001e0: ab7b c4be 51f9 573e d509 2c40 5f0c 85c0
000001f0: 5f29 933f 2193 fc3f 1c24 ac3e b399 83be
00000200: 9566 e3be 7bda 113f 19e2 0040 5c20 2d3f
00000210: dd7b c9c0 0b0c 913f a6f2 9e3f abec fbbe
00000220: e195 7c3f 13f2 993f 5f7b 8e3f b3a3 47bd
00000230: 9f93 1a3f 6b80 ea3e 9be5 b2be d379 be3d
00000240: e466 06c0 9126 3ebe 5dbf dc3f c538 9bbf
00000250: 35b6 8fbe 910b 6e3e c1f7 43bd 4660 fcbe
00000260: 7576 52be 7b87 5b3e f5ec c33c e72c 3dbd
00000270: 6bd9 353d c845 253e 2a52 d1bf 4bcc f33e
00000280: 3cbf 983e 6aa4 35be bf27 16be 80b7 a8bf
00000290: 6328 37be f584 05be 3ba7 c9be 6518 07be
000002a0: 187a dcbe 74ed db3e 041b efbe 452a bc3d
000002b0: 297a 303f 6b27 4abc ac56 463e 87fb 30bf
000002c0: 1315 22bb e204 463e 5fcf 3b3f d8d6 0f3e
000002d0: 67d7 293f 24b7 4abf 0bb6 813e ba4e ab3e
000002e0: 55e4 063d 16c0 183f d810 2c3e e258 03c0
000002f0: d594 08bf c7f7 40bd ab77 a83d edd5 8f3e
00000300: c008 7a3e f792 c63e 3f02 6fbe c004 3ebe
00000310: f46b 8bbe 03ee 39be 4226 e9be b806 66be
00000320: 8bba 00bd 50fd 233f c231 4b3f 594c bc3f
00000330: 7060 fabe 35b5 a5c0 58af bf3b ffec a73e
00000340: 36ea 67c0 e0a1 a83f 0bef ca3f 2e90 b8bf
00000350: 2ae3 ffbd 0113 f4bf 2d25 7b3e e0d8 e3be
00000360: daab 333f 5b0a b03e ab95 91bf d39f dd3f
00000370: b116 a33f 6e69 ed3e f52d 6540 d36c 3ebe
00000380: 7028 083f e013 773f 5ed8 0e3f cf86 e43e
00000390: b892 2dc0 6572 0abf 7f87 be3f ea21 d23f
000003a0: 4182 36c0 34f7 243f 205e e33f f1b9 07bf
000003b0: 5e9d c33f b262 ddbc b4c8 963e 7028 bc3c
000003c0: 4fe9 e83f dcba bf3f b378 593f 166a 5940
000003d0: a60a 8a3f 86c7 4a3f f2c6 933d cde4 eb3f
000003e0: 63ee aa3f 78ee 1d3f ec15 96bb 8c9f c6bc
000003f0: f4b6 433d 5f4e 60bb f6e3 20bd d19e 213d

Operation_3_Add_B f4 [50]
-0.516011 -1.03635 -0.193045 -1.38338 -0.923513 -1.24408 0.743123 -0.641347
-1.58358 -0.761838 -0.204921 -1.2469 -0.497601 -1.14453 1.08507 -0.28887
-2.07702 -0.654246 -1.87901 -1.62325 -0.0298465 -1.9135 -0.631048 -0.00068312
-1.62111 -1.27628 -0.610601 -0.531423 -0.206699 0.508204 -1.01968 -2.28941
0.650378 -1.8273 -1.99829 -1.2789 -2.06318 -0.869352 -2.26323 -0.0320646
-0.352981 -1.20284 -0.513817 -0.679514 0.144723 0.288903 -0.793541 -0.295135
0.6889 -0.305371
00000000: 4c19 04bf 1ea7 84bf 97ad 45be 9912 b1bf
00000010: 596b 6cbf 033e 9fbf 4f3d 3e3f 512f 24bf
00000020: c0b2 cabf d107 43bf d0d6 51be 6b9a 9fbf
00000030: 8fc5 febe f67f 92bf 93e3 8a3f c5e6 93be
00000040: e5ed 04c0 aa7c 27bf 6683 f0bf a8c6 cfbf
00000050: a680 f4bc 91ed f4bf 5d8c 21bf 6813 33ba
00000060: 8880 cfbf 255d a3bf 5950 1cbf 560b 08bf
00000070: e7a8 53be a819 023f e084 82bf b285 12c0
00000080: 2c7f 263f f7e4 e9bf f7c7 ffbf ffb2 a3bf
00000090: 240b 04c0 da8d 5ebf c3d8 10c0 2c56 03bd
000000a0: edb9 b4be a9f6 99bf 8389 03bf a1f4 2dbf
000000b0: 4432 143e 18eb 933e 8125 4bbf ef1b 97be
000000c0: c05b 303f 9659 9cbe

Operation_4_MatMul_W f4 [50, 50]
-3.86526 -4.90936 -0.53213 0.129304 0.827998 -0.247738 0.4379 -0.0840475
0.306331 1.2423 -0.426512 1.426 5.92945 0.581869 -0.925982 -0.587202
1.00018 0.48546 -4.30062 0.349033 -0.506722 -1.0221 3.54183 -0.0547945
0.964723 -0.290576 0.028173 1.20169 -0.00291769 0.332724 -0.057844 2.33862
-0.0229597 0.739201 -2.13756 1.4711 -3.40059 0.278559 1.17933 0.364366
1.24579 0.476595 1.53075 1.19062 -7.12852 -1.15144 1.22235 0.6405
2.27496 0.637764 0.591209 0.0126065 0.582716 0.319301 0.340426 -0.0724487
0.0557872 0.347084 0.749123 0.362287 1.0332 0.880703 0.33585 0.629005
0.958867 -0.091371 -1.26843 -0.56786 0.479613 -0.623112 0.998366 -0.766909
-0.281187 0.898526 0.194527 0.0133512 0.00686456 0.113104 -0.244158 0.529152
0.117777 0.0971032 -0.0274395 0.0657682 0.290939 0.784387 -0.438887 0.672318
-0.543389 0.168071 0.213576 -0.00696721 -0.713956 0.324944 0.508414 -0.0633664
0.330548 0.0145428 -1.6063 0.236073 -0.471094 -0.0479159 0.521163 0.371349
0.401233 -0.850159 -0.89056 0.125632 1.14663 0.0130085 1.17131 0.440207
-0.604456 0.0575397 -0.112052 0.807492 -0.0617717 -0.22345 0.458804 -0.249921
0.857455 0.294741 -0.0474215 -0.196531 -0.0831048 -0.733663 -0.038522 0.241323
0.51386 0.355063 1.38994 -0.0741425 -0.0492575 -0.0617921 0.205931 -0.259842
2.07457 -0.537909 0.41297 0.203121 0.36481 0.836489 0.186982 -1.10999
0.203847 0.0076609 -0.102285 -0.380686 -1.50391 0.239114 1.99685 -0.455835
0.0795855 -0.407564 0.0996929 0.186543 0.487594 -1.51499 0.28346 -0.0562724
0.365981 -0.27392 2.84515 -0.742007 0.730072 -0.416423 1.02987 0.148202
-2.838 0.0953963 0.922109 1.04092 1.30234 -0.786801 -0.786488 0.70756
-0.0449892 -0.17996 0.385736 0.516008 0.303897 -0.339014 0.0322779 -0.0860739
-0.712211 0.178332 1.08287 -0.350366 -0.492729 0.236184 0.0828611 0.300425
1.34115 0.0870861 2.15608 0.620383 0.38619 0.141658 0.259549 0.778082
-1.14336 0.266201 0.365397 0.962795 -0.563242 0.445201 0.239476 1.4805
0.424083 0.572416 -0.424453 0.327442 1.21659 0.582582 -5.19221 -0.793296
-1.01505 0.384459 -0.0318608 0.543827 0.425161 0.216684 1.41413 1.2452
0.538412 0.589986 -0.011194 0.312704 -1.36421 0.383569 0.47111 1.78108
-0.00502567 1.11757 -0.456177 0.923581 -5.00425 1.3512 -4.67089 -0.700885
-0.114699 0.499581 0.211019 0.0387342 -2.13093 -0.573481 -0.696796 -0.297164
0.980813 0.0553368 -1.52778 -0.0782986 -0.210128 -1.16524 -0.302814 0.677592
00000000: 6b60 77c0 7a19 9dc0 ac39 08bf 4568 043e
00000010: adf7 533f 08af 7dbe 6e34 e03e 1821 acbd
00000020: 6bd7 9c3e b003 9f3f c85f dabe 2b87 b63f
00000030: 0ebe bd40 5ef5 143f 280d 6dbf df52 16bf
00000040: e605 803f 378e f83e ae9e 89c0 74b4 b23e
00000050: 88b8 01bf 2cd4 82bf 58ad 6240 3370 60bd
00000060: 16f8 763f 61c6 94be 10cb e63c fad0 993f
00000070: b736 3fbb cd5a aa3e d5ed 6cbd f3ab 1540
00000080: fb15 bcbc 473c 3d3f c8cd 08c0 014d bc3f
00000090: 44a3 59c0 499f 8e3e 49f4 963f 2e8e ba3e
000000a0: 0c76 9f3f 4304 f43e 9eef c33f 3c66 983f
000000b0: d61c e4c0 6362 93bf f775 9c3f cff7 233f
000000c0: f298 1140 8044 233f 7959 173f 7e8b 4e3c
000000d0: e02c 153f 6c7b a33e 514c ae3e fc5f 94bd
000000e0: 1e81 643d feb4 b13e 86c6 3f3f af7d b93e
000000f0: e63f 843f c075 613f 88f4 ab3e 7906 213f
00000100: 4f78 753f b820 bbbd ea5b a2bf 465f 11bf
00000110: d68f f53e 4584 1fbf ea94 7f3f 2654 44bf
00000120: bef7 8fbe cd05 663f 1632 473e febe 5a3c
00000130: 1af0 e03b 12a3 e73d 8e04 7abe 8176 073f
00000140: 1135 f13d 0bde c63d cdc8 e0bc 7ab1 863d
00000150: f5f5 943e 96cd 483f ccb5 e0be 081d 2c3f
00000160: 8b1b 0bbf ce1a 2c3e abb3 5a3e 324d e4bb
00000170: d2c5 36bf 0f5f a63e 6b27 023f 3ec6 81bd
00000180: 963d a93e ed44 6e3c 3d9b cdbf 1fbd 713e
00000190: 3c33 f1be 7643 44bd f06a 053f 7521 be3e
000001a0: 696e cd3e 05a4 59bf bdfb 63bf ada5 003e
000001b0: c6c4 923f 9b21 553c 7ced 953f d062 e13e
000001c0: a1bd 1abf c0ae 6b3d 857b e5bd ccb7 4e3f
000001d0: 5204 7dbd 14d0 64be 5ce8 ea3e 4aeb 7fbe
000001e0: 2c82 5b3f 4be8 963e 0c3d 42bd 6c3f 49be
000001f0: d932 aabd 57d1 3bbf 3fc9 1dbd 601d 773e
00000200: 548c 033f d1ca b53e 8ee9 b13f 06d8 97bd
00000210: 3bc2 49bd b719 7dbd 93df 523e 030a 85be
00000220: c1c5 0440 67b4 09bf ce70 d33e f4fe 4f3e
00000230: 60c8 ba3e 2524 563f 3678 3f3e 2714 8ebf
00000240: 45bd 503e 4908 fb3b cc7a d1bd 47e9 c2be
00000250: 1f80 c0bf 4dda 743e c898 ff3f 3563 e9be
00000260: b9fd a23d 3bac d0be cb2b cc3d 2105 3f3e
00000270: eca5 f93e 31eb c1bf ab21 913e e37d 66bd
00000280: dd61 bb3e 3e3f 8cbe f016 3640 2cf4 3dbf
00000290: 00e6 3a3f 6535 d5be c8d2 833f 44c2 173e
000002a0: cba1 35c0 235f c33d 560f 6c3f de3c 853f
000002b0: 14b3 a63f ca6b 49bf 4757 49bf a722 353f
000002c0: 9846 38bd 6f47 38be 307f c53e 1a19 043f
000002d0: 6398 9b3e 3e93 adbe d535 043d 8347 b0bd
000002e0: 7653 36bf aa9c 363e 7c9b 8a3f 2c63 b3be
000002f0: fa46 fcbe 38da 713e 15b3 a93d 4ed1 993e
00000300: ceaa ab3f 325a b23d 37fd 0940 6cd1 1e3f
00000310: b2ba c53e cb0e 113e 9be3 843e 6230 473f
00000320: 9f59 92bf 7f4b 883e 5115 bb3e bc79 763f
00000330: a130 10bf 63f1 e33e 3239 753e 0681 bd3f
00000340: 6821 d93e db89 123f e751 d9be 7aa6 a73e
00000350: 39b9 9b3f 1824 153f 9626 a6c0 7215 4bbf
00000360: 29ed 81bf cfd7 c43e 7880 02bd 3f38 0b3f
00000370: b4ae d93e 69e2 5d3e 3602 b53f b762 9f3f
00000380: 5ed5 093f 5309 173f 0a67 37bc bd1a a03e
00000390: 6f9e aebf 2863 c43e 5435 f13e 6efa e33f
000003a0: 60ae a4bb 890c 8f3f 0890 e9be ce6f 6c3f
000003b0: d122 a0c0 1ff4 ac3f ee77 95c0 336d 33bf
000003c0: 4fe7 eabd 15c9 ff3e 5d15 583e c1a7 1e3d
000003d0: 2861 08c0 a7cf 12bf 3961 32bf e125 98be
000003e0: 9016 7b3f d7a8 623d 4c8e c3bf 045b a0bd
000003f0: cb2b 57be 9626 95bf 700a 9bbe ab76 2d3f

Operation_4_Add_B f4 [50]
-2.02834 -0.911753 -0.73283 -0.789272 -0.158094 0.26966 1.25701 -0.827999
3.14252 2.06411 -0.749485 0.464485 0.526777 -0.594476 0.12039 0.376415
0.540014 1.56147 0.284804 1.98914 -8.20012 1.5405 2.85092 0.224755
0.0382278 -0.120551 -0.0503022 2.07949 -2.65963 2.89448 1.54236 3.62826
-0.00832654 2.36688 -5.91857 1.17787 3.14069 -0.443124 -1.71643 0.702718
2.80561 0.153109 0.213351 0.140483 -3.57065 3.35537 0.985071 2.59541
1.63612 3.28423
00000000: 53d0 01c0 a568 69bf bf9a 3bbf bb0d 4abf
00000010: 65e3 21be e010 8a3e b4e5 a03f bef7 53bf
00000020: 0c1f 4940 611a 0440 40de 3fbf fad0 ed3e
00000030: dcda 063f 942f 18bf 088f f63d 78b9 c03e
00000040: 5c3e 0a3f 40de c73f d4d1 913e 249c fe3f
00000050: b133 03c1 1b2f c53f 7975 3640 2d26 663e
00000060: c194 1c3d 71e3 f6bd ae09 4ebd 5d16 0540
00000070: 6137 2ac0 293f 3940 0d6c c53f 6935 6840
00000080: 0a6c 08bc f67a 1740 ed64 bdc0 72c4 963f
00000090: 1101 4940 26e1 e2be fab3 dbbf 54e5 333f
000000a0: 1d8f 3340 9bc8 1c3e af78 5a3e c7da 0f3e
000000b0: 8885 64c0 62be 5640 9d2d 7c3f 331b 2640
000000c0: 616c d13f d330 5240

Operation_5_MatMul_W f4 [50, 50]
-0.838471 0.060759 0.278462 -1.4995 -0.108774 -0.524163 -0.711253 -0.118489
-0.196719 -0.147938 0.0923579 0.423801 -0.0272531 0.617956 0.245852 0.371219
0.388289 0.363062 -1.4538 1.66481 -0.0459522 0.7071 -0.1022 -1.96446
-0.181627 -0.267518 -0.0288005 0.646214 0.490611 -0.198678 -0.0584794 -0.191106
0.115558 -0.31692 -0.321643 0.147863 0.119833 0.461877 -0.406625 0.690883
-0.437914 0.317604 -0.432157 -1.00327 -0.122559 -0.470385 -3.30825 -0.0338415
-0.385137 -0.0508769 0.0946109 -0.202147 -0.654968 -1.51632 0.0761642 -0.200005
0.434391 1.43164 0.147738 -0.340314 -0.0808982 -1.56935 0.191948 1.30111
0.0936245 0.156559 0.168468 -0.241963 0.878506 -0.0956064 -0.305825 -0.678169
0.277514 0.163125 -0.0320051 0.00465548 0.24476 -1.21719 -0.874253 -0.358288
-0.0308564 0.0525784 -0.112988 0.774707 0.512457 -0.106719 0.051385 -0.752587
0.349372 0.585362 -0.00431291 0.013972 0.839412 1.0516 0.352284 0.32111
1.61497 0.810408 -0.433147 0.247489 -0.730152 0.154718 -0.535637 -7.32447
1.32087 -5.54893 -0.469829 -2.30567 0.420871 -0.079371 -0.478415 -1.52791
-0.485094 0.804239 -0.379666 -0.713382 1.2907 0.584704 -0.641912 -0.901395
-0.783331 1.38119 1.53305 -1.77424 -0.593997 0.732106 0.888519 2.71191
0.809536 -0.975719 1.08968 -0.946483 0.673547 3.62509 0.328516 0.222475
-1.31575 1.25455 -0.116773 0.525903 0.44641 1.36253 -1.56684 0.570999
2.22302 1.18593 -7.81114 0.0184414 -0.57124 1.63914 -0.990759 0.125404
-2.96104 1.65458 0.631548 1.13377 -0.643745 -1.16544 0.092691 0.457459
-0.259432 -1.534 0.39858 -0.55719 -1.12353 0.484823 1.29963 -0.855889
-0.111354 -0.310514 0.286119 -0.52701 0.510804 -0.0085402 -0.0721467 1.1808
0.49545 3.7742 -0.634232 -0.396507 -0.0397639 -0.330648 1.83747 -0.759061
-1.40708 -0.316113 0.313175 0.142512 -1.32955 -0.678756 0.444056 -0.121744
-0.153761 1.50592 -0.0491045 0.0256592 -2.25438 1.87401 0.0912462 0.586976
0.0891844 -0.0469011 3.03003 0.246445 -0.112805 0.981522 0.451068 -1.37919
1.08833 -0.50583 1.11172 0.130194 -0.368238 0.250035 -0.592379 -0.0765146
0.273895 0.50274 -1.91235 1.5852 0.839669 -0.306569 1.13102 -0.451417
-1.04402 0.883237 0.567998 0.292097 -0.616408 0.337517 -0.296327 -0.0242208
0.28972 0.287609 1.27687 -0.266671 -0.793325 -0.133821 0.778534 0.897169
0.436416 0.131736 0.203056 1.43243 -0.569207 -0.0761159 -4.53462 1.00427
0.138988 -2.63224 -0.251889 0.174962 0.421077 -1.70612 -1.58712 0.0853884
00000000: 09a6 56bf 6ede 783d 9292 8e3e 9eef bfbf
00000010: e7c4 debd 8c2f 06bf ad14 36bf 5caa f2bd
00000020: b570 49be 0f7d 17be 2426 bd3d 72fc d83e
00000030: e541 dfbc 5d32 1e3f a0c0 7b3e 6b10 be3e
00000040: d1cd c63e 43e3 b93e 1e16 babf 7e18 d53f
00000050: 6038 3cbd 8104 353f 3c4e d1bd 6d73 fbbf
00000060: 6efc 39be 1ff8 88be 07ef ebbc 486e 253f
00000070: 5d31 fb3e 3f72 4bbe 1888 6fbd 4bb1 43be
00000080: aca9 ec3d 5743 a2be 64ae a4be 6669 173e
00000090: 016b f53d 247b ec3e 2731 d0be b5dd 303f
000000a0: 4436 e0be fe9c a23e af43 ddbe 276b 80bf
000000b0: 3700 fbbd 4dd6 f0be 5eba 53c0 629d 0abd
000000c0: ad30 c5be 4c64 50bd 5cc3 c13d a0ff 4ebe
000000d0: fcab 27bf c616 c2bf fafb 9b3d 1cce 4cbe
000000e0: 7f68 de3e fb3f b73f a148 173e a33d aebe
000000f0: f5ad a5bd 76e0 c8bf 048e 443e c68a a63f
00000100: 34be bf3d 0151 203e e082 2c3e 26c5 77be
00000110: c5e5 603f 4acd c3bd 1895 9cbe 7c9c 2dbf
00000120: 5116 8e3e 3d0a 273e c817 03bd ff8c 983b
00000130: 5ea2 7a3e e2cc 9bbf 0bcf 5fbf 8671 b7be
00000140: 90c6 fcbc 735c 573d 4166 e7bd 3353 463f
00000150: 6230 033f 7e8f dabd 1479 523d 8ba9 40bf
00000160: e3e0 b23e 49da 153f 5053 8dbb d1ea 643c
00000170: b4e3 563f d49a 863f 925e b43e 8868 a43e
00000180: 56b7 ce3f e676 4f3f 72c5 ddbe c26d 7d3e
00000190: 3eeb 3abf 656e 1e3e 821f 09bf 0f62 eac0
000001a0: 4512 a93f d690 b1c0 6d8d f0be 1990 13c0
000001b0: 677c d73e 438d a2bd d0f2 f4be 8e92 c3bf
000001c0: 3e5e f8be 9be2 4d3f 9563 c2be 34a0 36bf
000001d0: a835 a53f 29af 153f 5854 24bf d3c1 66bf
000001e0: 6188 48bf d5ca b03f fb3a c43f 4c1a e3bf
000001f0: 3010 18bf 4c6b 3b3f fb75 633f ef8f 2d40
00000200: c03d 4f3f b8c8 79bf a27a 8b3f b64c 72bf
00000210: 946d 2c3f 7901 6840 4033 a83e 7dd0 633e
00000220: 7f6a a8bf 1895 a03f af26 efbd 94a1 063f
00000230: da8f e43e 6267 ae3f 378e c8bf fe2c 123f
00000240: f645 0e40 8ecc 973f dcf4 f9c0 6b12 973c
00000250: c93c 12bf 57cf d13f 62a2 7dbf e869 003e
00000260: ae81 3dc0 47c9 d33f 21ad 213f 601f 913f
00000270: 79cc 24bf 232d 95bf c7d4 bd3d 1138 ea3e
00000280: 45d4 84be 1d5a c4bf ae12 cc3e 01a4 0ebf
00000290: d5cf 8fbf b83a f83e 475a a63f 8b1b 5bbf
000002a0: 910d e4bd b1fb 9ebe 317e 923e 21ea 06bf
000002b0: 0dc4 023f 32ec 0bbc a6c1 93bd 7424 973f
000002c0: 9fab fd3e 7e8c 7140 075d 22bf f702 cbbe
000002d0: 79df 22bd b24a a9be 3832 eb3f d251 42bf
000002e0: 331b b4bf 90d9 a1be 7958 a03e aaee 113e
000002f0: b22e aabf f4c2 2dbf 4f5b e33e eb54 f9bd
00000300: 8673 1dbe fdc1 c03f cd21 49bd 3e33 d23c
00000310: c347 10c0 8fdf ef3f 4adf ba3d 0f44 163f
00000320: 50a6 b63d 5e1b 40bd 03ec 4140 145c 7c3e
00000330: 4f06 e7bd 0745 7b3f 63f2 e63e 4c89 b0bf
00000340: 664e 8b3f 137e 01bf d74c 8e3f 9351 053e
00000350: b189 bcbe 9604 803e 26a6 17bf b0b3 9cbd
00000360: f73b 8c3e 92b3 003f e3c7 f4bf d5e7 ca3f
00000370: 8cf4 563f 9df6 9cbe 43c5 903f 2120 e7be
00000380: 73a2 85bf d21b 623f 5168 113f bd8d 953e
00000390: eacc 1dbf 07cf ac3e 2cb8 97be b36a c6bc
000003a0: 2e56 943e 7d41 933e 7a70 a33f 1a89 88be
000003b0: 5917 4bbf 5f08 09be 014e 473f deac 653f
000003c0: eb71 df3e cde5 063e e9ed 4f3e de59 b73f
000003d0: 8db7 11bf a7e2 9bbd 9b1b 91c0 eb8b 803f
000003e0: df52 0e3e 9f76 28c0 98f7 80be 3d29 333e
000003f0: 6897 d73e 2462 dabf c026 cbbf 1de0 ae3d

Operation_5_Add_B f4 [50]
-1.83174 0.480563 -1.90835 -0.189851 -1.50367 -0.111736 -1.28995 -0.724745
-1.06827 2.18193 0.117064 1.78412 -2.41409 1.23287 -0.387774 -1.33865
-2.83714 -0.945849 1.07482 -0.904918 -0.309447 1.36035 -0.998963 0.498788
2.24646 -2.62411 -0.879404 2.75838 0.333709 2.07085 -1.15392 0.286674
-2.28774 -1.35855 -2.09518 -0.0333324 -1.24663 2.03996 1.32523 -2.01518
-0.965101 -0.429592 2.67757 -2.48442 0.483878 -1.31432 4.99578 -3.32816
-4.19461 -0.814777
00000000: 7576 eabf 5b0c f63e d044 f4bf 4d68 42be
00000010: 4278 c0bf d8d5 e4bd 151d a5bf e388 39bf
00000020: 12bd 88bf bea4 0b40 40bf ef3d 0b5e e43f
00000030: 7380 1ac0 afce 9d3f 508a c6be e258 abbf
00000040: b493 35c0 2923 72bf b493 893f b5a8 67bf
00000050: d66f 9ebe f31f ae3f 0abc 7fbf 2461 ff3e
00000060: 00c6 0f40 6bf1 27c0 9f20 61bf 4c89 3040
00000070: e8db aa3e ce88 0440 a7b3 93bf efc6 923e
00000080: 556a 12c0 f7e4 adbf 6e17 06c0 8e87 08bd
00000090: 9291 9fbf b48e 0240 23a1 a93f b6f8 00c0
000000a0: dc10 77bf 7cf3 dbbe 4f5d 2b40 bd00 1fc0
000000b0: dbbe f73e a33b a8bf 6edd 9f40 9300 55c0
000000c0: 3f3a 86c0 3a95 50bf

Operation_6_MatMul_W f4 [50, 50]
-0.96856 -0.119023 -1.78727 0.907677 0.393756 0.245874 -1.02701 -1.36338
-0.255383 -1.21455 -0.920831 0.358238 -0.119912 -0.141098 0.017029 -3.78726
-0.264176 -2.47699 0.296755 0.0346288 -1.51406 1.28206 -0.422612 -2.46232
-0.0343855 -0.47462 -0.330039 0.00192275 0.0898912 -0.106202 -0.110589 -0.403003
0.379549 -3.54419 -0.0135426 0.296885 0.272657 -2.83542 0.0564873 -0.104594
0.0811629 -2.19866 0.102999 3.58329 -0.714409 -0.0181649 -1.76213 -0.149919
0.281517 -0.769304 3.73717 0.504559 3.47379 0.401852 3.70379 3.8477
5.75647 -7.98992 -12.8522 -0.893077 1.12493 -0.321502 1.16106 0.00749049
0.135883 -3.64137 -1.34499 -6.80546 1.5571 -0.261741 -3.5501 -7.33003
0.549778 -12.0445 -0.0455927 2.36281 2.72675 0.0895675 0.529183 0.0063953
-0.0709732 -0.833816 0.374562 0.331525 -0.176664 -1.26286 -0.521494 2.85761
-0.365521 2.85656 -4.05023 1.24651 0.549958 1.38631 2.64011 0.104765
-1.28489 -0.0751248 0.403904 1.20089 -0.677395 0.073629 0.53202 0.499939
0.0273539 0.393327 -0.729612 -0.578164 -0.395197 0.0953951 0.0625806 -0.0847303
0.471755 -0.00937056 -0.230326 -2.94549 -2.26348 -0.941072 -0.275715 0.0681403
-0.572441 1.20082 0.0875368 -5.03145 -0.00979633 -0.759382 -0.732846 0.00311651
0.127931 -0.00725268 0.0352244 -0.411831 0.173204 0.63737 0.0192578 -0.0939572
-0.125032 -2.29099 -0.0516911 -0.710959 0.069074 -0.110439 0.140052 -0.165686
0.317627 0.00694525 -1.36165 0.0236047 0.680417 0.0779314 -0.602906 0.0443343
-1.82653 -1.32856 0.124579 -1.07883 -0.945925 -6.01362 0.0200718 -1.24787
-0.186252 0.00408387 0.0108907 0.00104228 -0.517311 -0.910184 -1.33939 -0.670243
-0.0270229 -0.0312685 -0.102083 -1.81957 -0.290252 -0.61676 0.00147618 -0.680975
-0.584227 0.00527376 -0.293413 -1.92965 0.00754957 -0.233114 -0.258471 -1.17671
-0.00503733 -1.20986 -2.84705 -0.1741 0.0650643 -0.946754 0.0328626 -1.7514
-0.280943 -1.61956 -1.0613 -0.00829879 -0.853822 -0.0852652 0.178904 -0.413357
2.26303 0.429803 3.43269 -3.74051 -1.3408 0.579022 0.143983 0.427582
-6.10103 -9.01043 -0.223441 0.664925 -3.60606 -0.00927168 -0.937725 -6.30455
-1.5445 -2.0943 0.543009 0.266461 1.50649 4.62458 -0.101946 -9.24629
-0.0131561 -7.06562 0.986285 -0.0587086 0.46288 -0.119018 -0.0465331 -0.690582
-4.45574 -1.71579 -0.111982 -1.08464 -3.73738 -5.04278 0.0923309 1.3847
0.722585 0.122241 0.490493 5.16776 3.35818 0.055951 -7.113 -0.988758
1.81187 0.0912111 -0.213568 0.0337145 1.26605 -1.79183 -0.776416 -0.598935
00000000: 8cf3 77bf 55c2 f3bd 43c5 e4bf 855d 683f
00000010: 639a c93e 65c6 7b3e 1075 83bf 3c83 aebf
00000020: 90c1 82be 6076 9bbf 95bb 6bbf f96a b73e
00000030: 6c94 f5bd fe7b 10be 6780 8b3c 7862 72c0
00000040: 1442 87be 0187 1ec0 45f0 973e eed6 0d3d
00000050: b8cc c1bf 8b1a a43f 9a60 d8be a796 1dc0
00000060: cfd7 0cbd 6501 f3be dffa a8be c904 fc3a
00000070: e118 b83d 6f80 d9bd 7c7c e2bd 6956 cebe
00000080: 3f54 c23e 02d4 62c0 c8e1 5dbc 5001 983e
00000090: b399 8b3e 8577 35c0 3a5f 673d 6135 d6bd
000000a0: bc38 a63d d8b6 0cc0 24f1 d23d a054 6540
000000b0: 82e3 36bf 8ece 94bc 7a8d e1bf 5e84 19be
000000c0: ff22 903e 1bf1 44bf cb2d 6f40 c72a 013f
000000d0: 9352 5e40 8cbf cd3e e50a 6d40 b840 7640
000000e0: 0135 b840 6dad ffc0 9ca2 4dc1 b2a0 64bf
000000f0: b5fd 8f3f e99b a4be 9d9d 943f c972 f53b
00000100: ea24 0b3e 350c 69c0 a228 acbf 54c6 d9c0
00000110: 0e4f c73f eb02 86be d734 63c0 9b8f eac0
00000120: 40be 0c3f 46b6 40c1 69bf 3abd 4738 1740
00000130: 1283 2e40 2a6f b73d 8978 073f aa8f d13b
00000140: 665a 91bd f774 55bf 97c6 bf3e a5bd a93e
00000150: 68e7 34be 65a5 a1bf a180 05bf 15e3 3640
00000160: 9225 bbbe e1d1 3640 7c9b 81c0 a48d 9f3f
00000170: 0cca 0c3f 9b72 b13f 90f7 2840 088f d63d
00000180: 4777 a4bf 08db 99bd 81cc ce3e c3b6 993f
00000190: c269 2dbf cdca 963d 7632 083f 01f8 ff3e
000001a0: 4915 e03c 2862 c93e dac7 3abf 8e02 14bf
000001b0: 4357 cabe 825e c33d 422a 803d 1487 adbd
000001c0: df89 f13e fa86 19bc 94da 6bbe e882 3cc0
000001d0: dbdc 10c0 18ea 70bf 842a 8dbe 248d 8b3d
000001e0: 7e8b 12bf 78b4 993f 7e46 b33d a301 a1c0
000001f0: c980 20bc dc66 42bf cc9b 3bbf 5d3e 4c3b
00000200: 5800 033e e4a7 edbb 7647 103d 83db d2be
00000210: 645c 313e ae2a 233f 89c2 9d3c a26c c0bd
00000220: 6308 00be 959f 12c0 0cba 53bd 6901 36bf
00000230: ab76 8d3d d82d e2bd cb69 0f3e 97a9 29be
00000240: 02a0 a23e fb94 e33b 8c4a aebf a55e c13c
00000250: cf2f 2e3f 7f9a 9f3d 0c58 1abf e297 353d
00000260: bccb e9bf 410e aabf 4623 ff3d 1a17 8abf
00000270: 2428 72bf 936f c0c0 9e6d a43c 34ba 9fbf
00000280: d8b8 3ebe fcd1 853b e86e 323c 1d9d 883a
00000290: 7e6e 04bf d201 69bf 2271 abbf 0c95 2bbf
000002a0: 215f ddbc 6613 00bd e410 d1bd abe7 e8bf
000002b0: e99b 94be fce3 1dbf 627c c13a 6154 2ebf
000002c0: e78f 15bf 81cf ac3b 3b3a 96be c5fe f6bf
000002d0: 6262 f73b 70b5 6ebe 5056 84be 6f9e 96bf
000002e0: 3010 a5bb b1dc 9abf 1136 36c0 4547 32be
000002f0: 6f40 853d 785e 72bf ef9a 063d e02d e0bf
00000300: c3d7 8fbe be4d cfbf aed8 87bf a6f7 07bc
00000310: 1494 5abf 859f aebd 9c32 373e 87a3 d3be
00000320: 7cd5 1040 240f dc3e 31b1 5b40 8464 6fc0
00000330: 569f abbf c93a 143f 4870 133e 07ec da3e
00000340: a33b c3c0 b92a 10c1 b8cd 64be 8638 2a3f
00000350: b0c9 66c0 3fe8 17bc bf0e 70bf e0be c9c0
00000360: 2db2 c5bf 0309 06c0 a302 0b3f 946d 883e
00000370: aad4 c03f 8ffc 9340 10c9 d0bd cef0 13c1
00000380: af8c 57bc 8f19 e2c0 2c7d 7c3f 6e78 70bd
00000390: 9bfe ec3e b6bf f3bd 7e99 3ebd fbc9 30bf
000003a0: 6c95 8ec0 029f dbbf d256 e5bd 7cd5 8abf
000003b0: 3c31 6fc0 745e a1c0 fc17 bd3d d93d b13f
000003c0: 55fb 383f 7d59 fa3d e621 fb3e 4a5e a540
000003d0: 6cec 5640 e02c 653d b29d e3c0 3f1f 7dbf
000003e0: 5beb e73f e3cc ba3d 92b1 5abe 3718 0a3d
000003f0: ed0d a23f af5a e5bf 33c3 46bf ce53 19bf

Operation_6_Add_B f4 [50]
-4.73084 -1.04135 -9.78409 -10.1277 -9.43678 -7.17503 -8.16013 4.43426
-1.85212 0.68789 1.79808 -0.0859898 -9.49371 0.431412 -2.42273 -0.0302576
0.735915 -2.70569 0.338211 -3.03297 0.898094 -10.4325 0.317664 -2.19105
-0.152142 -7.72936 -7.03833 0.0738344 -1.05914 -0.162279 -0.166456 -1.87722
-0.479436 -2.791 0.370794 -5.66564 -6.69045 0.364896 -2.46226 -1.66561
-1.1173 -9.55356 0.397942 -7.92652 -7.38808 0.0504238 -0.763545 -1.61778
-5.27762 0.530809
00000000: 0b63 97c0 f54a 85bf a28b 1cc1 0f0b 22c1
00000010: 0dfd 16c1 d999 e5c0 e48f 02c1 75e5 8d40
00000020: 4512 edbf 8f19 303f 7c27 e63f 6c1b b0bd
00000030: 3ce6 17c1 09e2 dc3e 020e 1bc0 c9de f7bc
00000040: ed64 3c3f 062a 2dc0 fe29 ad3e 2e1c 42c0
00000050: 7de9 653f 85eb 26c1 dba4 a23e 2a3a 0cc0
00000060: 1dcb 1bbe eb56 f7c0 003a e1c0 7d36 973d
00000070: e691 87bf 772c 26be 7173 2abe bf48 f0bf
00000080: a378 f5be be9f 32c0 b6d8 bd3e ec4c b5c0
00000090: 2b18 d6c0 a6d3 ba3e ab95 1dc0 b532 d5bf
000000a0: b003 8fbf 62db 18c1 0ebf cb3e 0da6 fdc0
000000b0: 276b ecc0 3089 4e3d af77 43bf 6a13 cfbf
000000c0: 43e2 a8c0 19e3 073f

linear_7_MatMul_W f4 [50, 5]
0.00640323 -0.000135208 -0.000483356 0.000357923 0.00092464 -0.0500606 -0.0049849 0.0024825
-0.00576368 -0.00199538 0.00438446 -0.000215814 -0.00026639 -0.00015912 -0.000545223 0.00508257
0.00221415 -0.000162633 0.00257383 0.000869853 0.00402168 0.000100105 -0.000387375 6.64937e-06
-0.000115543 0.00508032 0.000277838 -0.00138019 0.000335929 0.000319023 0.00430521 0.000575317
-0.000345371 0.000727798 0.000818661 -0.00758994 0.000349936 0.000713036 0.000470475 -0.000492901
-0.00461709 -0.000611244 -0.000129498 -0.000483996 0.000185461 -0.0049047 -0.000133891 0.000227638
-0.000431048 0.000182256 0.0191913 -0.000293034 -0.000814389 -0.000748687 -0.000585909 0.00610532
0.00191746 -0.00131608 0.000867122 0.00119457 0.0024154 0.000264041 -0.00041303 0.00101163
0.000267834 -0.00571532 -0.00372114 -0.000475999 -0.00521146 -0.00413813 0.0034455 0.00716682
-0.00204993 0.00638304 0.000402279 -0.00607967 0.000456389 9.40712e-05 -0.000173653 0.000523376
-0.00673098 0.000133382 0.000240588 0.000265688 0.000391578 -0.00513007 -0.00015465 0.000615785
1.11249e-05 -0.000216459 0.00909352 -0.000865892 -0.00132635 7.89807e-05 -0.000275798 0.0039289
0.000836762 0.00951389 -0.00193986 -0.0109232 -0.00721358 -0.000459251 0.00256799 0.00034402
0.000267952 0.00230842 4.898e-06 1.51753e-05 8.99139e-06 0.000647964 0.0141973 0.000160119
-0.00149629 0.00132821 0.00278687 -0.00469885 6.85826e-05 0.000128927 0.000122712 -0.000208353
-0.00485501 0.00120065 0.00229173 0.000220563 0.00171536 0.00615363 0.00113464 -0.000803079
0.00022056 2.8074e-05 0.0078692 0.000494309 -0.00165664 -0.000234214 0.00122944 0.00235061
0.00126802 0.00424032 0.0017942 0.0185121 -0.0266306 0.000257395 0.000443082 -0.000111253
-0.000564546 0.00204541 0.0134591 -0.001532 0.0145518 0.000267925 0.00632189 0.00747631
0.00464104 0.007606 0.0103971 -0.0101309 -0.000362382 0.0016547 -0.00124754 0.00038001
-0.0125049 8.18281e-05 0.00115822 -0.000832156 0.00110431 -0.0061632 0.000882808 0.000268038
0.00137027 0.000693814 0.00375232 0.01384 0.0094046 0.0152532 0.0153664 0.00489524
0.000887838 -0.000663347 0.00127265 0.00131573 0.004459 0.000619487 -0.000842952 3.11315e-05
0.000572239 -0.00868435 -0.000380531 8.41943e-05 -0.000446799 1.92179e-05 -0.00479831 -0.0132214
0.0150554 -0.00611497 0.0137803 0.00675547 -0.000118428 3.77498e-05 -0.000272795 0.00059096
-0.0161215 0.00243777 0.00097521 0.000678965 0.000214459 0.00735312 3.13646e-05 -0.001509
0.000306065 -0.00019792 0.0256916 0.00101507 -0.00038687 0.00108697 0.00103655 0.00424134
0.000159459 -0.000163191 0.000463578 0.000812752 0.0027877 -0.000238073 -0.000801397 -0.000188302
0.000871261 0.000861844 -0.00878434 -0.00327083 -0.00970356 -0.00858248 -0.00603379 -0.000490917
7.13806e-05 -0.000645231 0.000511066 0.00206052 -0.0059464 0.0150852 -0.00248273 0.00962945
0.00675669 0.000584857 6.63339e-05 0.000241104 -0.000180637 -0.0192338 0.000845907 0.000560886
0.000917042 0.000592645
00000000: 30d2 d13b 9fc6 0db9 f26a fdb9 9da7 bb39
00000010: 8a63 723a 580c 4dbd 5f58 a3bb 70b1 223b
00000020: 41dd bcbb ecc4 02bb 84ab 8f3b 214c 62b9
00000030: 43aa 8bb9 73d9 26b9 4ced 0eba b08b a63b
00000040: 461b 113b 7788 2ab9 b4ad 283b d906 643a
00000050: 4cc8 833b 76ef d138 9818 cbb9 a71d df36
00000060: ad4f f2b8 d078 a63b c9aa 9139 7ee7 b4ba
00000070: a11f b039 8b42 a739 b812 8d3b dfd0 163a
00000080: e912 b5b9 b2c9 3e3a 699b 563a 08b5 f8bb
00000090: 9d77 b739 09eb 3a3a 16aa f639 0736 01ba
000000a0: f54a 97bb e43b 20ba dbc9 07b9 d8c0 fdb9
000000b0: 4f78 4239 9bb7 a0bb 1765 0cb9 1cb2 6e39
000000c0: 49fe e1b9 f91b 3f39 1337 9d3c 5ca2 99b9
000000d0: b87c 55ba 8943 44ba b097 19ba 230f c83b
000000e0: 4853 fb3a 5180 acba 934f 633a 1e93 9c3a
000000f0: b04b 1e3b fc6e 8a39 f38b d8b9 ac98 843a
00000100: 126c 8c39 9447 bbbb 5fde 73bb 818f f9b9
00000110: e5c4 aabb 2799 87bb e6cd 613b a5d7 ea3b
00000120: 1e58 06bb d228 d13b f9e8 d239 f837 c7bb
00000130: 7f47 ef39 1748 c538 9f16 36b9 2b33 093a
00000140: 8d8f dcbb 75dc 0b39 5946 7c39 0a4c 8b39
00000150: b64c cd39 251a a8bb 8b29 22b9 a26c 213a
00000160: 15a5 3a37 45f9 62b9 fdfc 143c 07fd 62ba
00000170: ecd8 adba 71a2 a538 fb98 90b9 01be 803b
00000180: 265a 5b3a 26e0 1b3c e742 feba 39f7 32bc
00000190: e55f ecbb a0c7 f0b9 b94b 283b 955d b439
000001a0: e97b 8c39 dc48 173b 8059 a436 6b99 7e37
000001b0: bad9 1637 21dc 293a cb9b 683c 9ee5 2739
000001c0: 291f c4ba 5517 ae3a eca3 363b d0f8 99bb
000001d0: 01d4 8f38 9430 0739 40ac 0039 5579 5ab9
000001e0: c716 9fbb 215f 9d3a d930 163b ee46 6739
000001f0: eed5 e03a 64a4 c93b 33b8 943a b885 52ba
00000200: 2046 6739 7580 eb37 d1ed 003c 8494 013a
00000210: 9d23 d9ba 5897 75b9 2925 a13a b10c 1a3b
00000220: b133 a63a 62f2 8a3b 5d2b eb3a b0a6 973c
00000230: 6b28 dabc f9f2 8639 764d e839 8050 e9b8
00000240: 0afe 13ba 490c 063b 8f83 5c3c 64cd c8ba
00000250: ac6a 6e3c 4978 8c39 db27 cf3b d5fb f43b
00000260: de13 983b c13b f93b 9958 2a3c 13fc 25bc
00000270: 17fe bdb9 85e2 d83a 7f84 a3ba 143c c739
00000280: 5ae1 4cbc 209b ab38 6acf 973a 0b25 5aba
00000290: 7fbe 903a abf4 c9bb 3e6c 673a 7487 8c39
000002a0: a29a b33a 12e1 353a 7ce9 753b 2bc1 623c
000002b0: c015 1a3c 8fe8 793c 5ac3 7b3c 4068 a03b
000002c0: cdbd 683a 77e4 2dba 0ccf a63a 9374 ac3a
000002d0: ce1c 923b 1265 223a 8df9 5cba 3293 0238
000002e0: 4f02 163a ce48 0ebc 0282 c7b9 7891 b038
000002f0: 5940 eab9 2036 a137 243b 9dbb 929e 58bc
00000300: edaa 763c 1660 c8bb c4c6 613c fd5c dd3b
00000310: 8c5c f8b8 8a55 1e38 ed05 8fb9 a7ea 1a3a
00000320: 3c11 84bc fec2 1f3b 3ca5 7f3a 92fc 313a
00000330: 66e0 6039 71f2 f03b 7c8d 0338 a3c9 c5ba
00000340: 5977 a039 bf88 4fb9 3177 d23c 190c 853a
00000350: d0d4 cab9 a978 8e3a d9dc 873a f0fa 8a3b
00000360: 7334 2739 401e 2bb9 630c f339 dd0e 553a
00000370: d8b1 363b 3ca3 79b9 d814 52ba ef72 45b9
00000380: 5665 643a 5fed 613a 31ec 0fbc 6c5b 56bb
00000390: aefb 1ebc 889d 0cbc 19b7 c5bb e2b0 00ba
000003a0: 2bb2 9538 b824 29ba 0ff9 053a ca09 073b
000003b0: 05da c2bb ea27 773c 4cb5 22bb d7c4 1d3c
000003c0: 3967 dd3b 1751 193a be1c 8b38 ddd0 7c39
000003d0: 6069 3db9 3490 9dbc dcbf 5d3a 6c08 133a
000003e0: a665 703a bc5b 1b3a

linear_7_Add_B f4 [5]
-0.0179995 0.0204446 -0.0191097 0.0210797 -0.0161878
00000000: b073 93bc 6f7b a73c f28b 9cbc 56af ac3c
00000010: 479c 84bc
