resources/onnx/acasxu/ACASXU_experimental_v2a_3_3.onnx (onnx, 55889 bytes, 15 tensors)

input_AvgImg f4 [1, 1, 1, 5]
000000 00 00 00 00 00 00 00 00 00 00 00 00 00 00 00 00
       0.0 0.0 0.0 0.0
000010 00 00 00 00
       0.0

Operation_1_MatMul_W f4 [5, 50]
000000 2e 71 64 be 26 e7 9f 3c b1 7c 07 3d c8 98 13 c0
       -0.223088 0.0195194 0.0330779 -2.3062
000010 52 6e ae 3b d4 b0 e7 ba ac dd 1b bd a8 92 1e 3b
       0.00532321 -0.00176766 -0.0380532 0.00241963
000020 2f 2b da 3b 13 f1 f6 bd 59 66 15 bc 10 e3 74 38
       0.00665798 -0.120577 -0.00911864 5.83856e-05
000030 7b df d3 3c 79 db b7 3b f8 fc 18 3f ea ba b6 bd
       0.0258634 0.00561088 0.59761 -0.0892237
000040 3e 82 77 3a 1b 47 ac bf 7b a6 b2 3d 25 7a 9d bf
       0.000944171 -1.34592 0.0872316 -1.23029
000050 47 ec 6e 3c 44 ea 2c bd 3b 4c 40 3d 7b 91 3f bb
       0.0145827 -0.0422156 0.0469477 -0.0029231
000060 69 dc 80 bc fb 02 5f bd df c1 af be 13 3a b7 ba
       -0.0157301 -0.0544462 -0.343276 -0.00139791
000070 7e 1d ac bf 47 e3 a0 be e3 20 bc bc 5f 7b aa bf
       -1.34465 -0.314234 -0.0229649 -1.33189
000080 8e 01 ae 3d 53 b0 26 bd 39 63 b8 bd 12 49 ba 3b
       0.0849639 -0.0406955 -0.090033 0.00568498
000090 fe b7 0a c0 39 2a df 3e 54 e5 7b bc 58 5f 17 3c
       -2.16748 0.435869 -0.0153745 0.00923904
0000a0 ad 6e 91 bf 6b 9f ae 3d 12 1e 23 bc c9 7a 45 bc
       -1.13619 0.085265 -0.0099559 -0.0120532
0000b0 f2 97 16 bd b2 7a ec bc 17 bc d4 bf b7 f2 4d 3d
       -0.036766 -0.0288671 -1.66199 0.0502803
0000c0 4c fd 3c 3f 01 30 fe 3d 91 0a a7 3f de e6 ed 3e
       0.73824 0.124115 1.30501 0.464652
0000d0 3a 90 25 be c7 23 82 bc bf f1 35 3e b9 fd 62 be
       -0.161683 -0.0158862 0.17768 -0.221671
0000e0 7a 5b 9f bd 12 ba 50 3d 78 3a 72 39 23 bd 60 3f
       -0.0778112 0.0509587 0.000231007 0.877886
0000f0 ee 76 7d 3e f2 41 a7 3e 6a 16 54 3f 9d 9a f0 3b
       0.247524 0.326675 0.828467 0.00734265
000100 c1 c8 eb bd e8 6c 21 3e 22 a8 5a bd 07 f5 63 3c
       -0.115129 0.157642 -0.053383 0.0139134
000110 21 3c 0c 40 73 9f 3c 3e 45 3b a8 bd 2d d2 74 be
       2.19117 0.184202 -0.0821443 -0.239083
000120 0d a6 23 c0 4c 9c 07 3c ed b6 8b be 3e e9 34 3e
       -2.55701 0.00827701 -0.27288 0.176671
000130 fe 64 58 bf 4e 1c 8a 3c c6 4d cf bb 47 03 28 be
       -0.845291 0.0168592 -0.00632641 -0.164075
000140 a5 67 92 be 44 c2 8f be 38 32 af bf 24 d6 9e 3f
       -0.285947 -0.280779 -1.36872 1.24091
000150 75 58 3d bf 85 23 08 bc 33 51 e4 3d 06 2b 6e 3f
       -0.739631 -0.00830925 0.111483 0.930344
000160 94 ff 16 3a 87 52 7b 3d 42 e8 b5 3d cd 23 c3 3f
       0.000576013 0.061358 0.0888219 1.52453
000170 f9 86 8a 3e 06 47 15 bf 3c 31 6b be cc 0b cc bf
       0.270561 -0.583115 -0.22968 -1.59411
000180 d6 47 c1 3d ab b2 cf bd f6 60 7a bf c0 cb 3c bf
       0.0943753 -0.101415 -0.978042 -0.737484
000190 ff 3e a7 bf 09 df 03 3f 69 1c 2a 3e 77 4e 8e bc
       -1.30661 0.515122 0.166124 -0.0173714
0001a0 ee cc 54 be bf 10 62 3e aa 7d c2 bf 94 5e 45 bd
       -0.207813 0.220767 -1.51946 -0.0481859
0001b0 e2 78 fc 3a 80 b7 88 bf e8 15 33 bf e2 ea b8 be
       0.00192621 -1.0681 -0.699553 -0.361167
0001c0 aa 65 fb 3e e7 1e 6d 3c 9f d2 fb 3b 8e 3a 8a be
       0.49101 0.0144727 0.00768502 -0.269978
0001d0 b1 c4 0b c0 99 04 79 3d da 74 64 bd ac 1d e5 bd
       -2.18388 0.0607954 -0.0557755 -0.111873
0001e0 76 08 b2 3d 26 ac ad 3e fb 77 1d 3d 35 c9 59 bb
       0.0869302 0.339204 0.0384445 -0.00332315
0001f0 99 47 2e 3e 89 7a 89 be 58 cb 5d 3f d9 cf 33 ba
       0.170195 -0.268513 0.866384 -0.000685928
000200 85 2f 02 bd bc 96 0b bd 43 02 a6 3e 22 34 ca 3e
       -0.0317836 -0.0340793 0.324236 0.394929
000210 44 4c b1 3f 5a bb 99 3f 76 20 04 bc 87 fa 5d bc
       1.38514 1.20103 -0.00806438 -0.0135485
000220 d4 28 e4 bd 26 8e 04 3f 63 6e 0c 3b ab 15 97 bd
       -0.111406 0.517794 0.00214281 -0.0737718
000230 ac 49 e4 bb a1 d9 79 bf 2a e0 2e be dd 60 08 bf
       -0.00696679 -0.975977 -0.170777 -0.532728
000240 67 ef 7c 3e 6a 30 fd 3f 44 6a 4e 3f e6 76 ef 3d
       0.247007 1.97804 0.806309 0.116926
000250 8f 70 d2 3e 45 d8 28 bf 59 96 a9 3d d5 eb ee be
       0.411015 -0.65955 0.0828063 -0.466643
000260 8c bb 41 be 3b 5e f5 ba ad 6e 85 bf d0 28 6d bf
       -0.189192 -0.00187201 -1.04244 -0.926404
000270 fa 90 21 3d c0 ec b6 bf c9 e1 17 bc 92 3f d8 3d
       0.0394449 -1.4291 -0.00927014 0.10559
000280 46 23 4f 3e 0b 97 59 bf 5b d1 42 bf a1 f7 22 3f
       0.202283 -0.849961 -0.761007 0.636591
000290 3f 64 db bc 66 85 a2 be 5d 29 95 3c 45 4a 93 be
       -0.0267812 -0.317424 0.0182082 -0.287676
0002a0 ac 60 9a 3d a3 03 42 be 61 ea ad 3d 04 e8 d7 3e
       0.0753797 -0.189467 0.0849197 0.421692
0002b0 52 5e 50 3c 5f fe 54 3c fb 3a b0 bf 86 03 a1 bf
       0.0127178 0.0130001 -1.3768 -1.25792
0002c0 b6 f3 0d 3e 7d 08 2a 3c 6e be 21 be 6b b9 33 bf
       0.138625 0.010378 -0.157953 -0.702048
0002d0 f1 29 e8 bf 7e cd cd 3a 45 84 5a bc 52 5f 02 3f
       -1.81378 0.00157015 -0.0133372 0.509267
0002e0 86 90 23 bf 70 97 4d bf da 8d df 3b 0c a4 c5 3d
       -0.638924 -0.803092 0.00682233 0.0965043
0002f0 e2 07 42 3c 00 71 ff be f2 47 2c 3d d0 d5 d6 3d
       0.0118427 -0.498909 0.0420608 0.1049
000300 a4 88 04 bf bd c7 79 be f3 03 63 3f 92 ad 86 be
       -0.51771 -0.243926 0.886779 -0.263043
000310 be c2 5d bc 2c d4 96 bf 5b ad c8 bd c9 73 1d 3e
       -0.0135352 -1.17835 -0.0979869 0.153762
000320 07 9b fa 3c 9c a5 44 3e 2d 95 a7 bf e9 89 db 3b
       0.0305915 0.192038 -1.30924 0.00669979
000330 5f 61 71 3f 7e 8c a1 3e e3 40 bc ba c9 93 cc bf
       0.942892 0.315525 -0.00143626 -1.59826
000340 bc 62 1f bc e6 06 bb 3e c8 cf ae be 69 84 6e ba
       -0.00972813 0.365287 -0.341429 -0.000909871
000350 2a 57 a0 3e c3 9b 01 bf 78 61 7b 3e 16 de d1 bf
       0.313165 -0.506283 0.245489 -1.63959
000360 37 57 0b bc 6d 59 0e 3e f8 9f b6 bd 3f 1d 9f be
       -0.00850468 0.139013 -0.0891723 -0.31077
000370 e3 c2 b9 bf 37 4f a9 bf 45 68 e3 bb 9f 3b c1 3a
       -1.45126 -1.32273 -0.00693992 0.00147425
000380 9e 5d 86 be c8 07 dd bf 4f 76 d3 be fb 8f 2f bb
       -0.262433 -1.7268 -0.413012 -0.00267887
000390 c6 31 b2 be 24 42 43 3e 38 4a 8e be a5 a4 77 be
       -0.348036 0.190682 -0.27791 -0.241839
0003a0 30 1c 3e bc fc 39 85 be ff 40 a9 be 80 7d 98 bf
       -0.0116034 -0.260208 -0.330574 -1.19133
0003b0 5a 85 07 3c da 72 ee bd 3c 39 9e bc bf d4 c3 bf
       0.00827154 -0.11643 -0.0193144 -1.52993
0003c0 55 4b 5f 3c 22 e3 89 be 17 9f c2 bf 42 99 06 3e
       0.0136288 -0.269311 -1.52048 0.131444
0003d0 1d 5a 8c bf d8 b7 b3 3e 73 c8 ac 3d 6d 00 b6 be
       -1.0965 0.351012 0.0843667 -0.355472
0003e0 5c 20 51 be 8c ed 8a bd
       -0.204225 -0.0678359

Operation_1_Add_B f4 [50]
000000 07 7c fe be 4b fb 50 3d 7b 11 ad be 3b 70 1a bf
       -0.49704 0.0510209 -0.338024 -0.603275
000010 db 14 bf 3d ee cf f5 be 07 f0 16 3e cf 11 19 be
       0.0933015 -0.480102 0.1474 -0.149482
000020 ec 01 8e bc 03 ff a5 bd 8b a5 08 3e 4c 89 44 be
       -0.0173349 -0.0810528 0.133444 -0.19193
000030 0f 99 42 be fd 15 02 3f e4 bb 84 3e 22 1a dd be
       -0.190037 0.508148 0.259246 -0.43184
000040 e3 db 80 3d 5e 82 bb be 4a f1 9c 3d f0 fa ac be
       0.0629194 -0.366229 0.0766321 -0.337852
000050 ce 8c b6 3e b1 c2 85 be 6e 1f a8 bc 47 4c 9a bc
       0.356543 -0.261251 -0.0205228 -0.0188352
000060 34 4c d5 be 0c 05 24 bf 1e 6e 17 3e 5c 4f be bc
       -0.416597 -0.640702 0.147881 -0.0232312
000070 f0 19 f9 be 9a cd 8b be 78 d4 d0 3e 6e e0 a6 be
       -0.486526 -0.273053 0.407871 -0.325931
000080 17 9a e3 be a0 16 63 be a2 5f db bd b1 87 5a bf
       -0.444535 -0.221766 -0.107116 -0.853633
000090 f0 be a2 be 83 31 52 3e cc 9b c3 bc da e7 1d 3f
       -0.317863 0.205267 -0.023878 0.616819
0000a0 70 6d 72 3c 1a c0 1b be 76 ca 3e bd 02 4a c3 bc
       0.0147966 -0.1521 -0.0465798 -0.023839
0000b0 ea e9 c3 3e c4 cf 87 be f8 6c e5 be cf bf 11 bf
       0.382644 -0.265257 -0.448097 -0.569333
0000c0 0a 75 c2 3d 45 1a ab 3d
       0.0949498 0.0835462

Operation_2_MatMul_W f4 [50, 50]
000000 73 43 98 3d c2 c0 eb 3e d9 ed 13 3e 94 4c 78 ba
       0.0743474 0.460455 0.144462 -0.000947186
000010 0b d2 1c 3e c3 81 f0 3e c2 12 9f 3f b0 54 7b bf
       0.153145 0.46974 1.24276 -0.981761
000020 fa d0 07 c0 d8 44 96 be 1e a9 b6 3e 88 63 2d be
       -2.12213 -0.293494 0.356759 -0.169325
000030 58 01 1a 3f e1 b4 a8 3f 12 f7 78 3e 59 50 34 3f
       0.601583 1.31802 0.24313 0.704351
000040 f2 09 59 3e d1 02 94 3e 7f 14 15 3e f1 2f 1a bf
       0.211952 0.289084 0.145586 -0.602294
000050 10 22 91 3e 22 88 43 3f bb b7 c2 3e ae 67 1c bf
       0.283463 0.763796 0.380308 -0.610957
000060 24 e1 0c 3c ee ce 56 3f 88 6e 91 bc 2d b2 d6 c0
       0.0085986 0.839095 -0.0177529 -6.70925
000070 00 8c a3 bf 18 ce bd be 7b 2e 23 be 12 f9 0a 3f
       -1.27771 -0.370713 -0.159357 0.542863
000080 a8 36 18 be 5c 93 1e 3f ed f0 67 be 4d da 74 be
       -0.148646 0.619436 -0.226505 -0.239114
000090 75 93 74 bf f6 7c 4d 3e 7b a0 b1 bf f6 0b 7e 3f
       -0.955375 0.200672 -1.38771 0.99237
0000a0 d9 5f 96 bf b9 6e ba 3e 30 b3 b4 bc 6b bc 6f bd
       -1.1748 0.364126 -0.0220581 -0.0585293
0000b0 5a dc 9a 3c cd cc 84 bf 0a 5f 64 bd 28 7f 77 be
       0.0189039 -1.0375 -0.0557547 -0.241696
0000c0 bf 28 31 bf bc cc 30 3d 46 2e 0e 3d cb 2f fb 3e
       -0.692028 0.043164 0.0347121 0.490599
0000d0 fc 1d 02 3f b9 e9 2a bc 52 d6 5f 3e cf a3 62 3e
       0.50827 -0.0104317 0.218591 0.221328
0000e0 30 fe ac 3c c7 63 a6 3e 17 ef d7 3e 8f c6 15 3f
       0.0211173 0.32498 0.421746 0.585061
0000f0 b1 18 15 3e b1 16 13 3f 77 67 3d be 29 92 6f 3e
       0.145602 0.574565 -0.184965 0.233956
000100 4f ca 54 be 96 17 aa bd 49 f4 e2 be 36 ea e1 3e
       -0.207803 -0.0830528 -0.44327 0.44124
000110 2d 42 a1 3e ab ed a6 be cd e5 32 3f 96 93 80 be
       0.314958 -0.326032 0.698819 -0.251126
000120 20 27 ac be aa f4 53 3e d2 35 3b 3f 36 b1 a0 3e
       -0.336236 0.206988 0.73129 0.313852
000130 c0 30 8f bc 78 7f 18 3f 01 a4 3a bf e7 cc 91 3d
       -0.0174793 0.595695 -0.729065 0.0711916
000140 52 5f 66 be 92 d2 47 bd 20 63 ce bd 99 67 ed be
       -0.224973 -0.0487848 -0.100775 -0.463681
000150 9b e5 02 bf ce aa 0b bf d4 60 7a be ed bc ed 3d
       -0.511316 -0.545575 -0.24451 0.116083
000160 b8 93 28 3f 87 87 68 bf 85 40 86 3e 3c f8 3d 3f
       0.658504 -0.908318 0.262211 0.742069
000170 69 c6 12 3e 52 0b 55 3e 2c 4a 19 3f 0e db f6 3d
       0.143335 0.208051 0.598788 0.120535
000180 e9 dd 8e 3c 51 31 92 3f 24 35 a3 3c a2 9a 62 3e
       0.0174398 1.14213 0.0199228 0.221293
000190 34 7a 7b 3b 97 e2 9a 3f a7 93 0c bf c9 bd 0c 3c
       0.00383724 1.21004 -0.549128 0.00859017
0001a0 68 24 32 3e 4d f3 4e be 8e 5b 28 bf 15 ab 86 3d
       0.173967 -0.2021 -0.657647 0.065756
0001b0 8e 90 41 3f 02 f5 9e be ab 08 d7 3d ac 90 3e bf
       0.756112 -0.310463 0.104997 -0.744395
0001c0 45 b8 21 3f 82 1d 1f bd 9b a5 69 3d 4d 86 43 be
       0.631718 -0.0388465 0.0570427 -0.190942
0001d0 a2 46 81 3d 13 63 b1 be ef 58 34 bf ad 51 cf be
       0.063123 -0.346459 -0.704482 -0.40492
0001e0 a4 8d 5b bf c5 72 4b 3e a4 88 a0 3f 85 0a 1a bf
       -0.85763 0.19868 1.25417 -0.601723
0001f0 04 3c 19 3f 9e 5e ad 3f 52 97 11 bd ee 5f 99 3e
       0.598572 1.35445 -0.0355447 0.29956
000200 4d 32 a6 bf 0c ea bf 3f 96 b2 a0 3f 57 c5 e1 bb
       -1.29841 1.49933 1.25545 -0.00688998
000210 5e 85 fc 3f 72 e0 29 bf 79 75 ca bf 65 c5 28 3f
       1.97282 -0.663581 -1.58171 0.659262
000220 37 6d 02 3f 1d 05 60 3f 12 50 4d 3f f0 33 da 3f
       0.509479 0.875078 0.802003 1.70471
000230 b9 6f 35 3c e1 09 f5 be 97 fe 75 3e d1 1e 6b 3f
       0.011074 -0.478591 0.240229 0.918439
000240 1e a9 02 3f 00 ae 34 3e 9d 25 ed bc 62 15 a3 3f
       0.510393 0.176445 -0.0289486 1.27409
000250 fe ba 4f bf 11 53 5e bf 94 de d2 3c 8c bb c1 3d
       -0.811447 -0.868455 0.0257409 0.094596
000260 c8 0a 7e be 31 ee 44 bb f6 60 f2 3e c4 e8 55 3f
       -0.248088 -0.00300492 0.473396 0.835583
000270 9d 2e 87 3f a1 09 39 3d 2b 69 49 bf 6e 14 29 be
       1.05611 0.0451752 -0.786761 -0.165117
000280 c2 34 c8 3f 63 42 10 bf eb 55 dc 3e 89 98 ae bf
       1.56411 -0.563513 0.430343 -1.36403
000290 8f cb c3 37 17 9d 40 bf 2a 1d 1c 3e d4 98 70 3e
       2.33406e-05 -0.752397 0.152455 0.234958
0002a0 e0 12 e0 3d fe d4 8e 40 b2 63 bb 3e ae 2c 89 3e
       0.109411 4.4635 0.365995 0.267919
0002b0 b9 1a 41 3f 50 53 47 bf 2d cf a7 3f f0 df 94 be
       0.754314 -0.778615 1.31101 -0.290771
0002c0 e5 94 25 3c ed 72 00 3d a2 24 c9 bd dc 83 10 3f
       0.0101063 0.0313596 -0.0982144 0.564512
0002d0 48 c5 6b 3f bf 81 c9 3e a3 68 6f 3d 98 a3 82 40
       0.920979 0.393568 0.0584494 4.08247
0002e0 44 50 f5 bd 94 6a a7 be 4d d9 59 bf 7c b8 84 be
       -0.119782 -0.326985 -0.850972 -0.25922
0002f0 03 b4 3d bf e4 68 d6 3e 60 5a d4 3d 07 61 06 3f
       -0.741028 0.418769 0.103688 0.524918
000300 e6 22 a2 bf d6 e2 41 40 74 26 95 3e fd 32 18 be
       -1.26669 3.02947 0.291309 -0.148632
000310 4f 48 e3 bb eb 38 2e be 56 f1 e6 3d 00 ae 24 3f
       -0.00693611 -0.170139 0.112765 0.64328
000320 0f 65 83 3c 15 ca da be df c2 7a be c2 75 7b 3c
       0.0160394 -0.427323 -0.244884 0.0153479
000330 1c 29 3b be b4 aa 4d 3f 6f 64 c6 be 79 23 93 3e
       -0.182774 0.803386 -0.387485 0.28738
000340 22 ac 61 3d d7 1b 70 bd 58 8f 6b 3e 74 7e 9a bd
       0.0550958 -0.0586203 0.230039 -0.0754365
000350 4c 18 8b 3b c0 cc 27 bf 66 bd 8c bf 94 4d d9 3d
       0.00424484 -0.655468 -1.09953 0.106105
000360 03 27 1b be 11 8f b4 be a6 d5 10 3e dc 1e 53 3d
       -0.151516 -0.352654 0.14144 0.0515431
000370 99 7f 74 3d ac e5 2e 3d dd 44 6d 3e f0 fb 07 bf
       0.059692 0.0426995 0.231708 -0.531188
000380 a5 d8 21 be 15 1e 0c bf 43 4e c4 bc ef 4e e3 bc
       -0.158053 -0.547334 -0.0239631 -0.0277476
000390 58 8c 2a bf 3f 8f 79 bf 71 72 d7 be fe 62 ee be
       -0.666204 -0.974842 -0.420795 -0.465599
0003a0 15 1d a1 bf b9 c6 37 be 7f 6b 1b 3f ec dc 14 bf
       -1.2587 -0.179469 0.607109 -0.581496
0003b0 60 93 09 c0 39 ec 3a bf e8 4f 23 bf 3b 56 d1 be
       -2.14962 -0.730167 -0.637938 -0.408861
0003c0 46 cd 27 bf f1 05 57 3d d8 d4 29 be fa b7 3b be
       -0.655476 0.0524959 -0.165851 -0.183319
0003d0 60 39 4e bf 9d d6 1d bf 9f 4f f6 39 b9 02 a5 3c
       -0.805563 -0.616556 0.000469801 0.0201429
0003e0 b7 45 99 3e e3 47 06 bd a2 6e f1 3c 9a b1 c1 c0
       0.29936 -0.0327834 0.0294717 -6.05293
0003f0 6e de e8 3e 16 88 de bc 40 18 b0 3f cd b7 b9 bd
       0.454822 -0.0271645 1.37574 -0.0906826

Operation_2_Add_B f4 [50]
000000 30 4b db bd 2f 6f 0a bf 1b 0f 2e bf 54 50 b6 bc
       -0.107077 -0.540759 -0.679918 -0.0222551
000010 bc 3f d6 3e 3e 97 c9 be 8d 09 f1 3d ff 79 5a 3f
       0.418455 -0.393732 0.117694 0.853424
000020 b6 91 c1 3d fb 5d d8 be 43 90 ab bf 57 77 60 bf
       0.0945162 -0.422592 -1.34034 -0.876821
000030 ca 4e 1b 3f 51 4e 40 bf 47 e8 ef be 47 77 88 bf
       0.606671 -0.751195 -0.468569 -1.06614
000040 31 5b f2 3e b6 85 8f 3e 54 37 53 bf fa 98 87 be
       0.473352 0.280317 -0.825063 -0.264839
000050 4f e9 84 bf 52 b5 51 bf 27 11 11 bf 22 53 ae be
       -1.03837 -0.819173 -0.566668 -0.340478
000060 41 f5 8f 3e 82 dd 80 39 fc 34 6e bc 99 42 8c 3c
       0.281168 0.000245791 -0.014539 0.0171216
000070 22 c2 1b bf a4 e3 0a 3e 62 bc 0e 3f 87 a2 38 bf
       -0.608431 0.135634 0.557562 -0.72123
000080 4a 28 4d 3e b3 07 92 bf 8c 81 45 bf 00 e4 fc be
       0.200349 -1.14086 -0.771508 -0.493927
000090 de c7 d9 be c5 1a 1e 3e bc 74 37 bf be 2d 28 bf
       -0.425353 0.154399 -0.716625 -0.656948
0000a0 73 c7 51 3d d7 d9 30 3e e2 5c 43 bf 37 dd 5e bf
       0.0512156 0.172706 -0.763136 -0.870563
0000b0 1c d0 aa be c6 a8 13 bf 75 f1 ad bc b1 50 47 3f
       -0.333619 -0.576794 -0.0212333 0.778575
0000c0 bc cb a5 bf 03 25 31 bf
       -1.29528 -0.691971

Operation_3_MatMul_W f4 [50, 50]
000000 e2 a4 aa 3d a8 af 02 3d 18 36 54 bd 04 21 79 3d
       0.0833223 0.0319058 -0.0518094 0.0608225
000010 d5 4a 17 3d e7 6d 6c 3d 4d 65 b1 3d 5d 4f 74 3d
       0.0369366 0.057722 0.086619 0.059646
000020 01 22 33 3c 79 20 f2 3d fa 8c 55 3c 6c af e5 3d
       0.0109334 0.118226 0.0130341 0.112151
000030 c9 85 94 3d 88 3a 62 bd 83 c1 f5 3d d0 72 9a 3d
       0.0725208 -0.0552316 0.119998 0.0754143
000040 99 d2 1f 3d fc 6d 0f 3e e9 cf 03 bd 41 69 c3 bc
       0.0390192 0.140068 -0.0321807 -0.0238539
000050 b7 0a 62 bc 4f ff 5d 3b c1 34 11 bd a1 5e 95 bc
       -0.0137965 0.00338741 -0.0354507 -0.0182336
000060 be a9 b3 3d 6a e8 d5 3c 92 04 01 3e f2 47 8c 3d
       0.0877261 0.0261118 0.125994 0.0684966
000070 2c e1 bf 3c 1d 98 f5 3b 11 04 b3 3d 01 4c 1e bd
       0.0234228 0.00749494 0.0874101 -0.0386467
000080 9c e4 e2 3c f5 48 43 3d 24 65 a6 3c e7 fb ce 3c
       0.0276969 0.047677 0.0203119 0.0252666
000090 8a 22 ff 3c 20 4b 3a 3d 38 ff 0a bd 94 6a 7f bd
       0.0311444 0.0454818 -0.0339348 -0.0623575
0000a0 4f 36 ca 3c 90 2f 21 3e e5 ca 05 3d 83 0a d8 bc
       0.0246841 0.157408 0.0326642 -0.0263722
0000b0 10 a7 b8 3c b0 1f 12 3e f3 5b 2e 3b 14 4c 2b 3d
       0.0225406 0.142699 0.00266051 0.0418206
0000c0 36 8c 47 3d b9 fd 72 3d 9a 5e 4a 3f 57 d0 84 3e
       0.0487177 0.059324 0.790506 0.259402
0000d0 75 a2 6e 3c 99 9a 00 3f 2d 07 3a be dd d6 a1 bd
       0.0145651 0.502359 -0.181668 -0.0790231
0000e0 02 f5 4e 3f 48 19 21 be ca fa 2d 3f 87 f9 d2 bd
       0.808426 -0.157323 0.679608 -0.103015
0000f0 8e b2 8e 3e 73 f3 19 3f 42 26 1d 3f 19 cb 74 3e
       0.278706 0.601371 0.613865 0.239056
000100 b7 99 7a 3e 0b f1 08 3e df 89 79 3e 8f aa 26 3f
       0.244727 0.133732 0.24369 0.65104
000110 51 02 31 bd b0 ac 74 3e c8 23 44 bf 09 dd 8d be
       -0.0432151 0.23894 -0.766171 -0.277077
000120 98 17 a4 bf 5e bb 3c 3f b7 f8 4a 3d 50 8a 86 3e
       -1.28197 0.737234 0.0495536 0.262774
000130 30 12 06 c0 2f 89 17 3f ec f9 76 bf 87 36 50 3e
       -2.09486 0.591937 -0.964751 0.203333
000140 3b fc 45 3f 7a b9 d9 bc da e6 0e bf 3a 58 87 3f
       0.77338 -0.0265777 -0.55821 1.05738
000150 d7 be 00 3e dd 22 b5 bd 7b f9 3d be 42 6c 1a bd
       0.125728 -0.0884454 -0.185522 -0.0377009
000160 ba d7 7d bf 58 57 f5 3e f8 c2 58 3f 96 93 00 3f
       -0.991573 0.479182 0.846725 0.502252
000170 dd 28 52 3e f4 8c 38 bd 85 ec 7c 3e ee 23 6f bf
       0.205234 -0.0450563 0.246996 -0.934142
000180 63 46 d0 be a4 ff 8d 3e bd 00 8f 3f 26 39 40 3e
       -0.406787 0.277341 1.11721 0.187718
000190 3f fe 42 bf 4a 44 7c bf 25 4e b8 3c 24 0a 8d 3e
       -0.761692 -0.985417 0.0224982 0.275468
0001a0 a4 50 0e bf f3 71 17 c0 45 81 42 40 2c 65 65 3f
       -0.555918 -2.36633 3.03914 0.896075
0001b0 37 71 8e 3f 49 b9 3b 3f 8f fc 81 3e 6a a0 b9 be
       1.11283 0.733296 0.25388 -0.362552
0001c0 dc d0 59 3d bf 48 a8 c0 cc 62 92 3f 66 88 e7 3f
       0.0531777 -5.25888 1.14364 1.80885
0001d0 ce aa 33 bf 82 8b dd bf 2a fd c4 bc 01 35 55 40
       -0.701825 -1.73082 -0.0240465 3.33136
0001e0 70 24 c0 3e 18 b0 9c 3e 3a e9 41 40 c4 99 67 c0
       0.375278 0.306031 3.02986 -3.61876
0001f0 c9 38 42 bf b4 58 12 bf ce 55 73 be 22 fb 70 3f
       -0.758679 -0.571666 -0.237632 0.941332
000200 be 32 7f bf 38 32 97 3f 3a 5d 36 3f 72 03 14 bd
       -0.996868 1.18122 0.71236 -0.0361361
000210 c6 31 72 3f 85 ef 61 3f 55 13 84 3f 26 01 56 3f
       0.946072 0.882561 1.03184 0.835955
000220 44 36 68 bf a0 52 ad be 6d 8e 67 3f 7e 52 0f c0
       -0.907078 -0.338521 0.904517 -2.23941
000230 13 9c 16 3f 3a 92 bf 3f 87 fb e8 be b7 d4 61 3e
       0.588319 1.49665 -0.455044 0.220538
000240 2e 72 c7 be 02 d9 db bf 41 9d 32 3d 0f 80 68 3f
       -0.389543 -1.71756 0.043607 0.908204
000250 38 f6 ec 3e df a9 d8 3e a1 ff 54 3c 5e d7 ef 3c
       0.462816 0.423171 0.0130004 0.0292775
000260 eb f7 69 3c 1b f6 d6 3c 4f 23 eb 3b 68 42 0e 3d
       0.0142803 0.0262404 0.00717584 0.0347313
000270 d7 56 c3 3a ce cc 47 3d f7 89 cd 3c 5c 43 1f bd
       0.00149032 0.0487793 0.0250902 -0.0388826
000280 35 e1 48 3d 1e 51 a1 3b 1d 3c f7 b9 17 ba d2 3c
       0.0490429 0.004923 -0.000471563 0.0257235
000290 d7 03 dc bc 22 4b 0b bd b3 53 bd 3c e1 fa 05 bc
       -0.0268573 -0.0340072 0.0231112 -0.00817749
0002a0 c9 b6 22 3d 13 c3 44 bd 9d d2 06 bd 34 e0 a8 ba
       0.0397251 -0.0480376 -0.0329157 -0.00128842
0002b0 10 01 2c bd ec 5c 42 3d fb 72 0b 3d 39 0b 1c 39
       -0.0419932 0.0474519 0.0340452 0.000148815
0002c0 5e 71 07 bd a1 69 c9 3c 73 ee 19 3c 60 b4 02 bd
       -0.0330671 0.0245865 0.00939523 -0.0319103
0002d0 59 9c bb bc 00 ac 2e bd ee 9a ab 3c 58 9c ff 3b
       -0.0229017 -0.0426445 0.0209479 0.00780062
0002e0 cd 3a 43 bd c9 c0 0b 3d 80 47 d4 3c 26 eb a6 bc
       -0.0476635 0.0341194 0.025913 -0.0203758
0002f0 c5 6d 39 bd b0 0d 8b 3c 0d 38 4b bc d7 54 11 3d
       -0.0452707 0.0169743 -0.0124035 0.0354813
000300 b3 1f 8e bc 56 d6 16 3d 7c 5b d5 3c 00 3c 22 bd
       -0.0173491 0.0368255 0.0260446 -0.039608
000310 6c 37 8b 3c 19 6e 65 bc 79 c3 e2 bc b3 d1 39 bc
       0.0169942 -0.0140033 -0.0276811 -0.0113415
000320 82 ae f5 3e 00 fa 05 3b 96 75 24 bc 48 c4 28 3f
       0.479847 0.00204432 -0.0100378 0.659245
000330 d9 b2 2c bf 1d cb e3 3e b2 2d 73 3e 3b 70 0a 3f
       -0.674604 0.444909 0.237479 0.540775
000340 68 2c d0 3c ee cd 77 3f 70 b1 a2 3e ba da 2a be
       0.0254118 0.967986 0.31776 -0.16685
000350 88 67 1d bf 2c 7d c0 3e d8 7e d2 3d 84 65 c4 3e
       -0.614861 0.375955 0.102781 0.383587
000360 27 de 25 bf 59 8b db bf e3 cb 9f 3c 5a 4a 22 3f
       -0.647921 -1.71519 0.0195064 0.633947
000370 47 55 01 c0 81 41 7e bf ee 93 0b bf 4e f0 05 3f
       -2.02083 -0.993187 -0.545226 0.523198
000380 5b eb eb 3e da 03 49 3f 19 8f 46 bf 3b c4 b7 be
       0.46078 0.785215 -0.775621 -0.358919
000390 b0 8e 03 be 74 07 d1 3e 19 90 7d 3f c3 0b 26 bb
       -0.128474 0.40826 0.99048 -0.00253366
0003a0 0d e0 8d bf 5b 5b c8 3e c1 13 24 bd c0 40 64 3f
       -1.1084 0.391322 -0.0400579 0.891613
0003b0 a4 a8 4f bf 2c 44 03 3f 5d a8 40 bf 70 ed 8c be
       -0.811167 0.512759 -0.752569 -0.275249
0003c0 ea 77 01 3f 99 28 f2 be 7e 38 28 3e e3 c2 01 3e
       0.505736 -0.472966 0.164278 0.12672
0003d0 54 e6 e6 bd 76 f9 16 bf 82 ec 50 bc 13 f2 e1 be
       -0.112744 -0.589744 -0.0127517 -0.4413
0003e0 d8 2d 6e bf 1b f3 e2 be f8 fc 4c bf f9 0f 2d bf
       -0.930387 -0.443261 -0.800735 -0.676025
0003f0 e7 91 5a bd 7f f7 b6 be 7e 60 fd 3c 50 19 9f 3e
       -0.0533618 -0.357357 0.0309298 0.31074

Operation_3_Add_B f4 [50]
000000 f6 7f ba 3f 10 e7 89 3e 92 be bf bc 30 81 c7 bf
       1.45703 0.269341 -0.0234063 -1.55863
000010 6c 0a 14 bf 2a 8d 4c bf 2a 6f ff bf 3f 6f 0c c0
       -0.578284 -0.799029 -1.99558 -2.19429
000020 e2 74 72 be 77 49 38 bf 3b 19 dc bd 68 3f c6 bf
       -0.236774 -0.719871 -0.10747 -1.54881
000030 13 66 82 bf 5f 5e a8 be 06 81 f5 bf 2b de b0 bf
       -1.01874 -0.328845 -1.918 -1.38178
000040 de 54 dc bf f4 6c ae bf e0 00 e9 bb 59 a6 5b bf
       -1.72134 -1.3627 -0.0071107 -0.858007
000050 95 9d 6e 3e 66 a4 1e 3f cd e7 f4 3e 24 62 be bf
       0.233023 0.619696 0.478331 -1.48737
000060 89 97 ff 3e bf b6 1e 3e 20 f0 38 bf b3 0a 73 bf
       0.499203 0.154994 -0.722414 -0.949382
000070 0b 72 a1 3d 88 9c 2a 3f cb d5 7f 3e be 1d fc bc
       0.0788308 0.666451 0.249839 -0.0307759
000080 67 d6 1a 3f 25 3b f6 bf af 93 aa be 1d 90 14 bf
       0.604834 -1.92368 -0.333158 -0.580324
000090 32 55 d8 be 36 ea ad bf 07 7d 01 bf a3 af 8c bf
       -0.422525 -1.35871 -0.505814 -1.09911
0000a0 06 9e 7b 3e 6d ad 87 bf b5 6d d8 3d 11 37 03 bf
       0.24572 -1.05998 0.105678 -0.512559
0000b0 bb f2 09 bf f9 f5 ab 3e 71 72 0d c0 9f cd 92 3f
       -0.53886 0.335861 -2.21011 1.1469
0000c0 56 b7 08 c0 56 0e 8d bf
       -2.13619 -1.102

Operation_4_MatMul_W f4 [50, 50]
000000 10 33 25 bd 7c 48 2c bf a8 57 14 c0 17 9e 0f bf
       -0.0403319 -0.672981 -2.31785 -0.561006
000010 bb 61 83 be 58 ca 42 3e f9 be 38 be 9f 77 f3 be
       -0.256605 0.190225 -0.180416 -0.475522
000020 46 92 b5 3d e1 29 a4 3c 6f 47 50 3f 7a fc 9e 3e
       0.0886579 0.0200395 0.81359 0.31052
000030 e4 8a 03 bc 81 cc be be cb 82 b9 3d c3 44 c8 bd
       -0.00802872 -0.372654 0.0905815 -0.0977874
000040 91 24 2d 3d 47 1d a5 3e b5 50 52 bf 39 4d 15 bd
       0.0422712 0.322489 -0.821544 -0.0364506
000050 bf d3 cc 3e 47 00 67 3e 09 e1 21 3e 80 f0 b1 3e
       0.400053 0.225587 0.158085 0.347538
000060 68 11 c0 3c d8 28 3b 3e 7e 57 90 bf a7 3b c7 be
       0.0234458 0.182773 -1.12767 -0.389127
000070 05 35 5c be dd 61 8b be 93 53 f3 be 08 8f c6 bf
       -0.215046 -0.272231 -0.475247 -1.55124
000080 59 83 8c bd 18 b3 25 3e d7 4e e4 3e 64 4c 70 bd
       -0.0686099 0.161816 0.445914 -0.0586666
000090 ef e2 11 3f 7c 81 34 3b 87 f9 d2 3e 03 a2 f5 3b
       0.569869 0.0027543 0.41206 0.00749612
0000a0 22 e1 0f 3f 09 32 02 bf c9 77 a9 bc 34 2b b3 3e
       0.562029 -0.508576 -0.020687 0.349939
0000b0 82 8d 5b 3f 7b 4b 29 3e 5e f5 74 bf 36 50 05 bb
       0.857628 0.165327 -0.956869 -0.0020342
0000c0 41 82 04 c0 7c 0e 3c be b8 21 16 be c5 55 a1 bf
       -2.07045 -0.183649 -0.146613 -1.26043
0000d0 49 a2 d7 bf 69 51 8f be 9d a1 28 be ee 4b ec bc
       -1.68464 -0.279918 -0.164679 -0.0288448
0000e0 bc 06 0d 3f f6 ec d1 be 4a 23 6b bd 66 49 20 3e
       0.550884 -0.410011 -0.0574067 0.15653
0000f0 41 45 49 3f 11 75 aa 3d 43 38 e6 3d 58 8d 05 bf
       0.786213 0.0832311 0.112412 -0.521688
000100 c2 84 21 3e 24 e7 6e bd 03 ce ea 3e 6b f4 ea 3d
       0.157733 -0.0583259 0.458603 0.114724
000110 2f 6e 63 bf 54 38 e2 3d dc 28 d3 bb 0b 61 f5 3e
       -0.8884 0.110459 -0.00644408 0.479256
000120 f9 f8 d4 3e 74 d3 32 3f fd 68 b8 bc 5e d1 12 3d
       0.415962 0.698539 -0.022511 0.0358442
000130 5b 99 84 bf bf 0f 8f 3e 3c bd f2 3d af cc fb bd
       -1.03593 0.279417 0.118525 -0.122949
000140 5b ab c7 bd b0 01 2d 3f cc 60 0c bd c5 92 3e 3f
       -0.0974948 0.675807 -0.034272 0.744427
000150 37 a8 5d be e3 fd 48 3e aa 81 ce 3e 68 38 c8 3a
       -0.216462 0.196281 0.403333 0.00152756
000160 38 85 95 3d 6c ea 70 bf cc 0c fb 3d f8 9d 70 3d
       0.073008 -0.941077 0.122583 0.0587444
000170 04 45 a2 bd 2f c2 74 be 1f f4 b0 bf 0c 3c d7 be
       -0.0792332 -0.239022 -1.38245 -0.42038
000180 6c 21 98 3f 09 35 13 be 09 f9 0e c0 b1 32 86 38
       1.18852 -0.143757 -2.23395 6.39906e-05
000190 40 21 b1 bc cb 64 f8 bc 24 a9 b7 3a c8 3a 03 bc
       -0.0216223 -0.0303215 0.00140122 -0.00800962
0001a0 57 d5 26 bd 54 b3 1d bd 87 d9 10 bd 83 86 00 3c
       -0.0407308 -0.0385011 -0.0353637 0.00784457
0001b0 95 e9 a1 bc 8a c0 01 3b b9 41 c4 ba 34 63 f6 bb
       -0.0197647 0.00197986 -0.00149732 -0.00751915
0001c0 8c 93 4c bd 16 2c 19 3c fe fa 97 3c 7a d6 5f 3d
       -0.0499454 0.00934889 0.0185523 0.0546479
0001d0 b3 45 92 3c 53 1a bb bc 4d 3a c0 3c e4 9d 48 3d
       0.0178555 -0.0228397 0.0234653 0.0489787
0001e0 b8 4b d1 3c 60 2e 38 3d 56 93 31 bd 1f 81 22 bb
       0.0255488 0.0449661 -0.0433534 -0.00247962
0001f0 d2 c4 3b bd 91 00 1f bd 88 9c 23 bd 17 5c 38 bd
       -0.045842 -0.0388189 -0.0399442 -0.0450097
000200 a8 5d e5 bb ea f3 87 3c ee ba 2d bd c7 a7 b6 bc
       -0.00699969 0.0165958 -0.0424146 -0.0222968
000210 a4 00 ac bb fa 2a 37 ba 94 a4 88 3b e6 38 1c bd
       -0.0052491 -0.00069873 0.00417001 -0.0381402
000220 e8 e4 1e 3c 8a b7 24 3d 4d 58 51 3d 88 30 7e bc
       0.00969813 0.0402141 0.0511096 -0.0155145
000230 01 a1 75 39 c8 d9 8f bc 5d 2d 9c 3c ba 3b 80 bb
       0.00023425 -0.0175599 0.0190646 -0.00391337
000240 49 ca 2c 3d 89 98 d2 bc c8 9c 42 3c 58 89 1e 3c
       0.0421851 -0.0257075 0.0118782 0.0096763
000250 5c 41 0e bd 21 75 bb bc fc 8f dc be 7e ab dd be
       -0.0347303 -0.022883 -0.430786 -0.432949
000260 f8 28 ad 3c ca 37 9b 3e ea c1 6e bd b7 b6 c0 be
       0.0211377 0.30316 -0.0582904 -0.376394
000270 ea cd 98 bd bf 9b 6e 3c 86 76 99 bd 40 88 e4 3d
       -0.0746115 0.0145635 -0.0749331 0.111588
000280 2f 6b b2 3e d9 1b 46 3c d8 33 9f 3d e7 ab 10 3f
       0.348474 0.0120916 0.0777356 0.565123
000290 44 a2 60 be db 12 9e 3d 4c 6d e1 be 56 15 75 3c
       -0.219369 0.0771844 -0.440287 0.0149587
0002a0 b7 04 45 3d 83 bd 8e bd b0 4f 95 3d 0d 35 c2 3e
       0.0481002 -0.0696974 0.0729059 0.379311
0002b0 8f e0 ae be 0e 4a 18 3e 45 82 a9 ba ed 63 2d bf
       -0.341557 0.14872 -0.00129325 -0.677306
0002c0 8a 90 ba 3e 9a 0b 0c be f3 1d fc 3d 1c 24 e4 be
       0.364384 -0.136763 0.123104 -0.445588
0002d0 db df 29 bf e3 1c 35 bf 2a a4 21 3d 59 17 17 be
       -0.663572 -0.707472 0.0394632 -0.14755
0002e0 16 91 d7 bc 40 f7 f5 3e ba 30 82 be c5 aa 51 be
       -0.0263143 0.480402 -0.254278 -0.204753
0002f0 e6 eb ea 3e a9 2e c8 be 29 20 95 be 97 1e 65 bf
       0.458831 -0.390981 -0.291261 -0.894998
000300 2a c9 1a 3e ed 4a 17 bf e8 83 05 3f a9 67 91 3e
       0.151158 -0.590987 0.521544 0.283994
000310 11 5f 5c bc 03 22 44 bf 10 5c 65 3c 2d 5f 27 3e
       -0.0134504 -0.766144 0.013999 0.163449
000320 4f 3e f5 be 9c c2 2e 3f 25 58 08 40 e8 4c fa bd
       -0.478991 0.682657 2.13038 -0.122217
000330 dc 40 e6 3c e2 16 9d 3d da 8e 89 3e 6a aa 92 3d
       0.0281071 0.0767038 0.268668 0.0716141
000340 96 78 d0 be 43 1a 15 be 17 9b ae 3e bb d6 5e bd
       -0.40717 -0.145608 0.341027 -0.054404
000350 0f 2b cc 3e 91 9a 86 3d a8 37 13 3e d5 77 7e be
       0.398766 0.0657245 0.143767 -0.248504
000360 76 c5 84 3e 8c 67 c0 be f8 dd 54 bf 6d 61 0c 3d
       0.259319 -0.37579 -0.831512 0.0342726
000370 12 c2 c3 3e 42 05 27 bd 59 37 b9 3d 5b ed 4d 3f
       0.38234 -0.0407765 0.0904376 0.804403
000380 da a5 f2 3c 19 73 6b bf 3d 49 92 be 1c 45 06 be
       0.0296201 -0.919725 -0.285715 -0.131123
000390 a1 31 73 3e 0f 92 4f bc 56 29 2d be d9 b1 b9 bf
       0.237494 -0.0126691 -0.169103 -1.45074
0003a0 72 a6 c9 be b6 f5 4b 3f d2 e2 24 3f ad 4c 30 bf
       -0.393848 0.796718 0.644086 -0.68867
0003b0 a0 e0 22 3f ec 33 e7 3d e1 ec f6 be 15 e2 b1 3e
       0.63624 0.112892 -0.482276 0.347428
0003c0 ca 6f 51 be 60 cc 62 3f 58 29 83 bd 57 40 11 be
       -0.204528 0.885931 -0.0640437 -0.141847
0003d0 92 79 cc be 06 38 f3 bc 9d 2a df be 18 b2 19 bc
       -0.399365 -0.0296898 -0.435872 -0.00938084
0003e0 aa 48 0b c0 2d da 52 3c 10 ad 85 3e c2 c0 57 3f
       -2.17631 0.0128694 0.261086 0.842785
0003f0 bb 80 af be 37 fa 0c 3f 32 af 53 3f f6 7a 11 40
       -0.342779 0.550693 0.826892 2.27313

Operation_4_Add_B f4 [50]
000000 b8 05 37 3f af 71 c7 3c b7 7f 8d bf 08 a7 9a 3d
       0.714931 0.0243462 -1.10546 0.0755139
000010 55 f9 de 3d 1c cd b1 3e 3b fe 7b 3e 96 14 0e 3c
       0.108874 0.347268 0.246087 0.0086719
000020 36 20 72 3f dc d7 95 bf 50 8c 10 bf 47 74 47 bf
       0.945804 -1.17065 -0.564641 -0.779118
000030 0a 4d d2 be 89 ee 35 3f 6f f1 64 3f 41 0b d1 be
       -0.410744 0.710671 0.894309 -0.408289
000040 bb 0f 0c c0 c2 12 83 3f c7 80 80 3f 6b ba ce 3e
       -2.18846 1.02401 1.00393 0.403766
000050 7a 19 c1 3f f4 f8 a5 bf 98 32 0c 3f 8d 5d 12 c0
       1.50859 -1.29666 0.547647 -2.28696
000060 de ff 47 bc 02 9b 9b be a7 74 a0 3f 8a 03 10 bf
       -0.012207 -0.303917 1.25356 -0.562554
000070 b1 f9 f8 bd 30 ba 30 3f 11 1a e1 bd 10 1f d8 3e
       -0.12157 0.690341 -0.109913 0.422112
000080 f9 2d ea be 3a 95 8c be 8f 6e 9c 3e 57 95 8d bf
       -0.457382 -0.274576 0.305531 -1.10612
000090 cf dc 67 3f bd fe 8c 3e dc 46 73 be 12 69 4b 3f
       0.905713 0.275381 -0.237575 0.794572
0000a0 9b c9 f3 bf f6 29 27 3e fb ca e3 3d 38 2d 84 3f
       -1.90459 0.163246 0.111227 1.03263
0000b0 39 ee c0 3f a1 81 a8 3e 2e 73 a6 3f 40 18 80 3e
       1.50727 0.329114 1.30039 0.250185
0000c0 15 91 e9 3f bf d2 b9 3e
       1.82474 0.362936

Operation_5_MatMul_W f4 [50, 50]
000000 74 b7 9b be c8 d3 f2 3d b4 aa 95 be aa 7e 55 3e
       -0.304134 0.118568 -0.292318 0.208491
000010 0e 32 c9 3e 4c 8e 7b be 50 8c 6c bf 40 13 c5 bf
       0.39296 -0.24566 -0.924016 -1.53965
000020 e9 29 92 be b7 09 cf be 66 a2 18 3e e4 bd ba 3e
       -0.285476 -0.404371 0.149057 0.36473
000030 ef c6 12 3e 82 40 82 3c 40 8a 15 3d bd ae 3a bd
       0.143337 0.0158999 0.0365088 -0.0455768
000040 ce ff 5b be 01 50 65 bd a2 46 a1 3e 56 49 78 bf
       -0.214843 -0.0559845 0.314992 -0.969869
000050 25 30 a9 bb e0 f2 44 3f 96 04 f0 be 80 f3 e2 bd
       -0.00516321 0.769331 -0.468785 -0.110816
000060 d7 c2 bc 3e 05 c3 29 be 6b 4a a2 3e 23 a0 aa 3e
       0.368674 -0.165783 0.316974 0.333253
000070 29 bd c5 bd 90 a0 18 3f 04 a9 00 3f 69 84 98 3d
       -0.0965522 0.5962 0.502579 0.0744713
000080 f3 cc ab be 95 7d cb bf 5b 0b 07 3f b3 d0 1e be
       -0.335548 -1.58977 0.527517 -0.155093
000090 0c 5a 18 3e a2 5d 3d 3f 21 ae e4 3e 64 93 3c 3e
       0.148781 0.73971 0.446641 0.184156
0000a0 d7 a2 05 3f ff b2 e3 3e 36 e5 16 bf d3 4f d0 be
       0.522016 0.444725 -0.589435 -0.406859
0000b0 ee 24 ba 3e fb ed 46 3c 0a 67 d7 3e 1d 03 82 3e
       0.363563 0.0121417 0.420708 0.25393
0000c0 15 fd 29 3f 50 54 fe be da 3b 93 3d c4 07 9e be
       0.664018 -0.496737 0.0718915 -0.308653
0000d0 86 20 27 be 3e 06 0b be 27 66 fd bd f0 19 0d 3f
       -0.16321 -0.135766 -0.12373 0.551177
0000e0 d0 b8 70 c0 f5 69 95 bc 7e 53 58 3e da 73 49 3e
       -3.76128 -0.018239 0.211256 0.196731
0000f0 7d e6 8c be f0 88 2a be 48 4e b6 be aa 71 20 bd
       -0.275196 -0.166538 -0.356066 -0.0391709
000100 25 1b 54 3d 45 f6 41 bd ce 6d 02 3e 04 57 79 3c
       0.0517837 -0.047354 0.127372 0.0152185
000110 a5 a4 13 3f 03 ec f3 3f ca 92 54 bd 6e 17 a6 bf
       0.576731 1.90564 -0.0518978 -1.29759
000120 cd cd 57 3f ec fa e5 bd 1a 30 c8 be e0 f2 c0 3e
       0.842984 -0.112295 -0.390992 0.376853
000130 8c bd 47 bf b5 a9 0a bf df f8 da 3d 62 a3 f4 3e
       -0.780236 -0.541652 0.10692 0.477809
000140 66 6c 88 3e 3f 1a 5e be 99 b9 a0 3e 64 5d 4c be
       0.266452 -0.216897 0.313916 -0.199575
000150 21 5b 1a 3f 65 2e 9a 3d 7d 5e a9 be 74 98 5f be
       0.602953 0.0752838 -0.330799 -0.218355
000160 d0 b9 d3 be 39 64 03 3e 4f 96 7a bf 98 fb 78 bf
       -0.413527 0.128312 -0.978856 -0.972589
000170 1c 5c fa 3d 4f 07 4a 3f 18 ee c4 3e ef f7 95 3c
       0.122246 0.789174 0.384629 0.0183067
000180 d9 a7 4d bd c9 55 0c bd 02 61 23 3f 29 eb d7 3d
       -0.0502089 -0.0342615 0.638199 0.105429
000190 07 f1 ac bd 2c 46 8d be 2e ff e1 bd 4d 85 f8 bd
       -0.0844441 -0.275926 -0.11035 -0.121348
0001a0 b8 5b d2 3d 71 49 84 3c f5 84 b5 3e 33 8d 0a 3f
       0.102714 0.0161483 0.35453 0.541217
0001b0 58 40 9c bd 97 72 6e be e5 1d c1 bd eb 1f 9f 3c
       -0.0762946 -0.232859 -0.0942953 0.0194244
0001c0 41 b8 e2 bd d1 e2 31 bc b4 76 83 be 29 cb 35 bd
       -0.110703 -0.0108573 -0.256765 -0.0443832
0001d0 3c 0e a8 3c a8 4f 37 bd c5 42 88 bd 26 e5 c6 be
       0.0205146 -0.0447537 -0.0665336 -0.388467
0001e0 98 4e 0b bd aa 10 3f be a5 4f fb 3e 10 5b 1a 3d
       -0.0340105 -0.186587 0.490842 0.0376845
0001f0 d7 29 b0 bd 76 65 3c bc 13 82 05 be 38 d7 20 3e
       -0.0860173 -0.0114988 -0.130379 0.157071
000200 ec 4e d7 bd 5c 3d 83 bf d2 44 9e bd 3e 5d fd bd
       -0.105131 -1.02531 -0.0772797 -0.123713
000210 f2 99 9c be 7d 06 84 be 6d fe a7 be d5 ba 43 bd
       -0.305862 -0.257862 -0.328113 -0.0477856
000220 43 37 8b be 09 c6 15 bf 98 34 a6 be 66 7d 94 bd
       -0.271906 -0.585053 -0.32462 -0.0725048
000230 2a bd a0 bd cf 89 18 3d 20 b6 44 3e 88 f6 31 be
       -0.0784858 0.0372408 0.192101 -0.173792
000240 1d e4 75 bd 78 f2 69 3c 84 81 cf be 1c bc 85 bd
       -0.060032 0.014279 -0.405285 -0.0653002
000250 b9 72 de be b9 1a 49 be 44 35 01 3f 12 a6 83 3c
       -0.434469 -0.196391 0.504719 0.0160704
000260 cc 7b 3c be e2 af 59 3e ce e0 a7 be cb 2e d8 3d
       -0.184066 0.212585 -0.327887 0.105558
000270 e6 96 f6 be 70 99 73 3f 15 8c 4a 3e 54 c4 d1 be
       -0.48162 0.95156 0.1978 -0.409701
000280 af 44 30 be ed 9b 1b be eb dc 79 bd 1b 1a 45 bd
       -0.172137 -0.151962 -0.0610017 -0.0481206
000290 11 1c 07 bf e5 d3 03 bd e8 71 8e 3c 8a 40 d0 bc
       -0.527772 -0.0321845 0.0173883 -0.0254214
0002a0 23 82 a9 be 43 58 f5 3e f9 ba 71 3d 25 eb a0 be
       -0.331071 0.479189 0.0590162 -0.314294
0002b0 87 f9 32 3e 23 84 cb bf e4 a3 65 be 4f b0 2f 3e
       0.17478 -1.58997 -0.224258 0.171571
0002c0 77 6a 3a 3f 7b f6 f4 3e 9a 26 38 3f 31 37 e9 bc
       0.728187 0.478443 0.719339 -0.0284687
0002d0 ec f7 ac 3e b7 d3 52 3f bb 2b eb 3e 5e f6 ab 3e
       0.337829 0.823543 0.459318 0.335864
0002e0 eb c8 99 be 3f 37 ac be 88 68 34 3f 7c 7b 9f 3e
       -0.300361 -0.336359 0.70472 0.311489
0002f0 6c eb 87 be 9a 5d 57 be 2c 9f 89 3f 29 07 93 be
       -0.265468 -0.210318 1.07517 -0.287164
000300 e7 6d fc be 40 db 42 3f 20 7f a9 3d 33 0f b5 bd
       -0.493026 0.761158 0.082762 -0.0884079
000310 10 5d 10 3f 0b 44 1f bf d7 6d c0 3e 5d 8c 79 3f
       0.56392 -0.622132 0.375838 0.974798
000320 be a2 fb bd e2 77 c3 be 97 1e 4d bc 5a 2e 3b 3e
       -0.122869 -0.381774 -0.0125195 0.182794
000330 24 a2 53 bd b2 f2 eb bd aa 3a c5 bd 58 6f 24 3e
       -0.0516683 -0.115209 -0.0963033 0.160581
000340 b5 6f ae 3e d4 29 07 bf a5 4a d4 3e 33 a7 eb bd
       0.340696 -0.527982 0.414632 -0.115065
000350 ce 17 5b 3e af c1 2c bd 27 f9 41 3e 35 65 78 ba
       0.213958 -0.0421769 0.189427 -0.000947553
000360 44 c3 22 3e d8 52 b4 3b 92 38 2f bb f8 16 06 3e
       0.158948 0.00550304 -0.00267366 0.130947
000370 6a 68 a3 3e 2a 8c 89 3f 6f 7f 7e 3e ee ce 7a 3e
       0.319156 1.07459 0.248533 0.24493
000380 84 b8 22 3e ab d0 40 3d ee 94 6e 3e 0a 11 00 bf
       0.158907 0.047074 0.23299 -0.50026
000390 a6 4f 41 bd 13 64 24 be 4a 0c aa be 69 54 90 3e
       -0.0471951 -0.160538 -0.332125 0.281894
0003a0 fd a3 97 be 8e b3 86 3b 5e 02 91 3d 07 eb 9f be
       -0.296173 0.00411076 0.0708053 -0.31234
0003b0 8a 1e 30 3f 0f 7c 1c 3e 70 5a a5 3d 47 63 c3 bd
       0.687966 0.152817 0.0807389 -0.0954042
0003c0 2d 99 23 be 07 0b c7 bd a3 73 6e 3e 26 00 97 be
       -0.159764 -0.097189 0.232863 -0.294923
0003d0 bc b1 60 3e 38 1e a2 3c f2 0b 17 3f 3f 3a 25 3e
       0.219428 0.0197898 0.590026 0.161355
0003e0 a2 b6 85 3e 68 22 cc be be a4 85 c0 15 70 4f 3e
       0.261159 -0.3987 -4.17636 0.202576
0003f0 b0 73 2b 3f 6d ff 4a 3e 81 95 bb 3e 68 5c 38 bf
       0.669734 0.19824 0.366375 -0.72016

Operation_5_Add_B f4 [50]
000000 80 81 10 3e 6f 62 a8 bd 28 99 f4 3e 88 4b 9e 3f
       0.141119 -0.082219 0.477731 1.23668
000010 ff cd 2f 3f 5e d7 2f c0 fd d9 27 c0 a5 31 e2 be
       0.686737 -2.74752 -2.62268 -0.441785
000020 3e 59 01 3f 35 5d 97 3e c3 f5 34 3f 3d 2c a0 3f
       0.505268 0.295633 0.706875 1.25135
000030 b0 8c 7d 3e e8 4a 04 bd dc b7 82 be 65 cd fe bc
       0.247607 -0.032298 -0.255309 -0.0311038
000040 9a 8a be bd d3 81 d1 bc 6c e0 58 3c f9 66 c7 bf
       -0.0930378 -0.0255746 0.0132371 -1.55783
000050 9f cd be 3f f5 9c d4 3f de c6 ae 3e 20 7f f1 be
       1.49065 1.66104 0.341361 -0.471673
000060 eb 54 7d 3f bf c7 4a bd 77 a1 cd 3f ee b2 df 3d
       0.989577 -0.0495069 1.60649 0.109228
000070 66 88 cb 3f e3 a5 c3 bf 38 10 ee bf bf 45 bf 3e
       1.5901 -1.5285 -1.85987 0.373579
000080 75 76 fa 3e 57 5b f5 3f 40 d9 bc 3f 8b a9 14 be
       0.489185 1.91685 1.47538 -0.145178
000090 e1 7f b3 bf 12 a3 8f be 7e 3a 9a 3f 13 7f 1c 3f
       -1.40234 -0.280541 1.20491 0.611314
0000a0 78 9c d2 bf 0f 0a 62 bf 73 47 1f 3d d9 b1 a1 be
       -1.6454 -0.882966 0.0388865 -0.31581
0000b0 6f d3 87 bf 62 c0 5e 3f bd 3a 47 bd e4 2f 29 3f
       -1.06114 0.870123 -0.04864 0.660887
0000c0 df 34 8d be 13 f4 57 be
       -0.275794 -0.210892

Operation_6_MatMul_W f4 [50, 50]
000000 33 db ba 3c 8f ab 2c 3d 6e 76 5a bc d1 e8 fe 3e
       0.0228096 0.0421558 -0.0133339 0.49787
000010 9a 83 b6 bd d4 82 d7 bd e4 30 78 be 69 39 60 be
       -0.0891182 -0.10523 -0.242374 -0.218969
000020 1c a8 be bb 2a fa 88 bd b1 5b 9a 3d c3 b6 29 c0
       -0.00581838 -0.0668834 0.0753702 -2.65178
000030 09 f3 a3 3d c7 35 b4 3d 47 e5 f6 be cd 92 80 3e
       0.0800534 0.0879932 -0.482218 0.25112
000040 7a a5 71 3d 7c c3 14 3c f3 8d 08 3e f8 aa a9 bf
       0.0589957 0.00907981 0.133354 -1.32553
000050 99 46 03 be 8b a5 08 3e ee 06 91 3c 9b 02 f9 bd
       -0.128199 0.133444 0.0177035 -0.121587
000060 fe 9d cd 3d 5d e0 02 be 1e a7 18 bf a5 6b 16 3e
       0.100399 -0.127809 -0.5963 0.146895
000070 59 46 b4 bc 3c 3c 17 bc 56 23 a0 bd bb 97 0b be
       -0.0220062 -0.00923067 -0.0781924 -0.136321
000080 17 80 26 3d 98 7c 1e 3c 68 42 13 be 7a 6d 96 3e
       0.0406495 0.00967326 -0.143808 0.293804
000090 ac e0 27 be b0 56 95 be b9 02 e5 bc af b3 d1 be
       -0.163943 -0.291677 -0.0279554 -0.409574
0000a0 66 f8 97 be ba 12 b1 be b5 89 67 bf a5 2e 19 be
       -0.296817 -0.345846 -0.904445 -0.149592
0000b0 50 89 4b bd 39 60 d7 3d 90 1c b4 bd 1b 9d f7 bb
       -0.0496915 0.105164 -0.0879451 -0.00755657
0000c0 63 f1 6b be 1e a9 de bd 7b b9 c4 bd 30 2e f5 bd
       -0.230413 -0.108721 -0.0960569 -0.119717
0000d0 a7 75 1b be 3a ea 1c bf 3f 8d 1b be f8 ff 09 3f
       -0.151816 -0.612949 -0.151906 0.539062
0000e0 5f 81 b3 bd 20 28 ef be 7a 1d d1 3d 2b 35 4b be
       -0.0876491 -0.467103 0.102107 -0.198445
0000f0 fd 66 32 be cd 8f 5b 3f 22 9c 20 bc 3f 8b 8d be
       -0.174221 0.857663 -0.00980285 -0.276453
000100 b2 f6 9f be 9a 5f f1 bf f9 4a 80 3e 81 b0 73 3e
       -0.312429 -1.88573 0.250572 0.237978
000110 d5 91 63 be d3 15 0c 3f b3 d2 b4 be 59 c3 21 bf
       -0.222236 0.547208 -0.35317 -0.631887
000120 3d ee f3 be ad 6b 54 be 06 98 3e bd 38 d5 1f 3d
       -0.476427 -0.207442 -0.0465317 0.0390217
000130 a7 08 00 3e 1d 03 ee bf df 17 67 be 82 4a a6 bc
       0.125033 -1.85947 -0.225677 -0.0202992
000140 f2 d1 1a bf 5d 50 ff bd 6b 2a a3 be fb 73 86 3d
       -0.604766 -0.124665 -0.318683 0.0656509
000150 75 78 78 bf 14 b2 37 3f cb 92 6a 3d 83 87 29 3e
       -0.970588 0.717561 0.0572689 0.165556
000160 00 53 76 be 30 b9 11 bf dd 98 7e 3e 6f 64 be be
       -0.240551 -0.569232 0.24863 -0.37186
000170 0d a7 28 3f 26 1e 00 be f6 d4 9a be f4 7b 91 bd
       0.658799 -0.125115 -0.302406 -0.0710372
000180 3f 00 83 c0 2a fb 53 3d 2c b2 82 bd 07 ce 81 bf
       -4.09378 0.0517532 -0.0638164 -1.0141
000190 e1 b7 61 3e 1b 5f e2 bb 17 62 75 bf 4a ec 2a 3e
       0.220428 -0.00690831 -0.958528 0.166917
0001a0 62 83 b5 be c3 8e f5 3c 97 8b b0 bf 9e 6d 84 bd
       -0.354518 0.0299753 -1.37926 -0.0646622
0001b0 1c 88 8b bd db 99 b3 3d c8 43 ff 3d dd 9b 1b 3c
       -0.0681307 0.0876958 0.124641 0.00949761
0001c0 21 3d e5 bd 55 a6 d0 3e 5d de 84 be 2e 70 59 3f
       -0.111933 0.407519 -0.259509 0.849368
0001d0 a0 52 25 3e 15 c8 89 3a e7 19 f3 be 3e e8 85 3f
       0.161448 0.00105119 -0.474807 1.04615
0001e0 af 25 a0 bf b7 b3 07 3f 88 81 1e bf 82 66 b1 bd
       -1.25115 0.530086 -0.619164 -0.0866213
0001f0 4a 45 2f 3f f2 00 a0 bd 67 fe 67 3d 83 13 01 be
       0.684651 -0.0781268 0.0566391 -0.126051
000200 44 de b2 3d ec e8 0e bd ac 1c e2 bf b9 00 f4 bd
       0.087338 -0.0348901 -1.7665 -0.119142
000210 0b cf 63 3f af 98 89 3e 70 77 6a bf 19 ad 83 3f
       0.889878 0.268743 -0.915885 1.02872
000220 6d c7 d4 bc 5f d1 15 3f 16 a1 78 3e 0f 5e 0b bf
       -0.025974 0.585226 0.242802 -0.544404
000230 58 1a e8 3e 7e 45 4d 3d 4e 7a 1d c0 2d 05 84 be
       0.453326 0.0501151 -2.46059 -0.257852
000240 c8 dd 77 bb 5e 65 bd 3e b0 ca e5 3d 63 ef 25 be
       -0.00378214 0.369914 0.112203 -0.162046
000250 99 1d 73 bc 4f 5d a5 3f f7 b0 37 3e 78 00 c5 bd
       -0.0148386 1.29191 0.179386 -0.0961923
000260 43 e6 3a 3e 1c b4 b7 3e f7 8b 3e bd bb d3 3d be
       0.182519 0.358796 -0.0465202 -0.185378
000270 7e 83 00 3d a6 29 42 3e d4 d3 8f 3e c6 c1 05 be
       0.0313754 0.189612 0.280913 -0.130622
000280 64 dd 49 3d 48 01 9d 3d d0 0a 10 3f 94 1d 56 3d
       0.0492834 0.0766626 0.562665 0.0522743
000290 0d 70 f1 be 45 c1 47 3d 8e 14 1b 3d 6b 0d 19 3f
       -0.471558 0.0487683 0.0378614 0.597861
0002a0 82 c9 cd 3d 19 84 83 3d 3a 96 27 be 57 43 8a 3e
       0.100482 0.0642168 -0.163659 0.270045
0002b0 76 6e 5a 3c 62 4c b2 3e 32 c6 d7 be 2e fe 66 3e
       0.013332 0.348239 -0.421434 0.225579
0002c0 41 7f 89 3e ea ea ae 3d 4a 96 ab 3e 7e 9e 50 bc
       0.268549 0.085409 0.335131 -0.0127331
0002d0 f6 62 a8 3c 89 c8 95 bc 20 95 c7 3d d1 b0 a0 3e
       0.020555 -0.0182841 0.0974524 0.313849
0002e0 2d 7f 19 3d b1 2b 32 bd 17 a1 b3 3d 69 4e 22 bc
       0.0374748 -0.0434987 0.0877096 -0.00990639
0002f0 e8 0e 47 3d 4c e2 2c 3e 96 09 af be ab 96 00 3f
       0.0485982 0.168832 -0.34187 0.502299
000300 7e 73 9f 3e ea 4b 25 3c 9e eb 2b 3e 5d 04 fc 3c
       0.311428 0.0100889 0.167891 0.0307638
000310 30 35 18 3d fc cb 09 bd db 04 6e bd e9 d1 f4 bd
       0.0371601 -0.0336418 -0.0581101 -0.119541
000320 62 a0 eb 3d 8d 24 01 3e 0b 7b 2a be 81 98 04 bf
       0.115052 0.126116 -0.166485 -0.517952
000330 27 cf 66 bd 5e 86 3a bd d1 3f 51 bf aa 0f 94 3e
       -0.0563499 -0.0455383 -0.81738 0.289182
000340 1d c0 8c bd 39 61 22 3e 92 e8 35 3e 0d aa d5 be
       -0.0687258 0.158574 0.177645 -0.417313
000350 c9 3a fc 3d ac 89 ea 3c ee 00 84 3d dc 46 8b bf
       0.123159 0.0286301 0.0644549 -1.0881
000360 f2 1c c6 bd 64 59 40 3e fe d3 2d 3e 91 81 bc be
       -0.0967349 0.187841 0.169754 -0.368176
000370 5a 62 0a bd ed 1c c9 3d 35 79 aa 3e 1c ca 14 bc
       -0.0337852 0.0981997 0.332956 -0.00908139
000380 26 8e 48 bf 42 94 2f 3e d8 b8 e6 3e 53 7a 06 bf
       -0.783419 0.171464 0.450629 -0.525304
000390 48 f9 59 3e 30 d6 37 bd 4c 52 c1 be 0d 11 3c 3d
       0.212865 -0.044882 -0.377581 0.0459147
0003a0 66 ca 5d bd 12 a5 fd 3d fd 12 65 bf 3a 3b 9d 3f
       -0.0541481 0.12385 -0.894821 1.22837
0003b0 fc e3 3d 3e 04 fb d4 3c e9 43 3c 3d 34 48 41 bc
       0.18544 0.0259986 0.0459632 -0.011797
0003c0 c4 ce a0 bf a4 89 f7 3d 82 1b 09 3e 14 5c ec 3d
       -1.25631 0.120868 0.133894 0.11541
0003d0 83 c0 16 bf 61 1c a7 bd a0 e2 18 bf 21 58 55 be
       -0.588875 -0.0815971 -0.597208 -0.208344
0003e0 a7 3e 10 be e8 2d ae bd d5 72 2c 3d 57 22 90 3c
       -0.140864 -0.0850485 0.0421017 0.0175945
0003f0 04 b3 ad 3d f7 e9 e0 3e 2c 2b 4d 3d a0 36 4a bd
       0.0848141 0.439285 0.05009 -0.0493685

Operation_6_Add_B f4 [50]
000000 ab 37 6f 3d ca 21 1a bc 00 c6 07 c0 30 af 4d 3d
       0.0584027 -0.00940747 -2.12146 0.0502159
000010 e4 84 81 3e f5 a1 eb 3e 67 21 cb bd 05 fc ca be
       0.252967 0.46022 -0.0991848 -0.396454
000020 9f e9 95 be 07 95 f8 3d a0 38 10 be 4a e6 fd 3c
       -0.292798 0.121378 -0.140841 0.0309936
000030 c0 76 08 bf 38 f9 4d 3e cb 11 d2 3d fd 4f fe 3e
       -0.533062 0.201146 0.102573 0.496704
000040 3b 72 2c bf b8 06 aa bf 9b 57 bd be be a3 c6 be
       -0.673618 -1.32833 -0.369809 -0.387968
000050 ea 3f 77 3f e5 f0 69 bf 99 d5 b3 be 37 e4 9a bd
       0.965819 -0.913832 -0.351239 -0.0756306
000060 d8 f2 6a bf 88 01 91 bd d4 b9 4e bf 4b 74 26 3e
       -0.917768 -0.0708037 -0.807523 0.162553
000070 73 4c d6 be 73 8e b0 bc 56 c5 8a bc 9a b0 e5 be
       -0.418552 -0.0215523 -0.0169398 -0.448613
000080 f2 ea b0 bf 90 aa c1 bd a3 e2 04 bd b3 41 ea bf
       -1.38217 -0.0945636 -0.0324427 -1.83013
000090 0c 74 1d bf 0f d0 0d 3f 32 e8 44 be d3 de c8 3e
       -0.615052 0.553956 -0.192292 0.392325
0000a0 92 3e 45 bf e4 83 0e be 2f 75 86 3c 27 dd 66 3e
       -0.770486 -0.139175 0.0164133 0.225453
0000b0 82 72 f3 be ac 30 c7 3c 91 cf 50 bc b2 2a c2 3d
       -0.475483 0.0243152 -0.0127448 0.094808
0000c0 8f df 5b 3e 92 07 8a 3e
       0.21472 0.269589
