resources/onnx/acasxu/ACASXU_experimental_v2a_5_7.onnx (onnx, 55889 bytes, 15 tensors)

input_AvgImg f4 [1, 1, 1, 5]
000000 00 00 00 00 00 00 00 00 00 00 00 00 00 00 00 00
       0.0 0.0 0.0 0.0
000010 00 00 00 00
       0.0

Operation_1_MatMul_W f4 [5, 50]
000000 7e 4c f5 bc a4 9c 39 3d 5f 7f 42 be 2b 3c 1e bd
       -0.0299437 0.0453154 -0.189939 -0.0386316
000010 5c 03 f8 ba 6f f1 40 3e 01 f2 eb ba 7b a1 60 3e
       -0.00189219 0.188421 -0.00180012 0.219366
000020 3d e3 0e bc ff 15 23 3d 36 20 42 3e f7 7d a3 3d
       -0.00872117 0.0398159 0.189576 0.0798301
000030 86 3d 0f c0 d0 0e d8 3d 59 b8 51 3c 57 b3 4e 3b
       -2.23813 0.105497 0.0128003 0.003154
000040 39 e1 af bd b6 09 9c 3c 7c 62 59 3f fa 17 17 3d
       -0.0858788 0.0190476 0.849159 0.0368881
000050 38 26 30 3c 19 ca 89 3d 83 15 57 3e 94 bc fa bd
       0.0107513 0.06728 0.210043 -0.12243
000060 75 94 53 3e f1 1e 16 3d 5f f2 da 3c dd fd 3b bc
       0.206621 0.0366506 0.0267269 -0.0114741
000070 2f de 6f 3d 3b d5 ab 3c f9 82 d6 3d db 4c 0a bd
       0.0585615 0.0209757 0.104742 -0.0337647
000080 ed 81 8e be a1 f5 b8 3e 5a f9 90 3d 9b 36 59 ba
       -0.278335 0.361249 0.0707881 -0.000828603
000090 9b c8 4c bc 3b 54 13 be bb 99 61 be 27 83 48 3d
       -0.012499 -0.143876 -0.220313 0.0489532
0000a0 64 3b bf 3e dd c9 0c 3d 7c c6 0f bc 97 3c 3e be
       0.3735 0.0343722 -0.00877535 -0.185778
0000b0 93 c9 19 be d7 67 7e 3e 97 0e 6c 3d 99 66 2a 3e
       -0.150183 0.248443 0.0576311 0.166407
0000c0 98 4c f1 3f 14 e2 bb 3d 36 3c 41 bf 29 d0 9f 3f
       1.88515 0.0917398 -0.754825 1.24854
0000d0 81 43 80 3f f4 36 1a 3f ae f0 ca bf 22 4f 82 3f
       1.00206 0.602401 -1.58547 1.01804
0000e0 23 5b 27 3c 67 7f 88 be 16 18 f2 3f f7 e4 85 bf
       0.0102146 -0.266597 1.89136 -1.04605
0000f0 d4 60 7a bf b0 1b 96 bf 7a db 51 bd 60 3b 44 3f
       -0.97804 -1.17272 -0.0512347 0.766531
000100 b5 c0 3e 3f 39 04 b3 bc ec a2 34 3f cd cb 61 3c
       0.745128 -0.0218526 0.705611 0.0137815
000110 31 03 aa bd cd ce 31 ba 37 dd aa 3e 33 c1 f0 3d
       -0.0830139 -0.000678283 0.333719 0.117556
000120 8f 36 2e bf 0f b4 ba bf 94 f6 b2 bf 12 f9 76 3f
       -0.68052 -1.45862 -1.39815 0.964738
000130 d2 51 7e 3f 4b 78 c2 be 27 da 95 3d d8 f1 57 3f
       0.993436 -0.379824 0.07317 0.843534
000140 7b f7 8f bf 5b 7a 2c 3f 01 a3 e3 3e e2 23 8e 3f
       -1.12474 0.673742 0.444603 1.11047
000150 71 7e c9 bd a6 ef 15 3e 6d 63 b2 3d e3 8a 13 bf
       -0.0983857 0.146422 0.0871037 -0.576338
000160 cc 97 b7 bf 4b 72 60 bd ef 6f a0 3e ab cf 81 3f
       -1.43432 -0.0547965 0.313354 1.01415
000170 7d 96 bf bf 57 3e c7 bf 0e 4c 2e bf 33 c5 24 bf
       -1.49678 -1.55659 -0.680848 -0.643634
000180 a8 56 37 bf 12 bd 9c 3f 98 d2 e1 ba 93 1d ff 3f
       -0.716166 1.22452 -0.00172289 1.99309
000190 dd 0c ef bf b3 ef a2 3f 0b 29 87 bf 82 1f 11 bf
       -1.86758 1.27294 -1.05594 -0.566887
0001a0 b8 75 77 bd 74 96 69 bf 47 93 8b 3c 65 86 82 bd
       -0.060415 -0.912452 0.017038 -0.0637329
0001b0 16 2f 0a 3f 90 66 98 3f dc b8 49 3f 66 86 59 bf
       0.539781 1.19063 0.787977 -0.849707
0001c0 8f 2a a4 bd 58 1c 92 bf 64 04 8c 3e a5 8b a8 ba
       -0.0801593 -1.14149 0.273471 -0.0012859
0001d0 fb e8 54 bf fb e8 34 c0 e9 13 94 3c 0f ed 63 bc
       -0.83168 -2.82672 0.0180759 -0.0139115
0001e0 10 eb c5 be 58 29 b3 3c 5e f4 19 3f 67 0f d4 3f
       -0.386559 0.0218703 0.601385 1.65672
0001f0 61 36 09 bf 18 43 b1 bf 8e e9 95 bf 25 96 40 bf
       -0.535986 -1.38486 -1.17119 -0.752291
000200 17 83 e7 bd 55 d9 83 bf 7d 94 31 3f d5 d0 16 3e
       -0.113043 -1.03007 0.693672 0.147281
000210 9d 2e 8b 3c 92 ca 14 3d ae 64 af 3f eb 73 2d bf
       0.01699 0.036326 1.37026 -0.67755
000220 01 16 81 3e d7 b3 31 bd c3 f0 c9 3f dc da 7d 3d
       0.252121 -0.0433844 1.57766 0.0619763
000230 7c 99 c0 be 57 04 9f bf 7f f6 97 3f 0b 5e ac 3f
       -0.376171 -1.24232 1.18721 1.34662
000240 d8 7f 19 3f fd 00 5a bc 15 bc 32 3c 89 83 9d bb
       0.599607 -0.0133059 0.0109091 -0.00480694
000250 fd 83 0a 3b 02 f2 05 3e 73 0e 1e be 10 93 58 3f
       0.00211358 0.130806 -0.154352 0.845994
000260 8e 8e 30 3d a7 9e bb 3d 5f 43 80 3e b8 23 94 3e
       0.0431047 0.0916112 0.250514 0.289335
000270 57 39 1b bb ea 21 82 be d5 88 8a 3d 21 91 b6 be
       -0.00236853 -0.254165 0.0676438 -0.356576
000280 ae db 7b bc 52 7f 11 3f 55 fe b0 3d 64 24 db 3d
       -0.0153722 0.568349 0.0864226 0.107003
000290 7b bc 98 be 63 1c ad 3c 8c 4f bc bd c1 a8 34 3e
       -0.298313 0.0211317 -0.0919486 0.176425
0002a0 da 29 ac 3d fc 37 ef bd 23 f9 a2 be 4d e9 aa bc
       0.0840642 -0.116806 -0.318307 -0.0208632
0002b0 51 82 1e 3e 84 9c 77 be 71 7e 39 3d be e0 ae 3c
       0.154794 -0.241808 0.0452866 0.0213474
0002c0 88 b8 49 be cd 01 32 bf 29 96 37 3f 05 31 f0 bd
       -0.196993 -0.69534 0.717135 -0.117281
0002d0 f9 87 3d 3e a8 fd c6 3d 36 e5 da bf 43 59 88 3d
       0.185089 0.0971635 -1.71012 0.0665765
0002e0 8c 65 b2 3e 1d 38 57 3e 4e 28 b8 bf 87 a2 10 3e
       0.348431 0.210175 -1.43873 0.141245
0002f0 bf 9e c7 be 4a 99 04 3e 89 3e 94 bd 98 a7 8e bd
       -0.389883 0.129491 -0.0723849 -0.0696556
000300 81 b4 87 3e ac bb 93 3d 6d 6f 67 3e 1c 3c a8 3d
       0.265049 0.0721353 0.226011 0.0821459
000310 5b 24 4d 3e 9c c3 19 3f 13 80 c1 bb 8b a4 d5 3e
       0.200334 0.600641 -0.00590516 0.417271
000320 da ad b5 3e af 5f b0 bc dc 46 a3 be de 8d 45 be
       0.354842 -0.02153 -0.3189 -0.192924
000330 d6 ac ab be a9 bc 9d be 11 3c 99 3b 28 47 31 be
       -0.335303 -0.30808 0.00467635 -0.173123
000340 59 d5 a7 bd 1f 80 d4 3e 6b f4 aa 3d fe 61 93 be
       -0.0819499 0.41504 0.083474 -0.287857
000350 a3 04 0d be 48 19 d1 bd 63 7c d8 3d 9b f4 8c 3b
       -0.137713 -0.102099 0.105706 0.00430162
000360 fb 5a af 3e 98 ac 40 bd 7e c5 9a bd f7 1e ce bf
       0.342491 -0.0470396 -0.075572 -1.61032
000370 be f6 b4 3e d0 b5 37 3f b4 60 bd bb f8 34 df 3e
       0.353445 0.717618 -0.00577935 0.435951
000380 9b 76 21 be a8 ff c4 be fe d7 a9 3e 7d 5d 36 3f
       -0.157679 -0.384763 0.331726 0.712364
000390 48 a5 c0 be 7c d2 a1 3e 47 c6 c2 be 99 d6 e6 3d
       -0.376261 0.316059 -0.380419 0.112714
0003a0 11 fc ff 3f 9f 3e 22 bf a6 0a c6 be 37 1c be be
       1.99988 -0.633768 -0.3868 -0.371309
0003b0 17 b9 8f 3e 95 1f b2 3d 50 fb 35 3f 4b 5a 79 bf
       0.280709 0.0869743 0.710866 -0.974034
0003c0 20 cf 2e 3e 93 a9 e2 3e 16 51 23 be eb 38 e6 be
       0.170712 0.4427 -0.159489 -0.449653
0003d0 8f fc 71 be 3c a3 c5 be 73 47 a7 be 5e 67 33 bf
       -0.236315 -0.386011 -0.326717 -0.700796
0003e0 f1 57 e2 38 db 50 c9 be
       0.000107929 -0.393195

Operation_1_Add_B f4 [50]
000000 23 cb d3 3c 86 58 1d be a7 2d c4 bd 34 0f a0 3c
       0.0258537 -0.153658 -0.0957902 0.0195385
000010 73 85 06 ba 9c 6c 83 be 2a 98 a7 bc 65 5a 76 3c
       -0.000513158 -0.256688 -0.0204583 0.0150362
000020 7b be 46 be 10 20 23 bf a8 3a cc be 98 c4 b4 3b
       -0.194086 -0.637208 -0.398885 0.0055166
000030 99 83 60 be 68 40 a5 be 37 fe 44 3e b4 14 da bc
       -0.219252 -0.322757 0.192376 -0.0266212
000040 07 26 17 be 3d 29 23 3e f2 23 be 3e 11 70 2c bf
       -0.147606 0.159337 0.371368 -0.673585
000050 47 db 82 3d 0e 4b 13 be 5c e4 7e be b5 8d 17 bf
       0.0638948 -0.143841 -0.248918 -0.592006
000060 bb b7 02 3e 0d c1 81 be 50 6f 16 bf 2e 39 ee 3c
       0.127654 -0.253426 -0.587636 0.02908
000070 33 16 95 3e 60 e7 d6 be 71 1b 1d be 59 89 f9 3d
       0.291185 -0.419734 -0.153425 0.121844
000080 26 1d 9d 3e 25 90 92 be 6e fc a9 3d bb 2a 80 3d
       0.306863 -0.286256 0.083001 0.0625815
000090 21 06 d2 be fe d6 a9 3d 90 c1 ba be e7 53 57 be
       -0.410203 0.0829296 -0.364758 -0.210281
0000a0 32 c6 a7 3d 43 01 c3 be 65 8b bc be 8c 45 78 bd
       0.081921 -0.380869 -0.368251 -0.0606132
0000b0 1d 71 a8 3d 8a 1e 28 be f7 00 dd bd cf bc 8c be
       0.082247 -0.164179 -0.107912 -0.274878
0000c0 08 3b 05 3f 23 e5 dd 3c
       0.520432 0.0270868

Operation_2_MatMul_W f4 [50, 50]
000000 a4 8d 2b 3f 25 91 7d be 95 d7 5a 3e 90 4b 0c 3e
       0.67013 -0.247624 0.213713 0.137007
000010 34 12 63 3b 59 13 b0 bc 80 85 47 bd c9 b0 d2 3e
       0.00346483 -0.0214936 -0.0487113 0.411505
000020 08 6c f7 bb 22 23 56 bd 50 c8 49 bd b4 e3 6e 3f
       -0.00755072 -0.0522796 -0.0492633 0.933162
000030 3a 40 a4 3f 94 34 3f 3d 30 f5 8b be d8 b7 43 3e
       1.28321 0.046681 -0.273355 0.191131
000040 3f 04 f2 b9 48 49 b4 bd c3 f5 1c 3f 34 16 28 bc
       -0.00046161 -0.0880304 0.613125 -0.0102592
000050 14 21 95 bd 33 03 b0 3c c7 09 58 3d 17 d8 5f bf
       -0.072817 0.0214859 0.0527437 -0.874391
000060 35 7e 11 be 18 25 48 bf 47 72 f1 bf 66 88 57 bf
       -0.142083 -0.781816 -1.8863 -0.841925
000070 9c 17 e7 3c f8 fb 85 be 37 c3 95 3f 85 8a fb bc
       0.0282095 -0.261688 1.17002 -0.0307057
000080 28 f0 e6 3e ad f7 83 be fa 3c 8b bd 3b 37 45 3f
       0.451051 -0.257749 -0.0679874 0.770374
000090 2a 02 9c 3e 4e 7e e3 3e 16 84 d2 be 70 77 96 3f
       0.304704 0.444323 -0.411164 1.17552
0000a0 e8 6a cb bd e7 50 8e 3e b2 be a1 bd 1a b9 a8 bd
       -0.099325 0.277961 -0.078977 -0.0823843
0000b0 f6 7e 03 3e ef 8d 11 3f ed 9d 31 bd 61 c3 73 be
       0.128414 0.568572 -0.0433635 -0.23805
0000c0 c2 e2 2b bd c1 4a bf bd bf 54 1d 3d 39 7f 23 3e
       -0.0419643 -0.0934043 0.0384109 0.159665
0000d0 b8 e5 e3 3d ea ea de be b4 97 48 bd 27 a9 07 bd
       0.111278 -0.435386 -0.0489728 -0.0331203
0000e0 70 b7 5f bd 13 0a f9 3e 6b 2d 8c 3c 12 bf a2 bc
       -0.0546183 0.486405 0.0171115 -0.0198665
0000f0 44 ad 44 bd 57 97 43 3e 64 58 9d 3f 7a 6f 94 3e
       -0.0480168 0.191007 1.22926 0.289913
000100 98 a1 01 3e 8b 58 8f 3d bb 36 25 3d 53 d1 d4 bb
       0.126593 0.0699931 0.0403354 -0.00649468
000110 0d e0 1d 3e e0 8b a5 bd a0 6c 82 3e b0 28 9b bc
       0.154175 -0.0808332 0.254735 -0.0189403
000120 19 be 8f 3c 70 ce a8 3f 05 f2 b6 3c 87 6e de 3e
       0.0175467 1.3188 0.0223322 0.434437
000130 8e 01 19 be 40 d9 90 bf 03 26 70 bc 39 5e 21 3e
       -0.14942 -1.13163 -0.0146575 0.157586
000140 03 08 02 bb 88 2e e8 bc 48 6c 77 be 1a 94 fe 3b
       -0.00198412 -0.0283425 -0.241624 0.00776912
000150 cb 12 85 3e 55 bd 5c be 58 c9 07 3e 04 e6 61 3f
       0.259909 -0.215566 0.132604 0.882416
000160 d3 7f bb 3c 84 66 6f 3f 82 8f a1 3e f0 4c 48 be
       0.0228881 0.935158 0.315548 -0.195606
000170 9d f3 33 3e d6 ff 79 3e 5e 52 0b bd 36 1e 2c bf
       0.175734 0.24414 -0.0340141 -0.672336
000180 2e 88 8d 3d 9f 57 3c 3e 4f 40 33 3e 3f fe 62 be
       0.0691074 0.183928 0.17505 -0.221673
000190 4b 8f 7e bf 82 73 5e 3f 73 2e 99 3f c3 81 b0 bf
       -0.994374 0.86895 1.19673 -1.37896
0001a0 bb 9d 58 bc 02 8c 9d bc 42 8a 0b bd c2 18 41 be
       -0.0132212 -0.0192318 -0.0340674 -0.188571
0001b0 63 46 28 3e eb 8b 44 3e 28 a4 2b bd cb 10 0f c0
       0.164331 0.19194 -0.0419046 -2.2354
0001c0 71 1b 05 c0 25 3b 4a 3f cd ab c2 3e a3 3e 91 be
       -2.0798 0.789965 0.380217 -0.283681
0001d0 ad d6 6e bd 07 62 c9 3e c2 fc 75 be ec 51 f4 bf
       -0.0583102 0.393326 -0.240222 -1.90875
0001e0 fc 1d 02 3f 75 52 44 bd 2a 82 49 bd 50 c6 b8 be
       0.50827 -0.0479302 -0.0491964 -0.360888
0001f0 e6 c1 e7 bc 29 cf ac be ae 47 bd bf 5b 13 41 bc
       -0.0282907 -0.337518 -1.47875 -0.0117844
000200 fe 81 f2 bc c0 5d 8e be ef 72 3f c0 8e 1b a3 bc
       -0.029603 -0.278059 -2.99139 -0.0199106
000210 38 13 57 3f fb e9 0b 3f 59 36 8b 3e 63 97 e0 bf
       0.840137 0.546539 0.271899 -1.75462
000220 68 ce 52 bf e2 23 82 3e 2c 55 d8 3b 17 63 5c bf
       -0.823462 0.25418 0.00660195 -0.860887
000230 23 da 76 3f 83 2f 12 c0 6d aa 4e be 2a 37 31 3f
       0.964266 -2.28415 -0.201822 0.692248
000240 0c 75 a8 3e f5 30 74 3f 3c 66 b8 3e cd 3a 63 3f
       0.329018 0.953872 0.360155 0.887616
000250 84 67 e2 bd 7e 8c 39 3e 4d 65 39 bf c5 e2 d7 3e
       -0.110549 0.1812 -0.724202 0.421652
000260 a8 e0 a8 3e 54 1d 20 c0 05 83 80 bd a1 c0 79 bb
       0.329839 -2.50179 -0.0627499 -0.00381092
000270 86 34 0f bc bb 0b 10 3f 26 e0 57 bc e9 47 13 3f
       -0.00874055 0.562679 -0.013176 0.575316
000280 3b 2e 74 bc ab 5b 9d bf a4 fc d8 bf 29 d0 13 3f
       -0.0149036 -1.22936 -1.69521 0.577395
000290 b6 84 80 3f 82 2d 20 3d 6a dd 23 ba 7c 0f 27 3e
       1.00405 0.0391059 -0.000625095 0.163145
0002a0 62 1b 47 3d d1 cb 40 c0 80 33 cc 3d dd cf 49 bd
       0.0486101 -3.01244 0.0997076 -0.0492705
0002b0 26 45 75 bd f8 34 53 3f 48 88 c2 bd d0 61 d6 3e
       -0.0598804 0.825027 -0.0949865 0.418715
0002c0 79 01 f6 be 01 14 33 3e e4 ac be 3c 9b 58 50 be
       -0.48048 0.174881 0.0232758 -0.203463
0002d0 a7 e8 bc bf 6c f0 99 3c b9 55 6c 3f 2f 8a 5e 3e
       -1.47585 0.0187914 0.923183 0.217324
0002e0 25 ad 4c bf ce a5 1e c0 2d b2 3d 3e 9c fd c1 be
       -0.799517 -2.47887 0.18525 -0.378888
0002f0 c1 a8 44 3e 9a eb 58 c0 cd 59 63 3f 78 0a 51 bf
       0.19205 -3.38938 0.888089 -0.816566
000300 6a de fd bf 3a 23 1e 3f 2b fb 1a bf 82 8d 2b 3f
       -1.98335 0.617725 -0.605395 0.670128
000310 41 63 f6 3e ac 85 7e bd e7 6f b6 bf fc 8b e8 3e
       0.481226 -0.0621392 -1.42529 0.454193
000320 3f c9 2d 3f d0 b8 16 c0 01 19 4a 3f 2f c0 8e 3f
       0.678852 -2.35503 0.789444 1.11524
000330 55 b1 27 bd 1e 21 5e bd a5 2f 84 bc 08 02 a4 be
       -0.0409406 -0.0542308 -0.016136 -0.320328
000340 f4 40 9a 3d ca 35 95 bd f3 7d 87 bd 30 f0 b0 bf
       0.0753192 -0.0728565 -0.0661582 -1.38233
000350 cf 2d a4 3e 4d d7 4f 3f af e9 41 be 99 2c ce 3e
       0.320662 0.811879 -0.189368 0.402684
000360 ec 7b 9e 3c ad 68 1b 3f ff 47 9c bc 42 60 91 3f
       0.0193462 0.607066 -0.0190773 1.13575
000370 ea 78 dc bf 9f 93 9d b7 a5 77 9e 3b 12 c2 9b 3f
       -1.72244 -1.87846e-05 0.00483604 1.21686
000380 15 fe cc be ff b0 a5 bc da 1b db 3b f2 b5 d7 3e
       -0.400376 -0.020226 0.00668667 0.42131
000390 b8 f9 d0 bc 9c dc 0f bf a7 ff 0f bc 06 d7 5c bd
       -0.0255097 -0.56196 -0.00878898 -0.053916
0003a0 41 45 09 3f 92 ca a4 be b1 c2 1d be df 37 00 40
       0.536213 -0.321858 -0.154063 2.00341
0003b0 5b 78 5e bf 6d 73 2d c0 82 3b a8 be 81 59 59 bf
       -0.869024 -2.71017 -0.328579 -0.849022
0003c0 11 4b 8f 3d 51 2d 72 3f b2 bb e8 be 28 df a2 bd
       0.0699674 0.946004 -0.454557 -0.0795272
0003d0 c5 58 06 3f 15 02 11 3f c8 43 03 3f 53 05 df bf
       0.524792 0.566438 0.512753 -1.74235
0003e0 a5 14 88 bf 8d 28 a5 3e 86 24 be bd 09 dd 49 3f
       -1.06313 0.322575 -0.0928431 0.788529
0003f0 cf 65 5a bf 47 d7 96 bc ff cd 8b bc e4 1c eb 3c
       -0.853116 -0.0184132 -0.017066 0.0287003

Operation_2_Add_B f4 [50]
000000 53 05 e3 3d 05 36 e7 bd d3 f4 15 bf 22 39 49 be
       0.11085 -0.112896 -0.585767 -0.196507
000010 70 6c 87 bc 29 a3 20 bd 48 2f 8f bc 4f 58 c6 bf
       -0.0165312 -0.0392181 -0.0174786 -1.54957
000020 a6 d3 0a 3e 09 fe 8f 3f 5d 6d 85 bc 41 f1 a7 3f
       0.135573 1.12494 -0.0162875 1.31205
000030 df a6 e7 3f 01 4f 62 bf fb 92 95 3e 7b 4c 54 be
       1.80978 -0.884018 0.292137 -0.207323
000040 f5 1a 71 bc c9 59 78 3e 8d 7c a6 3e 3c dd f1 3e
       -0.0147159 0.24253 0.325169 0.472391
000050 93 ff 4d 3f 54 98 6f bb 66 b8 06 bd 67 98 9a 3e
       0.804681 -0.00365593 -0.0328907 0.301944
000060 d8 11 67 3f f6 96 42 3e 05 5f 42 bd e5 9b 95 bf
       0.902616 0.190029 -0.0474539 -1.16882
000070 f9 ac 00 bc a3 d5 5f bd c0 92 9b 3e 7c e8 27 bc
       -0.00785374 -0.0546471 0.303854 -0.0102483
000080 bc 5c 24 be 3a 41 56 3d b4 5b a3 be 08 72 f0 3e
       -0.16051 0.0523083 -0.319059 0.46962
000090 80 2a 8e 3e e5 45 5e bf 14 08 93 3e 41 2b 9c 3f
       0.277668 -0.868254 0.287171 1.22007
0000a0 61 96 cc bd c3 b8 57 3f e3 8d b4 3f f9 0c 6d bd
       -0.0998962 0.842663 1.41058 -0.0578737
0000b0 aa 62 e2 be 58 ad b0 bf 3c d9 11 bf 4d 30 fc 3d
       -0.442159 -1.38029 -0.569721 0.123139
0000c0 8e ae 22 3f ba 85 3e 3e
       0.635476 0.186057

Operation_3_MatMul_W f4 [50, 50]
000000 d7 4c 82 bf ae 82 70 bf a4 52 30 3f 84 d4 05 bf
       -1.01797 -0.939494 0.688761 -0.522774
000010 53 96 ad 3f 28 49 52 bd 2d 41 5a 3f 1d 3d 86 3f
       1.35615 -0.0513393 0.852557 1.04874
000020 c2 2f f5 3c 20 7b 5d 3e ac ca 9a 3f 0b 0c a5 bf
       0.02993 0.21629 1.20931 -1.28943
000030 c8 0c 64 3e da e1 6f c0 47 ae 1f bf 7b a3 36 bd
       0.222705 -3.74816 -0.623753 -0.0445895
000040 68 3d e4 3e 19 e1 72 3d a9 6a 9a 3f 1c 26 1a 3e
       0.445781 0.0592967 1.20638 0.150536
000050 e7 f3 5b bd e4 bd 36 40 bb 9b eb 3f 3d 2c b4 bf
       -0.0536994 2.85534 1.84069 -1.4076
000060 f2 98 85 3f b3 06 4b bf 41 bc aa 3f 3b 53 80 bf
       1.04373 -0.793071 1.33387 -1.00254
000070 f8 ff 4d 3f d5 5a 1c bf b9 fc 23 bf 69 71 b6 3e
       0.804687 -0.610761 -0.640575 0.356334
000080 a2 b7 28 be 1d 0b 80 3c dc 49 cc 3e c6 a4 a7 3e
       -0.164763 0.0156303 0.399001 0.327429
000090 c1 1e 4f 3f 79 92 c4 bf ac 8b a3 3e 59 15 3d bf
       0.809063 -1.53572 0.319425 -0.738607
0000a0 94 ff 24 bd e8 10 3d bd b0 4e 5a bd fe d5 93 3e
       -0.0402828 -0.0461587 -0.0532977 0.288742
0000b0 f6 45 28 40 db c4 f9 3f 59 69 a6 3f f6 ee 8b 3f
       2.62927 1.95132 1.30009 1.09323
0000c0 2f fa 82 3f 1c b1 a2 bf 73 9d 2e 3f 8d 90 9b bd
       1.02326 -1.27103 0.68209 -0.0759593
0000d0 67 f2 bd 3f 91 ef ba 3e 40 be 14 bf 46 6b bb 3d
       1.48396 0.365109 -0.581028 0.0915132
0000e0 9c 15 f1 be 44 34 8e 3f 37 33 0a be bd 3a 9f 3f
       -0.470868 1.11097 -0.134961 1.24398
0000f0 69 51 d7 3e ae b8 f8 3d b5 a5 ce 3e 92 96 8a 3f
       0.420543 0.121446 0.403608 1.08272
000100 6d 03 27 be 09 b4 ba bd 46 5f 81 3e 01 de 04 c0
       -0.163099 -0.0911637 0.25268 -2.07605
000110 9a 42 23 bf d2 71 f5 bd c7 eb 9b bd 1b f5 40 3e
       -0.637735 -0.119846 -0.0761333 0.188435
000120 05 dc d3 bd 80 f1 9c be 00 c8 e9 3d f8 6b 12 bd
       -0.103447 -0.30653 0.114151 -0.0357475
000130 32 32 72 3d f0 4d a3 3e e9 2b 80 be c4 ee 3f bf
       0.0591299 0.318954 -0.250335 -0.749737
000140 3b 71 d9 3d 12 bc 99 3e 6e 69 ad 3e ac 00 77 bf
       0.106173 0.300263 0.338695 -0.964854
000150 92 ce f8 3e 0e be 1c bf 65 1d f6 3e 88 65 5b 3f
       0.485951 -0.612275 0.480693 0.857018
000160 93 df 06 3f ee b5 e0 3d de bb 9b bb b9 9e b2 bc
       0.526849 0.109722 -0.00475262 -0.0218042
000170 02 f1 2a be 11 ff e8 be 61 0d 41 bd c1 3a 86 3e
       -0.166935 -0.455071 -0.0471319 0.262167
000180 81 b2 29 40 06 4b 75 3e 1d c8 1a 3e 94 30 8f 3f
       2.65152 0.239544 0.151154 1.11867
000190 db 36 ec 3e d0 47 89 3e 6f 0f 7a bf 27 e6 0f 3c
       0.461356 0.268126 -0.976798 0.0087829
0001a0 8a 39 9d bd 13 f4 0f 3f a7 be 62 bd 55 18 97 bf
       -0.0767699 0.562318 -0.0553576 -1.18043
0001b0 34 4a 67 3e 37 3e 2c bb 5e 85 50 c0 e5 46 4d bf
       0.225869 -0.00262822 -3.25814 -0.801863
0001c0 3b 7f 04 3d 8d b4 b4 bf 6d 70 b2 3e ac c7 41 bf
       0.0323479 -1.41176 0.348514 -0.756953
0001d0 ee 76 bd be de 56 12 bf be 4a 72 3f c7 81 37 3e
       -0.370048 -0.571638 0.946453 0.179206
0001e0 4f 1a 2f bd 16 6b 68 be 12 67 5d bf 6e e0 42 3f
       -0.0427497 -0.226971 -0.864854 0.761237
0001f0 ca 98 4c bc 92 e7 da 3e 1d 32 6d 3b 21 ce 93 be
       -0.0124876 0.427548 0.00361932 -0.288682
000200 6b 9a 2b 3f cb d6 ba bf 4c 8c a5 3e 09 16 cf 3e
       0.670325 -1.45968 0.323336 0.404465
000210 46 ed b6 be f4 a4 dc 3e 76 fd a2 be 9f cd 46 bf
       -0.357279 0.430946 -0.31834 -0.776575
000220 87 16 8d bf c6 6a a3 be 0a 2d 3b 3e 9c 33 82 3e
       -1.10225 -0.319174 0.182789 0.2543
000230 e7 f5 71 bc ab a9 51 bd 76 6f 9d be c6 4f 23 3f
       -0.0147681 -0.0511872 -0.307491 0.637936
000240 bf 7f 1f bf 9c f9 89 3f 2c 46 1d bf 80 9a da bd
       -0.623043 1.07793 -0.614352 -0.10674
000250 0e 4a 84 bf b9 df 85 bf d3 30 f8 3f a6 ed 6f c0
       -1.03351 -1.04589 1.93899 -3.74888
000260 ed 47 b6 3f 96 5e 6f bf 08 3d 53 3f 72 33 b4 bf
       1.42407 -0.935037 0.82515 -1.40782
000270 da fe 03 c0 4e 27 69 3f 62 9f c0 be 6a 4d e3 3f
       -2.06243 0.910756 -0.376216 1.7758
000280 f8 53 d7 3f 49 b3 7e bd 53 04 88 3e 17 10 3a be
       1.68225 -0.0621827 0.265658 -0.181702
000290 a9 a1 45 3f fa db f9 3c 2b d9 69 3f 4c 6f 3f 3f
       0.771998 0.0305004 0.91347 0.747792
0002a0 2e 73 ba 3f 78 0c 2f 3e 16 d5 47 bb 7b 4c 9c 3e
       1.45664 0.170946 -0.0030492 0.305271
0002b0 ab 21 81 3e 7a e0 c3 3e 5c 3c 50 3f 3c 88 8d 3f
       0.25221 0.382572 0.813421 1.10572
0002c0 c9 58 79 3f d7 cf 0c 3d 78 7a d1 3f 0b 46 95 3e
       0.974011 0.0343779 1.63655 0.29155
0002d0 41 7e 3e bf b0 96 76 bd 95 0f b9 be e3 6e 80 3e
       -0.744114 -0.0602023 -0.361447 0.250846
0002e0 88 ba cf 3f 2c f1 80 bf 35 3e b8 3d df c1 07 bf
       1.62288 -1.00736 0.0899624 -0.530302
0002f0 95 9f ac bf 79 23 d7 bf c2 26 1c 3d 37 f8 08 bc
       -1.34862 -1.68077 0.0381229 -0.00835996
000300 39 b8 0c 3f 47 e5 4e 3f ed f4 eb 3e 85 99 14 40
       0.549686 0.808186 0.460853 2.32187
000310 1d 3d ca 3f 75 76 46 bf c9 8e 27 40 cc ee b5 bf
       1.57999 -0.775245 2.61809 -1.42135
000320 9f d0 46 bc fc f1 e8 bc ee ac 22 3d 00 a2 45 3d
       -0.0121347 -0.0284357 0.0397157 0.0482502
000330 ac 46 e1 3b f5 da ac bc a4 25 45 bc 91 8b e0 3c
       0.00687488 -0.0211005 -0.0120329 0.0274103
000340 15 0c 9d bc 7f 9e ab bc 11 c4 19 bd 93 65 d2 bc
       -0.0191708 -0.0209496 -0.0375405 -0.0256832
000350 74 73 f9 ba 51 c0 76 bc 0f 5d 54 3b e7 c2 ad 3c
       -0.00190316 -0.0150605 0.00324041 0.0212111
000360 3b a1 fc bc a7 30 a5 bc df f3 2d 3d cf 27 37 3d
       -0.0308386 -0.0201648 0.0424689 0.0447157
000370 59 83 3c 3d 99 77 26 3d b4 8e 0a 3d af 6a 7f 3c
       0.0460237 0.0406414 0.0338275 0.0155894
000380 aa 18 9d bc 3f 85 6d bc 31 40 a2 3c c7 2e b0 bb
       -0.0191768 -0.0144971 0.019806 -0.00537667
000390 99 6f 13 3d 9c b8 66 bc 38 dc e2 3c bf 9a a4 3b
       0.0359951 -0.0140821 0.0276929 0.00502333
0003a0 35 b7 5f 3b ee 33 78 bc 40 e9 b8 bb 63 46 17 bc
       0.00341363 -0.0151491 -0.00564304 -0.00923309
0003b0 30 b0 18 3d 39 91 ea 3c 92 da 7a 3c cc d0 d7 bb
       0.0372774 0.0286337 0.0153109 -0.00658617
0003c0 fd 43 23 bc b5 b8 0e bc e7 68 ba bc c2 9d f0 3c
       -0.00996494 -0.00871103 -0.0227551 0.0293721
0003d0 54 3f 8a bc ed 6b 18 bd c3 4a 60 bc fe 0a 3e bc
       -0.0168759 -0.0372123 -0.0136897 -0.0115993
0003e0 f7 31 b0 3c bf ee f4 3c 51 13 fd 3c 79 62 91 bd
       0.0215082 0.029899 0.030893 -0.0709886
0003f0 d9 1c cc bc 1a 2f 62 3d 63 be 72 3c 06 04 c4 3c
       -0.0249161 0.0552207 0.0148159 0.0239277

Operation_3_Add_B f4 [50]
000000 cb 81 0e 3f 64 ca 1b bf 86 1d 46 bf 81 b0 93 bd
       0.556668 -0.608557 -0.773888 -0.072114
000010 aa 0d de be 37 a5 84 be 34 2c f6 be 7c b8 a4 bf
       -0.433698 -0.259073 -0.480806 -1.28688
000020 5d 35 0b bf 04 a9 fc be f7 1e 96 3f 38 9f 1a 3e
       -0.543783 -0.493477 1.17282 0.150998
000030 73 11 b3 bf cd cb 4d bf fe 7c 4b be d5 ea 7b be
       -1.39897 -0.803891 -0.198719 -0.246013
000040 e8 f6 00 c0 67 d6 62 be 08 c7 cc 3e ad db 6c bf
       -2.01507 -0.221521 0.399956 -0.925227
000050 1e 0a f0 bc 4d 10 4f c0 95 f1 97 bf 93 ab 18 be
       -0.0293017 -3.23537 -1.18706 -0.149092
000060 52 d3 5e be 68 96 ac bf 43 ca 4d c0 34 13 c4 be
       -0.217603 -1.34834 -3.21547 -0.382959
000070 81 04 2d c0 01 bd a8 be 55 d9 eb 3f 24 09 62 bf
       -2.7034 -0.329567 1.84257 -0.882952
000080 81 21 af bf e0 84 82 be b3 ea bb bf 80 2d 2f 3c
       -1.36821 -0.25492 -1.4681 0.010692
000090 61 36 e9 be 03 d1 2b 3f 58 8f fb be bb 7d 46 bf
       -0.455493 0.671158 -0.491328 -0.775356
0000a0 61 18 30 bd 0f 1a 8b bc 22 fd 36 c0 4b ab bd bf
       -0.042992 -0.0169802 -2.8592 -1.48179
0000b0 ea 5b 0e c0 85 b1 07 c0 ef c7 cd bd e1 62 a9 bf
       -2.22436 -2.12021 -0.100479 -1.32333
0000c0 8e 57 0c bf 14 21 4d 3f
       -0.548211 0.801286

Operation_4_MatMul_W f4 [50, 50]
000000 3d bb e4 3e a9 33 f7 3e 5b de 26 3d 0d ff 59 3e
       0.446741 0.482816 0.0407394 0.212887
000010 5b 98 25 3e 2c 65 89 bf 27 f9 21 3e 01 de ca be
       0.161714 -1.0734 0.158177 -0.396225
000020 a5 db 06 3f d8 ef 81 be 7c b7 11 bf 55 88 2b 3f
       0.526789 -0.253783 -0.569206 0.670049
000030 0c 5c 2a 3f dc 7f 08 bf 2e a4 28 bd 0f 7f 89 3f
       0.665467 -0.533201 -0.0411722 1.07419
000040 9e 44 fc be 4a 16 86 3d 4b 00 1e 3e cb a5 4c bc
       -0.492711 0.0654722 0.154298 -0.0124907
000050 e1 0c 8e 3e 76 8d 8e 3e fb ce 6f 3e 2a 6f 8b 3f
       0.277442 0.278423 0.234188 1.08933
000060 2a e3 ff bd ff 78 93 3f 56 c9 a1 3d 84 b9 9d be
       -0.124945 1.15213 0.0789973 -0.308056
000070 dc a1 a9 3e 39 d2 09 bf e0 19 c8 3d e2 94 5d 3f
       0.331313 -0.538364 0.0977056 0.865553
000080 d6 ac 1b 3f e9 d6 4b 3e d6 a7 9c be 2e ab 78 bf
       0.608106 0.199062 -0.305968 -0.971362
000090 33 fe fd 3e 7f cf 59 bd 64 02 a3 bc 37 6c 7b 3e
       0.49608 -0.0531764 -0.0198986 0.24553
0000a0 d8 48 da be 2a 8e 23 bd 97 5f 3c bc db 8b 00 bf
       -0.426337 -0.0399305 -0.0114974 -0.502134
0000b0 40 1d aa 3c c6 09 3d bd 69 26 ad 3b a5 bb 33 bf
       0.0207659 -0.0461519 0.00528412 -0.702082
0000c0 0d c2 ec be 96 43 cf bf 83 69 f0 3e db 69 4b 3e
       -0.462418 -1.61925 0.469555 0.198646
0000d0 c3 21 a5 3c 31 5b c2 3e db 33 af 3f b2 2b 79 3f
       0.0201577 0.379602 1.36877 0.973323
0000e0 a4 88 04 bf 59 85 1d be 09 fd 60 3f 3f 3a e1 3f
       -0.51771 -0.153829 0.878861 1.75959
0000f0 f4 f8 a9 3f 60 cd 99 3f b9 88 93 3f a1 4d 5a 3f
       1.32791 1.20158 1.15261 0.852747
000100 c5 e6 03 bf 49 84 ae 3e 37 e0 87 3f 09 fd 3c 3f
       -0.51524 0.340853 1.06153 0.738236
000110 7e a8 84 3e 6f 28 a1 bc ca c2 03 3f a4 1a 8e 3e
       0.259098 -0.0196726 0.514691 0.277547
000120 0e 98 31 bd 0e 84 00 40 e1 e4 88 3c d6 1e fe 3e
       -0.0433579 2.00806 0.0167107 0.496329
000130 97 ad 6d 3f 5c 5f 8f bd e8 4d a1 bf c8 d2 63 bf
       0.92843 -0.0700061 -1.26019 -0.889935
000140 7f fa 33 bf bc 79 3a 3f 9a cd 4f 3f a1 2d bb bf
       -0.703041 0.72842 0.811731 -1.46233
000150 79 57 e2 3c ae d7 ac 3e 44 a7 17 3f 87 73 68 bd
       0.0276296 0.337583 0.592396 -0.0567508
000160 a1 ba 89 3e 78 80 47 3e a9 12 d5 3e f1 4b 85 bf
       0.269002 0.194826 0.416158 -1.04138
000170 23 26 b0 bb fe 44 45 3f 5c 90 5d 3e 44 0e 3b bd
       -0.00537564 0.770584 0.216371 -0.0456679
000180 92 61 10 bd 23 67 a1 3f 42 7a 1a 3e c0 95 68 bf
       -0.0352493 1.26096 0.150857 -0.908535
000190 52 d4 a1 3e d7 be c0 be c5 ac d3 bf ad 4c 90 bf
       0.316073 -0.376456 -1.65371 -1.12734
0001a0 52 65 48 bf a9 4a 53 bf f3 00 ae be 01 35 a5 bf
       -0.782796 -0.825358 -0.339851 -1.29068
0001b0 06 9d b0 be 8e 05 69 bf 3c 04 b4 3d 7e c7 78 bf
       -0.344948 -0.910241 0.0878987 -0.971794
0001c0 b1 15 d4 be 24 d1 8b bf 56 0b ec 3d a5 14 88 bf
       -0.414228 -1.09232 0.115256 -1.06313
0001d0 d7 18 d4 bd 80 9c d0 3d 13 ba 03 bf bb 43 8a 3b
       -0.103563 0.101861 -0.514558 0.0042195
0001e0 23 67 55 bf 75 e5 8b bf 10 26 ff bb 87 bf e2 3f
       -0.833605 -1.09294 -0.00778652 1.77147
0001f0 14 5e e2 bd 4f e6 bf be 1d cb fb 3d a3 21 93 be
       -0.110531 -0.374804 0.122946 -0.287366
000200 02 63 dd bd cd 77 1c bf ed 63 01 bf d0 ed 41 bf
       -0.108099 -0.611203 -0.505431 -0.757535
000210 6f 7e 33 be 28 d5 7a bf ea 7b 85 be 1b bb 44 be
       -0.175287 -0.979815 -0.260711 -0.19212
000220 f0 dd 16 be 0f 29 66 bd 28 46 1a bf 0e 27 5a bd
       -0.147331 -0.0561915 -0.602633 -0.0532599
000230 0b d3 27 be 1f 2e c5 bf 55 c6 9a bc b5 b8 10 3d
       -0.163891 -1.54047 -0.0188934 0.0353324
000240 90 bb f8 be b0 3e 19 bd d7 05 32 bd 63 ef 09 bf
       -0.485806 -0.0374133 -0.0434626 -0.538809
000250 1a d6 f9 bb 06 2a 8f bf 73 f7 49 3f 92 03 56 3e
       -0.0076244 -1.11847 0.788932 0.208998
000260 82 38 7f bf e5 b8 8b bf 2e 54 de be 99 9d 6d bf
       -0.996956 -1.09158 -0.434236 -0.928186
000270 22 8a 91 3e e4 49 aa 3f 46 d3 53 c0 9f 02 b4 3f
       0.284257 1.33038 -3.30977 1.40633
000280 09 34 c8 3d 74 40 92 3e ee 23 77 bf 54 c4 09 be
       0.0977555 0.285648 -0.965392 -0.134538
000290 c3 0c cd be 6b 9b 36 3f 8b 19 71 3f 7e 51 e7 3c
       -0.400488 0.713309 0.941796 0.0282371
0002a0 d6 53 fb be 03 92 d1 3b 94 a2 55 be 71 af 1c 3e
       -0.490874 0.00639558 -0.208628 0.153013
0002b0 c2 c1 4e be 17 82 66 40 de 1c c3 3d af 25 88 3f
       -0.201911 3.60169 0.0952699 1.06365
0002c0 38 30 49 be d8 65 18 3e ea 7a 92 be 86 f6 3b 3d
       -0.196473 0.148826 -0.286094 0.0458894
0002d0 75 39 a5 be d2 6e e4 3e f7 92 b2 bf 85 08 2c 3f
       -0.322704 0.446158 -1.39511 0.672005
0002e0 d6 c9 71 3f c6 dc e5 be 9e 7b 2f be 58 9b b5 bc
       0.944486 -0.44895 -0.17137 -0.0221688
0002f0 2b c1 a2 be 35 d3 fd bd c0 3e ea be 13 b7 0a 3d
       -0.31788 -0.123938 -0.45751 0.033866
000300 b0 30 2e bd e3 fa d7 3d 74 d3 46 3f 35 63 11 bd
       -0.0425269 0.105459 0.776664 -0.035495
000310 a5 d7 66 bc 6d 73 f7 3f d1 e9 79 3e 8e ac fc be
       -0.0140895 1.93321 0.244056 -0.493504
000320 fd a4 c2 bf 39 ef 43 3f b4 c9 31 be 28 7d 61 3f
       -1.52066 0.765369 -0.173621 0.880816
000330 af cd ce 3e d5 92 c6 be 23 86 15 3f 4c 70 76 3f
       0.403913 -0.387839 0.584078 0.962651
000340 65 35 ed 3e 2c a0 3c 3f 50 a9 12 3e f8 35 56 3f
       0.463298 0.736819 0.143224 0.836761
000350 ca fe 35 3f be f8 12 3f 5c 3d 4b 3f 6b 64 3f bf
       0.710919 0.574108 0.793905 -0.747626
000360 e0 46 af bc 73 9d e6 3d 7e 52 01 40 e5 ba 04 bd
       -0.0213961 0.112605 2.02066 -0.0324048
000370 30 f0 ac 3f 9d 94 d5 ba 92 b3 b8 3e 02 0e 03 c0
       1.35108 -0.00162949 0.360745 -2.04773
000380 b7 b3 07 bf 7e 71 19 3f cd c9 17 3f b8 e9 ab bf
       -0.530086 0.599388 0.592923 -1.34307
000390 a7 74 f0 3e a3 8f 29 3e c6 99 30 3d 87 a5 31 3e
       0.46964 0.165587 0.0431154 0.173483
0003a0 10 44 31 3d d1 ae 72 3e 14 e9 1e bf a9 14 67 bf
       0.0432778 0.236995 -0.620744 -0.902659
0003b0 da 39 a5 3e aa 9c d5 3a 6a f2 b9 bd e9 d2 0f 3f
       0.322707 0.00162973 -0.0907944 0.561812
0003c0 31 6c c3 3c 62 4a 9c 3f b8 69 fd bc ee 3d dc bd
       0.0238553 1.22102 -0.0309342 -0.10754
0003d0 84 f5 cf 3e 1b 7d b1 3c cb 80 13 bd df 15 09 bf
       0.40617 0.0216661 -0.0360115 -0.53549
0003e0 89 96 c4 3e 5c cc a7 3e 41 d8 f9 3e 03 7c cf 3e
       0.383961 0.327731 0.487978 0.405243
0003f0 81 5b 93 bf 64 92 ed 3f d3 f7 ea 3e 56 2a f8 be
       -1.15123 1.85603 0.458922 -0.484698

Operation_4_Add_B f4 [50]
000000 cf 31 b8 bf 66 31 05 c0 32 5a af bf 3c 4e 91 bf
       -1.43902 -2.08114 -1.36994 -1.1352
000010 97 39 2d 40 cd 01 f6 3f ab 04 f7 3f 43 ff 81 c0
       2.70664 1.92193 1.92983 -4.06241
000020 35 46 bb bf 99 74 c5 bd 80 9f 01 c0 f5 be b1 bf
       -1.46308 -0.0964138 -2.02536 -1.38864
000030 3f 90 40 bf bd fb a6 40 94 a3 64 3f f7 e4 d9 bf
       -0.752201 5.21823 0.893121 -1.7023
000040 ec 51 d4 3f 72 8a a6 bf 18 43 21 c0 b1 f0 ff bc
       1.65875 -1.3011 -2.51972 -0.0312427
000050 7d cb c8 3f 6e a6 da be cc b3 72 3f 18 0a 90 be
       1.56871 -0.427051 0.948056 -0.281327
000060 4b ab 91 3f 78 b7 22 bf b7 0b d9 bf fc 54 d5 3e
       1.13804 -0.635612 -1.69567 0.416664
000070 9e b4 20 3f a9 c1 98 3f e3 19 52 40 26 e4 0f c0
       0.627756 1.19341 3.28283 -2.2483
000080 3f 55 49 bf 31 b1 85 3f 99 d7 f1 bd 09 89 d4 bd
       -0.786457 1.04447 -0.118087 -0.103777
000090 1b 9e ee bf 6c 7d 0c bd 92 79 b8 3f 32 3d 43 c0
       -1.8642 -0.0342993 1.44121 -3.05061
0000a0 3f 8d 2b 3e bb ed a2 3f a0 b4 26 bd f9 49 45 c0
       0.167531 1.27288 -0.0406996 -3.08264
0000b0 13 47 fe 3e e6 68 9f bb 52 20 7d bc e9 61 d0 3e
       0.496636 -0.0048648 -0.0154496 0.406997
0000c0 58 56 46 40 6d 73 a3 bf
       3.09902 -1.27696

Operation_5_MatMul_W f4 [50, 50]
000000 a4 52 0c bd 26 1e 0c bf 51 66 a7 bf 60 3c eb 3e
       -0.0342585 -0.547335 -1.30781 0.459445
000010 be 4a 9e 3e c0 e7 87 be f8 9b 5c bb 9f 55 ae be
       0.309164 -0.26544 -0.00336623 -0.340497
000020 61 df 3a 3f 6e 14 09 3e 33 33 0b bf 93 e5 24 3e
       0.729971 0.133867 -0.54375 0.161032
000030 5b 78 ce be 3e 51 23 bd cd 5b ed 3e 90 6b 03 3f
       -0.403262 -0.0398724 0.463591 0.51336
000040 c9 cc dd be a3 3b a0 be 57 b2 a3 bd e7 53 17 3f
       -0.433203 -0.312955 -0.07993 0.591124
000050 4f 1e 8e 3f f2 47 ac 3c e0 db 20 3f 40 4d 89 3f
       1.1103 0.0210304 0.628355 1.07267
000060 d2 18 8d 3f a5 f9 6b 3f 05 8b 83 3f 26 38 fd 3e
       1.10232 0.921778 1.02768 0.494569
000070 76 71 db 3e 8c bc 6c 3e 8a 5d f8 bb 95 09 84 bd
       0.4286 0.231188 -0.00757951 -0.0644714
000080 fd be 2b bf 9b c9 18 bc 22 55 9c be 61 e2 3f be
       -0.670883 -0.00932541 -0.305337 -0.187387
000090 c4 96 26 3f d7 51 85 be aa 48 ad bf 3f 52 90 3f
       0.650738 -0.26039 -1.35378 1.12751
0000a0 3c 6a 38 bf 49 63 00 bf 58 aa a3 3e 13 44 71 40
       -0.720371 -0.501515 0.319659 3.76978
0000b0 35 28 4a 3e f6 7b 76 3f 89 69 75 3d fd bc 29 be
       0.197419 0.962829 0.0599151 -0.16576
0000c0 72 a3 08 3e dc 29 c5 3f cd a6 ed bc 1d 8f e1 bf
       0.133436 1.54034 -0.0290102 -1.76218
0000d0 93 53 73 3f 98 34 5a 40 b8 23 18 40 88 46 7f c0
       0.950494 3.40946 2.37718 -3.98868
0000e0 6c 44 2b 3d 7a df 72 c0 18 7c 62 3f f9 31 83 c0
       0.0418133 -3.79489 0.884706 -4.09985
0000f0 7d 91 6c 40 9c 4a 2b 3c e7 17 35 3f d7 1b 90 3d
       3.69638 0.0104548 0.707396 0.0703656
000100 23 67 57 c0 72 c4 48 c0 24 63 1d 3f c9 76 ae 3f
       -3.36567 -3.13699 0.614794 1.363
000110 b7 d2 67 bf 08 1e 3f be e4 87 4e 3f 68 d0 78 bf
       -0.905559 -0.186638 0.806761 -0.97193
000120 af 40 d4 3d 11 01 1f 40 93 a8 e7 3e 65 a5 b1 bf
       0.103639 2.48444 0.452458 -1.38786
000130 cc 7a 95 3f 80 0e 83 3e 3a 40 98 3f 48 c1 7f 3f
       1.16781 0.25597 1.18946 0.999043
000140 a2 9c 08 3f 28 82 48 3f e7 c7 7f be 8e 75 ad bf
       0.53364 0.783236 -0.249786 -1.35515
000150 0d ff 69 bb 62 d6 63 c0 aa d4 bc 3f 84 ab 32 bd
       -0.0035705 -3.55996 1.47524 -0.0436206
000160 b4 e5 f4 3f 9c 50 fc bf 4c 6c 86 c0 6b 60 e3 3e
       1.91326 -1.97121 -4.20072 0.444095
000170 9f ae 02 bf 3b 8d 82 40 f2 b0 d8 3f 44 30 96 be
       -0.510477 4.07974 1.6929 -0.293337
000180 f0 33 d6 3f b0 72 f0 3f 5f 95 37 bf 77 1a 9f bd
       1.67346 1.8785 -0.717123 -0.0776872
000190 de e4 37 3c fa 44 b2 3f aa 48 85 bf 59 c4 18 bf
       0.011224 1.39273 -1.04128 -0.596746
0001a0 16 a4 85 bf 77 be 9b 3f 02 a6 42 3c e4 4e a8 c0
       -1.04407 1.21675 0.0118804 -5.25963
0001b0 29 5c 83 bf fb e8 0c 3f e0 fb 36 bd d3 f6 e7 bf
       -1.02625 0.55043 -0.0446738 -1.81222
0001c0 b8 cd 1c 3f aa 81 86 be fb 73 35 3f 35 26 48 bf
       0.612514 -0.262708 0.708801 -0.781833
0001d0 45 9e b8 bf a5 2c d7 bf 47 1c 32 3d 43 90 9b 3f
       -1.44233 -1.68105 0.043484 1.21534
0001e0 eb c3 02 bf 8b 1c 3d bd 35 4e 39 bd 16 c2 4e bf
       -0.510802 -0.0461698 -0.0452406 -0.807649
0001f0 c5 8f 85 3f 6a f6 e4 3f a1 d7 2f be 7d 59 9a 3c
       1.04345 1.78877 -0.171721 0.0188415
000200 ca f9 a2 be ff 92 ec be bd 1d 1f c0 6f 81 9c bf
       -0.318312 -0.462059 -2.48619 -1.2227
000210 4a 79 5d 3e 33 a4 82 be ac 1d dd be ca 37 67 3f
       0.216283 -0.255159 -0.431867 0.903195
000220 3c 15 d0 3d 26 1c ba be ba dc 04 3f 2b 6b 93 be
       0.101603 -0.363496 0.518993 -0.287927
000230 8a 75 0a bf cb a1 07 c0 41 9b 18 3f 77 d6 5a c0
       -0.540856 -2.11925 0.596119 -3.41934
000240 ef 37 f2 be 10 d7 20 bd 3a cc 13 3f 79 23 13 c0
       -0.473083 -0.0392676 0.577335 -2.29904
000250 23 67 85 bf 8b 53 09 bf 68 32 2d bd 14 05 00 c0
       -1.04221 -0.536431 -0.0422844 -2.00031
000260 37 6e 89 3e ef ac c5 bf 85 b6 cc be dd ea 01 40
       0.268419 -1.54434 -0.39983 2.02996
000270 5d 96 05 bd 7b 9a 38 3d 7d 3d 7f 3f 61 8e fe bf
       -0.0326141 0.0450692 0.997032 -1.98872
000280 9e 7b c3 bf c7 65 7c be 11 70 30 c0 63 27 5c bd
       -1.52721 -0.246482 -2.75684 -0.0537485
000290 3c da 89 c0 0b 5e 86 c0 72 a7 a8 3f ba 4e b7 bf
       -4.30789 -4.19898 1.31761 -1.43209
0002a0 cf 30 45 3e 43 fe 3d bf d2 18 b9 bf 65 8a c9 be
       0.192569 -0.742161 -1.44607 -0.393634
0002b0 a0 c4 97 be 0c 76 ba c0 50 c7 1f 3f d3 db 0f 3e
       -0.296422 -5.82691 0.624135 0.140487
0002c0 d1 05 6d 3f 45 bd 70 3e 82 03 da bd 86 e3 f1 be
       0.92587 0.235097 -0.106452 -0.472439
0002d0 eb 52 33 3f 37 17 37 3f 09 19 e8 3d 93 df 22 bd
       0.700484 0.715198 0.113329 -0.039764
0002e0 b3 ef 8a 3f ca 18 df bd 8c 66 09 3f a2 0d 98 be
       1.08544 -0.108934 0.536721 -0.296979
0002f0 6b 0e d0 3f ea b0 9a be 19 90 4b c0 0f a4 01 3d
       1.62544 -0.302131 -3.18067 0.0316506
000300 b0 ab c9 be fa ed 39 c0 21 76 82 3f a2 b7 d8 be
       -0.393888 -2.90515 1.01923 -0.423276
000310 93 f3 0f bd e3 c5 52 be 15 2c af 3d 87 6d 8f 3f
       -0.0351444 -0.205833 0.0855333 1.12053
000320 cd c4 99 bc 3f 1d 9b bf 00 3b b7 be 78 ee 21 c0
       -0.0187706 -1.21183 -0.357872 -2.53018
000330 06 f2 40 bf 8f df 63 c0 96 92 45 bd 8e 04 82 be
       -0.753693 -3.56052 -0.0482355 -0.253941
000340 9e 79 09 3f db 44 f7 3c b6 65 70 be c0 ec 2a bf
       0.537012 0.0301842 -0.234763 -0.667675
000350 a3 06 3b c0 62 57 49 3d 01 18 29 c0 63 9c 09 c0
       -2.92228 0.0491556 -2.64209 -2.15017
000360 fd 30 f2 3e 00 39 c9 be 6a 33 7e 3e 7e 1b 22 be
       0.47303 -0.393013 0.248243 -0.158308
000370 15 74 73 bf f8 8c 28 bf 0f 0c 58 bf 62 2d 76 c0
       -0.95099 -0.658401 -0.843934 -3.84652
000380 e4 a0 f4 bf 72 df b2 3e 97 54 5d be 17 2b 1e bf
       -1.91116 0.349361 -0.216143 -0.617845
000390 7d 97 9a be 11 fc 87 3e ff 94 2a bc 39 7b 0f bf
       -0.301937 0.265595 -0.0104115 -0.560474
0003a0 1b 84 f9 be 5b cf 50 3e cf 10 ce 3d c1 c5 ae bf
       -0.487336 0.203916 0.100618 -1.36541
0003b0 7b a1 60 3d 31 99 6a 3e 8a 59 67 3f 5e bb d4 bd
       0.0548415 0.2291 0.90371 -0.103873
0003c0 28 44 f4 bf ab b2 a7 bf a0 c6 dd 3d 59 17 af c0
       -1.90833 -1.31014 0.108289 -5.4716
0003d0 49 2e 83 3f 59 fd 21 3e 45 f6 29 3f 0b 7b 92 3e
       1.02485 0.158193 0.663914 0.286095
0003e0 ad a6 d3 be 94 69 f4 3e 27 9d 6d bd 19 c7 e8 3d
       -0.413381 0.477368 -0.0580112 0.113661
0003f0 bd 8b 17 be 93 6f 5e c0 88 85 d6 bf f2 cd 7a bf
       -0.147994 -3.47556 -1.67595 -0.979705

Operation_5_Add_B f4 [50]
000000 9c a9 ab bc 28 b8 8c 3f c6 a5 b2 be c0 95 90 c0
       -0.0209549 1.09937 -0.348921 -4.51828
000010 9a 99 89 3f de c8 c8 3f d3 10 17 bc 60 02 8b bf
       1.075 1.56863 -0.00922032 -1.08601
000020 09 6d 99 bf 93 35 9e 3f 5c 3d c3 3f 6d c9 2a bf
       -1.19864 1.23601 1.52531 -0.667136
000030 d7 fa 5e c0 aa f3 f8 3e 4f 3e e5 3e 7f f6 4f c0
       -3.48406 0.486234 0.447741 -3.24942
000040 11 53 24 c0 20 7b a1 3f 9e 7b bf be 4d 31 57 bf
       -2.56757 1.26157 -0.37399 -0.840596
000050 e1 5d 0a c0 2f ec 1f bd e4 bd 82 bf 43 56 b8 c0
       -2.16198 -0.0390436 -1.02142 -5.76053
000060 4e d5 6d bf d1 91 b6 c0 43 ca 03 40 21 3c ea 3f
       -0.929036 -5.7053 2.05922 1.82996
000070 cc d2 76 bf fc 35 a9 3f 6f 64 be bf e1 43 39 3f
       -0.964154 1.32196 -1.48744 0.723692
000080 ca 89 3e c0 f6 40 af bf 75 7e 00 3d 49 68 8b bf
       -2.97716 -1.36917 0.0313706 -1.08912
000090 f9 bb 67 be 3e 3f 14 40 b2 80 6d 3f 35 24 c6 3f
       -0.226303 2.31636 0.927745 1.54798
0000a0 2c 9a ea 3f ea ec fc bf 5a 45 2f bf d3 13 04 c0
       1.83283 -1.97598 -0.684652 -2.06371
0000b0 57 07 6c bf 38 15 81 bf d9 25 36 c0 f3 20 69 bf
       -0.921987 -1.00846 -2.84606 -0.910659
0000c0 35 d2 e6 3f dd eb e4 3d
       1.80329 0.111778

Operation_6_MatMul_W f4 [50, 50]
000000 fb da 09 bd bc fc 98 ba 6e 34 40 3d 8f a7 23 3b
       -0.0336561 -0.0011672 0.046925 0.00249717
000010 87 67 ae b9 f4 b7 8e 3c 1b 53 09 bc df d1 35 bb
       -0.00033265 0.0174217 -0.00838163 -0.00277435
000020 83 5d 9e bc 65 9f 31 3d 98 b9 e5 bc 22 44 03 bd
       -0.0193317 0.0433649 -0.0280426 -0.0320474
000030 73 c2 5f 3c 0c 18 6e 3c f0 87 df bc 2c 55 58 3c
       0.0136572 0.0145321 -0.0272865 0.0132039
000040 13 af 17 3d 4b df 90 3c 0d 7a c6 3b ac 3b 16 3d
       0.0370322 0.0176846 0.00605703 0.036678
000050 50 b8 48 3d 93 25 eb bb be fe ff bc a3 8f 79 bc
       0.0490039 -0.00717611 -0.0312494 -0.015232
000060 39 63 78 bd 5c bb e3 bc 71 7f 24 bd df 45 a9 3c
       -0.0606415 -0.0277993 -0.0401606 0.0206632
000070 81 b5 3b ba eb 3a 94 3c fd d8 a4 3c 9b 68 a1 bc
       -0.000716053 0.0180945 0.020123 -0.0197032
000080 9b 5f 03 3d b7 05 b0 bc 63 4d 40 bc 03 a2 96 3c
       0.0320736 -0.0214871 -0.0117372 0.0183878
000090 a7 3f fb 3c 3d 46 79 3c c8 12 b1 3c 31 59 01 3c
       0.03067 0.0152145 0.0216154 0.0078948
0000a0 e4 22 88 3c bc e2 4e 3c b6 4d f1 ba d5 8b 2b 3d
       0.0166182 0.0126273 -0.001841 0.0418814
0000b0 32 26 98 3c a3 28 2b bd 89 d2 1e 3d f9 3e 06 bd
       0.0185729 -0.0417868 0.038775 -0.0327749
0000c0 ca f2 e0 3a b3 55 53 bd cd 2d 02 3c 30 64 f9 bf
       0.00171622 -0.0515954 0.00794549 -1.94837
0000d0 20 0c c8 3f f3 1f 0c c0 09 38 e4 3d 7f 3a 39 3d
       1.56287 -2.18945 0.111435 0.0452218
0000e0 44 c0 99 3f 38 42 80 bd a8 00 f8 bf 3b aa 5c c0
       1.20118 -0.0626263 -1.93752 -3.44789
0000f0 b7 cf 92 be 41 9c 9f 3e 1e e1 3e c0 dc 1b 70 bb
       -0.286741 0.311739 -2.98249 -0.00366377
000100 9d 4b 43 c0 7f f6 b3 bf 19 56 b1 bc 9a 5f e5 bf
       -3.05149 -1.40596 -0.0216475 -1.79198
000110 8d 9b fa bd c7 fc 92 3d 73 d6 2f 3f ea 06 aa be
       -0.122367 0.0717712 0.686866 -0.332084
000120 a0 a9 43 bf fa 9b 1e c0 4f 72 2c 3c f8 52 a8 3e
       -0.764307 -2.47827 0.0105253 0.328758
000130 0a bd 7a 3f e4 49 32 be dc 4b 9e bf f8 71 58 3f
       0.979447 -0.17411 -1.23669 0.845489
000140 8c a1 14 3f e3 df 37 be f4 a9 4b 3f 09 f9 88 bf
       0.58059 -0.179565 0.795562 -1.0701
000150 a9 6a 72 3f d8 2a 05 bf 08 72 f0 bd 87 16 a9 be
       0.94694 -0.520185 -0.117405 -0.33025
000160 a5 f7 5d 3e 8e 3b e7 bb c6 d5 d2 bc 12 c1 a8 bd
       0.216765 -0.00705666 -0.0257367 -0.0823995
000170 f3 75 c1 be 26 c7 0b c0 dc 4a 4f bd fe b7 82 bf
       -0.377853 -2.18403 -0.0506085 -1.02124
000180 cf f3 8c bd 9c ef b1 bc 11 fc 93 bf 96 05 43 be
       -0.0688244 -0.0217207 -1.15613 -0.190451
000190 63 d6 ea bb 02 d9 c7 3f 69 57 c9 3f 44 6f 65 bf
       -0.00716667 1.56131 1.57298 -0.896229
0001a0 92 ca dc be 0c 07 82 bd 83 17 2d c0 19 cb 74 bc
       -0.431233 -0.06349 -2.70456 -0.014941
0001b0 e8 a4 eb 3f 0a 11 1c c0 d5 b0 df 3d d9 5a 8b bf
       1.84097 -2.43854 0.109224 -1.08871
0001c0 80 2b e9 bf 07 28 09 bb 55 6a e6 3f 45 9b eb be
       -1.82164 -0.00209284 1.80012 -0.460169
0001d0 98 18 4b 3c 84 49 2d 3f 0a 45 df bb c3 9e 56 bd
       0.012396 0.676903 -0.00681365 -0.0523975
0001e0 6b b7 dd be 74 45 c4 3c fa b3 87 3f ee 5f d1 be
       -0.43304 0.0239589 1.06018 -0.408935
0001f0 15 1d 89 bd ec fa 9d bf bc 75 fe 3d 31 ea 6e bf
       -0.06695 -1.23422 0.124248 -0.933261
000200 25 7a 9d 3f 93 1e 26 be cc 62 de bf 55 85 6a bf
       1.23029 -0.162226 -1.73739 -0.916097
000210 11 53 20 c0 b5 ff 19 bf 98 69 9b bf c3 0d d0 3e
       -2.50507 -0.601558 -1.21416 0.406355
000220 fd a4 08 c0 bd 35 80 bf 39 9a 8b 3e 23 1c 8a bb
       -2.13507 -1.00164 0.272661 -0.00421478
000230 30 9b 80 bb 2d e8 5d bd 4c 37 09 3f 9f cd f2 bf
       -0.00392475 -0.0541765 0.536 -1.8969
000240 ef 39 30 bb 74 80 3b bc 91 b5 36 be 41 2a 66 bb
       -0.002689 -0.0114442 -0.178427 -0.00351204
000250 af 06 6c 3f ee 7c 8b bf c7 04 08 3b 10 91 7a 3e
       0.921977 -1.08975 0.00207548 0.244694
000260 df 53 99 be 48 e1 c2 bf e5 b6 fd bd b2 85 5c bf
       -0.299468 -1.5225 -0.123884 -0.861415
000270 5e 2e a6 3f 6c 1b 90 3c f2 0c da 3e 3e ed b8 bf
       1.29829 0.0175912 0.42588 -1.44474
000280 36 3f ce be 64 3b e3 bf 4e ee 87 3e 9d 09 9c b9
       -0.402826 -1.77525 0.26549 -0.000297618
000290 df 36 bb be 45 49 4c bf 3f 9c 31 bd aa 48 82 c0
       -0.365653 -0.797993 -0.0433619 -4.07137
0002a0 70 3e 7d bf 89 2b 42 3c 2d d0 4e 3f f2 23 9e bd
       -0.989234 0.0118512 0.807864 -0.077217
0002b0 10 3c 0e 3f 54 1c 87 3e 76 46 25 bc 6d e7 a3 bf
       0.555604 0.263888 -0.0100876 -1.2805
0002c0 4d 68 f2 3d c8 0c b4 be 9d f6 04 be 55 c2 0b 3f
       0.118363 -0.35166 -0.129847 0.545934
0002d0 ed d3 89 bf 20 d2 2b c0 28 0a 06 c0 ea cf 96 bf
       -1.07678 -2.6847 -2.09437 -1.17822
0002e0 58 ad a4 bf 55 f8 8b be 1e f9 d7 bf 32 8f a0 3f
       -1.28654 -0.273379 -1.68729 1.25437
0002f0 c9 58 1d be 59 17 27 c0 bc 78 20 bc fb 3b fb bd
       -0.153659 -2.6108 -0.00979441 -0.122673
000300 b9 aa 12 c0 fb 06 a6 be 7c f7 42 bd e1 99 98 be
       -2.29167 -0.324272 -0.0475993 -0.298049
000310 65 7d b9 bb e5 a8 0d bd aa 2d 9d be 0e 4f 27 c0
       -0.0056607 -0.0345849 -0.306989 -2.6142
000320 8d 48 4f bd b3 d2 10 40 eb 90 92 c0 8c 84 64 c0
       -0.0506063 2.26286 -4.58019 -3.57059
000330 57 98 3e be f2 9d 83 bd 80 0c ed be 55 cc b7 3c
       -0.186128 -0.0642661 -0.462986 0.0224363
000340 e3 fc ed 3f e9 65 2a c0 fa 41 2d 3e 8a e9 d2 be
       1.85928 -2.66247 0.169197 -0.411938
000350 04 90 ee bf 32 24 65 3b 14 83 c6 3d 23 b2 39 bd
       -1.86377 0.00349642 0.0969297 -0.0453359
000360 8f 62 ca 3d 64 cc b5 c0 36 59 83 bf c2 d4 90 3d
       0.0988208 -5.6812 -1.02616 0.0707183
000370 20 d2 27 c0 00 6f 06 bd 3e 76 63 3f aa 82 0b c0
       -2.6222 -0.0328207 0.888523 -2.17985
000380 a0 9c f4 bb b4 e8 35 3f fa d0 81 3f 04 54 58 be
       -0.00746496 0.710582 1.01419 -0.211258
000390 70 b6 bd 3f 6a 87 bf 3f ea ec 40 c0 33 2f 6c bd
       1.48213 1.49632 -3.01446 -0.0576622
0003a0 53 b3 13 40 05 fa 54 3e 02 9a 4c 3f 61 c1 49 bf
       2.30782 0.207985 0.799225 -0.788107
0003b0 f0 f9 25 c0 73 d9 20 3f 94 4a b8 be d7 46 e1 bb
       -2.59338 0.628318 -0.359944 -0.0068749
0003c0 f6 23 45 3c 10 7f a8 3c a4 c7 0f c0 fc 70 f0 3d
       0.0120325 0.0205684 -2.24656 0.117403
0003d0 98 19 b6 bc 5c c9 02 3f fe 0b 63 3b 97 08 0e 3b
       -0.022229 0.510885 0.00346446 0.00216726
0003e0 24 61 3f 3e d6 00 c5 3e 31 9d 11 bd 13 2d 4d bf
       0.186894 0.384772 -0.0355503 -0.801469
0003f0 cc 5d 17 40 65 e4 08 c0 98 1e 28 bd db dc fc bf
       2.3651 -2.13894 -0.0410448 -1.97549

Operation_6_Add_B f4 [50]
000000 68 41 b0 3e d4 0e cf c0 18 43 13 c1 52 b8 ba 3f
       0.344249 -6.47056 -9.20388 1.45875
000010 21 ae 60 3f 52 b8 38 c0 06 81 e8 c0 f9 f6 6a 3f
       0.877657 -2.88625 -7.26575 0.917831
000020 6e dd d8 c0 9b e6 21 bf 58 e2 d1 3f e4 0f 4a 40
       -6.77703 -0.632425 1.63972 3.15722
000030 d4 0e f3 3f b9 00 ac 3e 01 4c 15 3f 34 80 ee c0
       1.89889 0.335943 0.583191 -7.45315
000040 f4 37 d9 be f0 c3 6d 3f bc 08 f3 3e 7a fb 53 be
       -0.424255 0.928771 0.474676 -0.207014
000050 8f b6 05 c1 d4 b7 c4 bf 5c 72 d0 bf 45 9e d4 3f
       -8.35707 -1.53686 -1.62849 1.66108
000060 2f 79 b2 3d c7 80 a1 c0 59 34 b2 c0 36 59 1b 40
       0.0871452 -5.04697 -5.56889 2.42732
000070 05 86 c4 c0 8f c2 e1 c0 d6 c5 88 40 a3 06 47 bf
       -6.14136 -7.055 4.27415 -0.777445
000080 a4 a5 68 40 8c 2b 66 3f 6a c1 0b c1 02 bc a1 c0
       3.63511 0.899102 -8.73472 -5.0542
000090 d2 6d e9 3d 35 41 e4 c0 96 04 06 c0 4f 6a 59 3d
       0.113979 -7.13296 -2.09403 0.0530799
0000a0 c6 c3 1b bd 03 26 a4 3f f0 c4 db 40 73 a2 29 40
       -0.0380285 1.28241 6.86779 2.65054
0000b0 76 e1 47 bd bb b8 90 c0 13 9e 4c 3f 17 62 51 3f
       -0.048799 -4.52255 0.799287 0.817903
0000c0 f9 c9 1e c1 fa 9b 58 40
       -9.92431 3.38452
