resources/onnx/acasxu/ACASXU_experimental_v2a_3_6.onnx (onnx, 55889 bytes, 15 tensors)

input_AvgImg f4 [1, 1, 1, 5]
000000 00 00 00 00 00 00 00 00 00 00 00 00 00 00 00 00
       0.0 0.0 0.0 0.0
000010 00 00 00 00
       0.0

Operation_1_MatMul_W f4 [5, 50]
000000 6c 92 0f 3e 9d 49 1b bd ea 9e 8e 3b e7 2a a7 bc
       0.140207 -0.037912 0.00435244 -0.0204062
000010 80 60 b3 bc ab f2 18 bc f0 5d 94 3b 86 5a 23 40
       -0.0218966 -0.0093352 0.0045278 2.5524
000020 1a fa 67 3e 7c dd 18 3d c4 a4 89 bc b0 0a 2a bd
       0.22654 0.0373206 -0.0168022 -0.0415141
000030 cc 3e f4 bc 7e 53 f0 be 6f b5 93 3d 31 4f 3d 3d
       -0.0298151 -0.469387 0.0721234 0.0462181
000040 ea f0 9b 3d cc f7 22 bd e7 bb 05 3d 1f 8b 88 bc
       0.0761431 -0.0397871 0.0326499 -0.0166679
000050 d9 2f 4e 3d a6 83 50 3c a2 7e 57 be bc 22 b8 3c
       0.0503386 0.0127267 -0.210444 0.0224775
000060 51 14 44 bf 30 0f d9 3c d9 b2 c4 3e ef 1e 80 bd
       -0.765935 0.0264965 0.384177 -0.062559
000070 3a 96 3f 3f 36 72 dd bd 5c 6c de 3b db 66 ae bb
       0.748386 -0.108128 0.00678782 -0.00532232
000080 38 9c 9e bc e0 08 9c bc 77 12 89 3e a0 89 b0 bf
       -0.0193616 -0.0190472 0.267719 -1.3792
000090 ff 92 34 3d 4a c4 05 3d a9 d7 82 bd 8f e2 bd bb
       0.0440855 0.0326579 -0.0638879 -0.00579483
0000a0 73 a7 aa bc 68 25 0a bc 06 c4 bd 3b 06 d5 56 3e
       -0.0208318 -0.00843177 0.00579119 0.209797
0000b0 ba 42 69 bc ef 9d 62 bc bf d4 cf 3d 43 1a 1a 3d
       -0.0142371 -0.0138316 0.10148 0.0376227
0000c0 72 8f a0 3d ca df 1d bd bc 3c c5 be f9 bf 3f bf
       0.0783986 -0.0385435 -0.385229 -0.749023
0000d0 ee 5c e8 be 14 ae b7 3f 8c f6 3c 3f 85 95 f2 be
       -0.453834 1.435 0.738137 -0.473797
0000e0 4e 0b b2 bf 25 fd e2 3c d7 bd fd be 8c 84 8a bf
       -1.39097 0.0277086 -0.495589 -1.08217
0000f0 23 7c 2b 3a 2c 2e 9e bd 86 c9 94 be 05 8b bb 3e
       0.000654163 -0.0772365 -0.2906 0.366295
000100 a9 33 f7 be fd 16 3d bf e7 50 52 bf 7a 8d ad be
       -0.482816 -0.738632 -0.821547 -0.33897
000110 19 3d 5b 3f c0 9c 51 3b 3e 96 d6 bf 66 68 04 3f
       0.856401 0.00319843 -1.67646 0.517218
000120 50 be c5 bc ae bc ec be 61 0c 56 3d a5 f8 c8 3e
       -0.0241386 -0.462377 0.0522579 0.392522
000130 08 23 d1 bc 9c f9 b9 3f 33 4d f9 bb af 20 72 3c
       -0.0255294 1.45293 -0.00760808 0.0147783
000140 df ba 87 3b bb 27 6f 3e 01 30 82 3f 44 f7 6c be
       0.00414215 0.23355 1.01709 -0.231412
000150 cb 98 87 3d 1a a3 25 3e 08 e5 31 bf 72 4d 7d 3f
       0.0662094 0.161755 -0.694901 0.989463
000160 67 ed 9e 3f 6a 68 5d 3a bf 6b 86 3d 8b ce 08 3d
       1.24162 0.000844604 0.0656352 0.0334001
000170 9f bc 79 3d f7 b1 ba 3e d7 17 c5 bf df 18 6a 3f
       0.0609709 0.364639 -1.53979 0.914442
000180 cb 2f 6f 3f 1e 8b 69 3f 35 46 b7 3f 00 74 18 3e
       0.934323 0.912279 1.43183 0.14888
000190 82 39 a2 be 9d 0d f1 be da 38 e2 bd 4d d6 c4 bf
       -0.316845 -0.470807 -0.11046 -1.53779
0001a0 26 fc 02 3e a2 ed b8 3e c1 6e b0 3f 41 5b 8a b9
       0.127915 0.361188 1.37838 -0.000263894
0001b0 eb 6e 0e 3f 2c 81 8c be 7b a2 67 3f fc 83 52 3d
       0.55638 -0.274423 0.904823 0.0513954
0001c0 90 82 e7 3d 9c fa e0 3d 64 a9 3a bd 61 a7 08 be
       0.113042 0.109853 -0.0455717 -0.133451
0001d0 b1 dc ba 3f 96 3f df be fa d5 84 bf 7f 0c e3 3b
       1.45986 -0.436032 -1.03778 0.00692898
0001e0 31 b6 cc 3f a6 b6 24 3e ba 63 f3 bb 54 70 e8 3e
       1.59931 0.160853 -0.00742766 0.453982
0001f0 1d 57 2f bf e4 dc 0a 3f 7d 91 d0 bc 36 cb 15 3e
       -0.684923 0.542433 -0.02546 0.146283
000200 00 04 c7 bc 19 33 2e 3c 79 6e eb bc c2 a3 8d be
       -0.0242939 0.0106323 -0.0287392 -0.27664
000210 82 a8 9f bf 9f aa 2e bf f5 e6 21 bd b7 b7 fb bd
       -1.24733 -0.682291 -0.0395269 -0.122909
000220 fa 63 22 bf b5 8b 55 3f 0a 53 ef 3c 56 91 70 ba
       -0.634338 0.834163 0.0292144 -0.000917693
000230 f4 42 0d bc d1 5b 3c bd 24 48 84 3b aa 21 3b bd
       -0.00862192 -0.045986 0.00403692 -0.0456864
000240 15 57 8d 3f af b0 78 bf 61 32 a5 3e 9c 4e 5a bf
       1.10422 -0.971446 0.32265 -0.852762
000250 26 e4 b3 bf ca 6f d1 bd 5e 4a 2d 3e c1 1b 92 3e
       -1.4054 -0.102264 0.169229 0.285368
000260 c4 eb a2 be 81 21 bb 3d 90 12 4f 3f d2 8d 88 3e
       -0.318205 0.0913725 0.808877 0.266707
000270 29 3c 68 3c df 72 d0 bc d8 81 d3 bd 1c d3 93 3f
       0.0141745 -0.0254454 -0.103275 1.15488
000280 97 bf 9c 3d e2 56 2d bf 4e 0c 25 bf cc 7e 9d 3e
       0.0765373 -0.677107 -0.644719 0.307608
000290 36 5b 39 3d dc f4 97 3e 01 34 4a 3e bf 28 99 3e
       0.045253 0.29679 0.197464 0.299139
0002a0 27 2f 32 3e 74 a4 a9 bc 18 ed 01 3e aa 10 3f bf
       0.174008 -0.0207083 0.126881 -0.746348
0002b0 b8 90 17 be de c6 6a 3f bb 91 5e 3d 81 88 1e 3d
       -0.148013 0.917097 0.0543382 0.0387044
0002c0 0d c5 01 3f 32 72 96 3f 83 21 e1 bc e3 64 2c bd
       0.506913 1.17536 -0.0274818 -0.0420884
0002d0 f5 84 e3 3b 97 56 33 be d0 5b 41 bd c0 03 43 3e
       0.00694334 -0.175135 -0.0472067 0.190444
0002e0 ad 8a 20 3e 71 c7 dd 3b bb 29 65 be 6c cf 10 3f
       0.156779 0.00676816 -0.223792 0.565665
0002f0 47 3b 8e be 45 23 a9 3c cf 68 07 bf 92 93 c9 be
       -0.277796 0.0206467 -0.528943 -0.393704
000300 98 51 ec bd 50 c5 7d be 6f bb af ba b8 a9 26 bc
       -0.11539 -0.247823 -0.00134073 -0.0101723
000310 52 0c 30 3e 38 11 d5 3e 86 73 c5 3e 69 c9 33 be
       0.171922 0.416147 0.385647 -0.175573
000320 70 a5 98 3d ca 34 da bd 0d a9 42 3e bf 9b 8e be
       0.0745343 -0.106546 0.190098 -0.278532
000330 ab 5d 33 bf dd b1 0c bf 6d e7 83 3e 84 10 12 3c
       -0.700648 -0.549589 0.257625 0.00891507
000340 4f 69 4e bd 30 0d b7 bf 34 6c ef bc 62 f9 6b bf
       -0.0503934 -1.43009 -0.0292264 -0.921774
000350 61 55 09 3f 3f 32 62 3d a3 5c 1a 3e ec c0 09 bf
       0.536459 0.0552237 0.150744 -0.5381
000360 4e 27 91 be 34 67 fd bd d7 6c b5 be 6d b9 0b ba
       -0.283503 -0.123732 -0.354346 -0.000533006
000370 15 90 36 3e c2 7e c4 3d 8b c7 00 3d 2d ec c5 bf
       0.178284 0.0959449 0.0314403 -1.54627
000380 8b 52 e2 3d 9b e3 3c bd e1 79 15 bf 05 6e d5 bf
       0.110509 -0.0461155 -0.583891 -1.66742
000390 f7 6c e7 3c e7 a9 e2 bf 6b c0 26 ba b1 88 f1 be
       0.0282502 -1.77081 -0.000636107 -0.471746
0003a0 82 75 c4 3e a3 e7 36 be 0c fb 62 3c 25 6f c5 bd
       0.383709 -0.178618 0.0138538 -0.0964034
0003b0 cf f5 fd 3d ec 4d bc be 1d 71 14 3f 2c b3 f4 38
       0.124004 -0.367782 0.579851 0.000116682
0003c0 c1 90 a1 bf 8f 55 02 bf c4 d1 75 3e f9 f7 99 bf
       -1.26223 -0.509118 0.240058 -1.20288
0003d0 af 5f 10 bf b1 86 1b 3e 12 e9 8d bd d5 03 52 bf
       -0.56396 0.151881 -0.0692922 -0.820371
0003e0 ad 4f 99 be de 92 5c 3e
       -0.299436 0.215404

Operation_1_Add_B f4 [50]
000000 2b 6e 37 bd 74 29 ce bd ef 37 2a be fa 7b e9 bd
       -0.0447828 -0.100665 -0.166229 -0.114006
000010 08 77 57 3e 10 40 3a be bc ad 00 bf 44 c2 33 3f
       0.210415 -0.181885 -0.502651 0.702183
000020 3c a2 8a be 4c 4b c1 bd 0c 3c 77 3d 68 e9 9a be
       -0.270769 -0.0943819 0.06036 -0.302562
000030 5b 50 4e bd 94 d4 2e 3c 3a e9 dd 3d 02 0a 1a 3d
       -0.0503696 0.0106708 0.108355 0.0376072
000040 78 41 44 3e 7a 1a b0 bc 95 34 b5 3d 6e e7 b1 bc
       0.191656 -0.021497 0.0884792 -0.0217168
000050 bd e4 d7 be 78 f2 99 be 96 1a eb bc b0 71 5d 3e
       -0.421667 -0.300678 -0.0286992 0.216254
000060 8b 50 5c be f1 aa fd 3c f0 8b eb 3d 7c 27 56 be
       -0.215151 0.0309653 0.115013 -0.209135
000070 60 e3 1d 3c e6 20 2c bf 9d df cb bc b6 30 0b 3e
       0.00963673 -0.672377 -0.0248869 0.135928
000080 ac 90 c2 be 13 ae d1 bc 4b 8e fd 3b f1 0e 88 be
       -0.38001 -0.0255957 0.00773791 -0.265739
000090 08 75 f1 3d f1 83 63 be aa 65 0b 3e a7 c7 5b bc
       0.117899 -0.222183 0.13613 -0.0134143
0000a0 65 aa 30 be cd 5e 51 3d 11 d6 10 bc 62 bd 11 bf
       -0.172525 0.0511158 -0.0088401 -0.569296
0000b0 09 52 69 be a3 79 d0 be 3c 4f dc 3d 32 e4 90 be
       -0.227852 -0.407178 0.107573 -0.282991
0000c0 2d ed bc be ab e3 1d 3d
       -0.368997 0.0385472

Operation_2_MatMul_W f4 [50, 50]
000000 44 4c 19 c0 5e 2d b7 3d 2a 1f 22 be 60 00 06 bb
       -2.39528 0.089442 -0.158322 -0.0020447
000010 79 06 61 3f 27 88 9a bf a8 ac 66 3f 8c ba 3b bd
       0.879005 -1.20728 0.901072 -0.0458322
000020 be 33 b9 ba 9d df 4b 3d ba 82 85 3e 41 7c 85 3d
       -0.00141298 0.0497738 0.260763 0.0651784
000030 89 d1 f3 3d 63 9c af 3f f2 a3 10 3d fd 87 20 3f
       0.119052 1.37196 0.0353126 0.627075
000040 63 ed 13 3f 8f 2b e0 bb ee 28 49 bd 14 ae 27 3e
       0.577841 -0.00684113 -0.0491113 0.16375
000050 b6 d8 ad be 79 73 68 3f f9 31 56 be 17 a0 5d bf
       -0.339544 0.908012 -0.209175 -0.865724
000060 95 26 aa 3d 66 d9 93 3e 5b 43 f1 3e 90 87 3e 3f
       0.0830814 0.288768 0.471217 0.744256
000070 02 f1 8a be df a6 bf 3c 04 73 b8 3f 6a 86 ec 3e
       -0.27137 0.023395 1.44101 0.461963
000080 ec d0 bc 3b bd 9a 52 bd 6c 5c ff be 74 7d 5f 3e
       0.00576221 -0.0514171 -0.498752 0.218252
000090 2d 86 81 3d 83 fb 39 bf f6 62 b8 bf a5 c9 1b bd
       0.0632442 -0.726494 -1.44052 -0.0380341
0000a0 0e 45 96 3d be c8 ba 3a 41 2a 21 bf b3 28 cc be
       0.0733739 0.00142505 -0.629551 -0.398748
0000b0 8b 89 a5 bf ef 54 30 be b1 db af be 31 b1 99 3f
       -1.29326 -0.172199 -0.343473 1.20072
0000c0 62 12 3e be 13 9b 8f 3e 67 81 96 3e dd b2 7f bf
       -0.185617 0.28048 0.293956 -0.998823
0000d0 2e 8d af 3e a0 31 34 bb c8 0b e9 3e 8b 6c a7 bf
       0.342874 -0.00274954 0.455168 -1.308
0000e0 a2 7f ca 3f 0c c9 b1 3e c8 8d ec 3c a8 8a e9 bc
       1.58202 0.347237 0.0288762 -0.0285085
0000f0 a8 70 f4 3e 50 8d 8f 3f e5 a2 80 bd 59 fa f4 3f
       0.477422 1.1215 -0.0628107 1.91389
000100 5f f4 30 bd e3 34 ac 3e cc d1 6f 3f 5a 53 2f bd
       -0.0432018 0.336341 0.936795 -0.0428041
000110 af 18 1f 3d 84 9b 28 3f b3 06 4f be ba 08 8d bd
       0.0388419 0.658623 -0.202174 -0.0688643
000120 a7 02 ee bd e4 0f f6 bf 18 0a 40 bf f2 5d 6a be
       -0.116216 -1.92236 -0.750154 -0.228874
000130 9d dd 95 bd 52 b8 0e 3e a1 2c dc bd 5f 24 0a c0
       -0.0731766 0.139375 -0.107507 -2.15847
000140 b1 a7 8d 3f d5 f5 7a bd f9 65 a5 bd 73 80 25 bd
       1.10668 -0.0612696 -0.0807609 -0.0404057
000150 1c 42 c5 3e 29 dc 21 3d 4c 33 7d be a0 52 ed be
       0.38527 0.0395166 -0.247266 -0.463521
000160 b6 9f 3c bf 82 2e 4b bd 1d 38 ff 3e 93 1d 3b be
       -0.736812 -0.0496049 0.498475 -0.18273
000170 0b 98 c8 bf 2b 18 b5 bf ce c6 e2 be b0 1b f6 3d
       -1.56714 -1.4148 -0.442923 0.12017
000180 d7 b5 c7 3c b4 71 c0 3f 15 8f 93 be 95 66 7f bf
       0.0243787 1.50347 -0.288201 -0.997659
000190 7a 8d 7d 3d 8f 1d 4c bf d3 a4 02 40 74 5c 0d 3d
       0.0619025 -0.797326 2.04131 0.034512
0001a0 58 c5 8b 3f e6 02 2f bf fc 51 00 bf a3 73 3e be
       1.09196 -0.683638 -0.501251 -0.185988
0001b0 f3 57 c8 3b aa 81 e6 bc c1 3b 89 bd 88 0f 60 3f
       0.006114 -0.028138 -0.0670085 0.875237
0001c0 bf d6 49 3f a5 fe 15 3d c7 1a e4 bc c6 6c 8b 3b
       0.788433 0.0366198 -0.0278448 0.00425491
0001d0 7d ad 8b 3e 78 04 9e 3b 5d 2b 6b 3c 18 ec b6 bf
       0.272808 0.00482231 0.0143536 -1.42908
0001e0 ca fb f0 3e 0a d7 a0 c0 51 4c 2e be 13 0f 24 3f
       0.470671 -5.02625 -0.170213 0.640855
0001f0 1d 94 ec 3f bc 21 b5 be 26 01 4e 3f 61 71 02 c0
       1.84827 -0.353773 0.804705 -2.03817
000200 01 32 bc be 96 cc 65 bf 28 f2 e0 bf 85 08 78 be
       -0.367569 -0.897653 -1.75739 -0.24222
000210 1e 9c 19 bd 46 33 25 3d 9b cb 0d 3e 02 9b 33 be
       -0.0375024 0.0403321 0.138472 -0.175396
000220 f8 c2 cc be bb f2 0d 3f 61 54 0c c0 6e 09 2a 3d
       -0.399925 0.554485 -2.19265 0.0415129
000230 7b 14 ba 3f ca df 39 3f 6d 20 0d bf 6a 30 17 c0
       1.45375 0.726071 -0.551276 -2.36233
000240 f5 be a3 40 0b 46 1b c0 65 31 96 3c 94 33 e4 be
       5.11706 -2.42615 0.0183341 -0.445706
000250 0d e3 4e 3e a5 7e 23 3d b3 d1 d9 bd d6 ff 09 bf
       0.202038 0.0399157 -0.106357 -0.53906
000260 0a 30 2c be 66 42 5d 3c 69 60 aa 3d 25 23 bf 3f
       -0.168152 0.0135046 0.0831917 1.49326
000270 6e b6 b3 3d 6b bb 65 bf c6 61 1a bd 18 36 b1 bb
       0.0877503 -0.897391 -0.0376909 -0.00540806
000280 b9 38 ea 3d 12 bd 40 c0 e1 7a a4 bf e7 e0 11 3f
       0.114366 -3.01154 -1.285 0.569838
000290 5f a5 b1 bc 67 f0 af be f6 43 04 bf 2c 2f 54 3c
       -0.0216853 -0.343631 -0.516662 0.0129507
0002a0 64 80 1a bd 34 2e e8 bf c5 ac f7 3d 60 92 ca 3e
       -0.0377201 -1.81391 0.120935 0.395648
0002b0 4c 06 a6 bd a8 3a a0 3f 9a 5c c4 be ff ae b4 bd
       -0.0810667 1.25179 -0.383519 -0.0882244
0002c0 7d e2 e7 3a 48 a3 c2 be ad 15 9d be 95 0b 95 bc
       0.00176914 -0.380152 -0.306806 -0.018194
0002d0 78 28 86 bf 5b 7d f5 bc ce e1 da 3d 5e c3 08 3b
       -1.04811 -0.029967 0.106876 0.00208684
0002e0 51 4b d3 bd 03 5f a9 3e 97 25 b0 bd 21 8f a8 be
       -0.103171 0.330803 -0.0860092 -0.329217
0002f0 0c 56 14 3f 37 49 fd 3c 59 6b 38 3e a0 1b 9a bd
       0.579438 0.0309187 0.180097 -0.075248
000300 56 29 39 3f 79 40 19 3f 42 94 57 3f b3 42 01 be
       0.723287 0.59864 0.842106 -0.126231
000310 ff 96 00 3e b8 23 e0 bf 98 ea b8 3d f0 6c 0f be
       0.125576 -1.75109 0.0902912 -0.140064
000320 e7 39 ba 3e 5d fa 4f bf 39 46 92 3e 42 d6 2e 3c
       0.363723 -0.812414 0.285692 0.0106712
000330 ca fd 20 c0 db 85 8e 3f 17 62 05 3f cb f3 28 3f
       -2.51549 1.11346 0.521028 0.65997
000340 f2 61 16 bd 6c 1e 2c 3c 1e f9 23 be e5 61 e1 bf
       -0.0367145 0.0105053 -0.16013 -1.7608
000350 98 50 89 3e 07 ee 44 bf e4 0e c0 3c 90 6a 88 be
       0.268193 -0.769257 0.0234446 -0.266438
000360 43 04 64 bf 5b 2d 4b bd 43 01 19 bb 03 b1 24 bf
       -0.89069 -0.0496038 -0.00233467 -0.643326
000370 44 a2 10 3f 0f b4 92 bf a3 d7 85 3d 3a 08 4a 3f
       0.564976 -1.14612 0.0653527 0.789188
000380 e9 99 2e bf be d8 1b be de 3e 43 3f a5 15 f7 be
       -0.682036 -0.152194 0.762678 -0.482587
000390 a5 11 53 3e fe 48 71 3d 11 1b 28 bf 73 d7 e2 be
       0.206122 0.0589075 -0.656663 -0.44305
0003a0 d4 7a fc 39 51 e7 9f bb 0a 22 bc 3d d0 27 22 3e
       0.000481567 -0.00487987 0.0918618 0.158355
0003b0 d2 c3 b8 3e 1d ae bd 3e eb ab 5f 3f d5 17 d3 3c
       0.360869 0.370469 0.873717 0.0257682
0003c0 6f 9b f1 3e 09 6d 81 bf 06 9c 45 bf 02 0f bc be
       0.471889 -1.01114 -0.771912 -0.367302
0003d0 6b 40 09 bd 08 8f a6 bf 2f cb cd bc 66 4e ef be
       -0.0335087 -1.30124 -0.0251213 -0.467395
0003e0 6e 77 85 bc c9 3a 2c 3f 11 e4 b0 3f 0a 85 c8 3f
       -0.0162923 0.672772 1.38196 1.56656
0003f0 f8 6b d6 bf 75 fc fc bc c5 20 c8 bf 81 78 0d 3f
       -1.67517 -0.0308821 -1.5635 0.55262

Operation_2_Add_B f4 [50]
000000 3c 31 37 bf 0d de 67 3e d5 7a ef 3e cc 03 bd bc
       -0.715595 0.226433 0.467734 -0.0230731
000010 8d f0 7e bf c5 3b 08 bf 98 a4 32 3f 4c 88 a1 3e
       -0.995858 -0.532162 0.697824 0.315493
000020 3e 92 f7 bc 0f 5d f5 bc 2b 4f a0 be 61 8b 61 bf
       -0.0302211 -0.0299516 -0.313104 -0.881033
000030 0f 27 40 be a0 a6 00 c0 7e ff a6 bc 9c 34 85 be
       -0.187649 -2.01017 -0.0203855 -0.260167
000040 07 d1 9a 3e d6 ee 0f bc e3 01 40 bc 93 e3 a6 3f
       0.302376 -0.00878497 -0.0117192 1.30382
000050 ea b1 cd bd e4 10 f9 be c3 b8 7b 3e a3 3d 7e be
       -0.100437 -0.486457 0.245822 -0.248282
000060 04 e2 8d 3f 5b 60 ef bd 8f fc 01 be 8c 0d 22 bd
       1.10846 -0.116883 -0.12694 -0.0395637
000070 77 bb 9e 3e 11 b7 53 ba ec 84 1f 3f 9a 02 3e 3d
       0.310024 -0.000807629 0.623122 0.0463892
000080 29 24 59 3e b7 a7 75 bc 1d 35 cb bd 35 b2 bb 3d
       0.212052 -0.0149936 -0.0992224 0.0916485
000090 36 04 bf 3e 6e eb 1d bd 9e ce 25 3e fe ff 49 bc
       0.373079 -0.0385546 0.161921 -0.0123291
0000a0 db 24 75 bd 5c e7 97 be 86 5a 8b bf 2d 5a b5 bd
       -0.0598496 -0.296687 -1.0887 -0.0885509
0000b0 47 5a ba 3e 48 6a 71 3e 93 09 ae bc de c8 d0 3f
       0.36397 0.235757 -0.0212448 1.63113
0000c0 9f 91 28 be 58 fe a1 3c
       -0.164618 0.0197746

Operation_3_MatMul_W f4 [50, 50]
000000 32 c9 e8 be d9 08 8c 3f 28 b8 88 3f 18 b2 db bb
       -0.45466 1.09402 1.06812 -0.00670458
000010 d3 2d d3 3e f6 97 67 40 c2 31 2f 3f 9f 4f ee bc
       0.412459 3.61865 0.684353 -0.0290907
000020 08 cd 5e 3f f5 81 ac be 52 ba 7c 3f 3c da a8 3e
       0.870316 -0.336929 0.987218 0.32979
000030 e0 47 19 bf e9 43 33 3f 24 62 c2 3f a7 53 83 bd
       -0.598753 0.700255 1.51862 -0.0641244
000040 8e 58 d7 3f 21 b0 8b c0 6d 73 ef bf 3a 2c 63 3d
       1.68239 -4.36525 -1.87071 0.0554621
000050 00 e3 d9 bd e3 a8 0c 3e 39 25 10 3e cb b9 ac 3f
       -0.10639 0.137363 0.140767 1.34942
000060 6e 2d 18 3d 39 45 67 3f aa 7d 82 3e 15 c8 fc be
       0.0371527 0.9034 0.254865 -0.493714
000070 7c 0f af 3f 57 c7 96 bc 39 28 f1 3e c9 3c 52 3e
       1.36766 -0.0184056 0.47101 0.20531
000080 49 9d 70 3e d6 e1 f8 be f2 41 8a c0 44 17 cc 3f
       0.234975 -0.486098 -4.32055 1.59446
000090 c0 09 ad 3f d0 44 68 bf 3f 74 27 c0 1f 9d 52 bf
       1.35186 -0.9073 -2.61647 -0.82271
0000a0 8f 63 85 3d b8 75 25 40 bf 28 31 be 0a 81 5c 3f
       0.0651313 2.58531 -0.173007 0.861344
0000b0 88 49 b0 3e 63 b9 a9 3f 07 29 80 3e b9 88 8b 3f
       0.344311 1.32597 0.250313 1.09011
0000c0 df a8 e5 be 93 56 cc 3e 29 d0 b3 3f a5 d8 49 3f
       -0.448554 0.399098 1.40479 0.788462
0000d0 b6 4d 11 3f c4 d0 82 be c2 87 42 bf 98 31 b5 3e
       0.567592 -0.255499 -0.759884 0.353894
0000e0 d3 4b e4 be ce c6 3a be f3 e6 74 3f 44 32 b4 3e
       -0.445891 -0.182399 0.956649 0.351946
0000f0 fa 26 85 3e 3f 3b 0c 3f 65 53 08 c0 7d cb fc bf
       0.260063 0.547779 -2.13009 -1.97496
000100 75 93 b0 be b0 37 21 be f5 67 6b 3f cc 5f 71 3e
       -0.344875 -0.157439 0.919555 0.235717
000110 12 14 c3 bf 25 e9 d2 be be c0 d4 3e ce fb 0f be
       -1.52405 -0.411935 0.415533 -0.140609
000120 3f 3b b0 be 27 a2 47 bf cf fb 1a bd 86 54 51 3e
       -0.344202 -0.779818 -0.0378378 0.204424
000130 ce c2 fe 3d 0c 94 64 be ca dc bc 3e 50 1d 1b bf
       0.124395 -0.223221 0.368872 -0.605916
000140 b5 19 5f 3f f8 4f d7 3d 2d ee 6f 3e 52 7d 6b 3f
       0.871486 0.105133 0.234307 0.919881
000150 74 44 86 3e 75 56 1b 3f 24 d1 eb 3d e1 b4 60 bc
       0.262241 0.606788 0.115145 -0.013715
000160 99 12 e1 bf 4b 73 db 3e 09 16 bb 3f db bf ce 3f
       -1.75838 0.428614 1.46161 1.61523
000170 73 12 0e 3f c4 cf 3b 3f e9 2b 8c 3f 28 7e bc 3f
       0.554969 0.733639 1.09509 1.4726
000180 d6 56 9c bf d7 2f 32 c0 05 dd ce 3e 69 8f c7 be
       -1.2214 -2.78417 0.40403 -0.389766
000190 b1 18 25 3f 68 22 84 bf 22 de da be eb e6 a2 be
       0.644908 -1.0323 -0.427476 -0.318168
0001a0 05 df bc 3e 12 a5 0d 40 09 c6 35 bf 70 60 12 3e
       0.368889 2.2132 -0.710053 0.142946
0001b0 4b 4f a2 3c 9b 59 2b 3e 37 4b 8e bd d4 1e 90 bd
       0.0198132 0.167334 -0.0694794 -0.0703713
0001c0 31 c7 7c bd 24 d1 6f c0 c2 ec 2f bc b7 a0 d2 3c
       -0.0617134 -3.74714 -0.0107376 0.0257114
0001d0 1f 4b 3f 3e 9e f6 0f bd ec 34 aa bf 73 d9 e8 3e
       0.18681 -0.0351473 -1.32974 0.454784
0001e0 e0 d5 ca 3e f8 98 9b bb 7d e3 d0 bc ee 05 1a 3f
       0.396163 -0.00474846 -0.0254991 0.601653
0001f0 37 ec ed bc 66 c1 fc 3e 4e f1 b8 be df 89 b1 3f
       -0.0290433 0.493663 -0.361216 1.38702
000200 5f 7e 0f 3f c0 e6 c1 3d 1f d6 7b bf 8f 62 0c 3c
       0.560522 0.0946784 -0.983736 0.00856842
000210 48 1a b4 be 9b 3d a0 3e c1 39 33 3f ee 08 d3 bf
       -0.351763 0.31297 0.7001 -1.64871
000220 5d 6a 54 3f 5b 08 13 bc 54 3a a8 3f a7 cc 85 be
       0.829748 -0.00897416 1.31428 -0.261327
000230 62 9d 56 3f eb 55 60 3f 82 1b 29 3e 7f 2e 4a 3f
       0.838339 0.876311 0.165144 0.789772
000240 9a b8 80 bd 96 a9 be 3d 20 27 bc 3e ff b2 af c0
       -0.0628521 0.0930969 0.367486 -5.4906
000250 40 c3 fb 3e b3 91 a0 bd 11 e5 8b bc 0b 32 b8 3c
       0.491724 -0.0784029 -0.017077 0.0224848
000260 dc d9 97 3c a8 6f 39 bd b9 95 94 bc 4b 39 9f 3c
       0.0185365 -0.0452725 -0.0181378 0.0194365
000270 25 8e 61 3c 68 68 b2 3c 94 12 07 3d 21 27 e7 bc
       0.0137668 0.0217783 0.0329767 -0.0282169
000280 aa c6 41 bd 22 4e 2b 3b c3 47 84 3c 53 97 cc bc
       -0.0473086 0.00261391 0.0161475 -0.0249745
000290 e1 ec 16 bd b9 53 1a bd 47 2d c1 bb 7e 7e 0e 3d
       -0.036847 -0.0376775 -0.00589529 0.0347886
0002a0 5d ce 1b 3d 54 43 b4 3b 80 ba 21 bd 69 5b 08 bd
       0.0380386 0.00550119 -0.0394845 -0.0332903
0002b0 ba d1 d1 bc 1d 87 cb 3c 40 02 15 3d 9d 9b 36 bd
       -0.0256127 0.0248447 0.0363791 -0.044582
0002c0 e5 68 69 3c 6d 45 31 bd f7 8d 34 bd 1a 68 23 3d
       0.0142462 -0.0432791 -0.0440807 0.0398942
0002d0 f6 6c 6b bb ba cc 3a bd ec 3e f6 3c 97 a1 fb 3c
       -0.00359231 -0.0456054 0.0300593 0.0307167
0002e0 7b 3a 8d bc 89 6f b2 3c eb be ed bc ea b8 15 3d
       -0.0172398 0.0217817 -0.0290217 0.0365533
0002f0 1d c7 cf bc 49 25 06 3d 4d a4 cf bc c5 d0 05 3d
       -0.0253635 0.0327504 -0.0253469 0.0326698
000300 04 57 1a 3b dd 24 06 3d 2b db 47 bd 13 60 7d 3c
       0.00235504 0.03275 -0.048793 0.0154648
000310 16 45 19 3d 05 98 51 3a d7 2f d8 bc f9 b9 66 bd
       0.0374194 0.000799537 -0.02639 -0.0563297
000320 b4 e5 2a c0 b5 15 9b 3f 72 f9 17 3f 6c a4 5b bc
       -2.67027 1.2116 0.59365 -0.0134059
000330 14 01 c3 3d 25 e9 f6 3f df df 90 be c2 bf 0c 3f
       0.0952169 1.92899 -0.282958 0.549801
000340 b1 8b f2 3e 79 3b f6 3f 95 47 1b bf ae 49 07 3e
       0.473722 1.92369 -0.606561 0.132117
000350 d6 3a c9 3e a8 00 22 40 b7 4f 7d bd 7a c5 13 be
       0.393027 2.53129 -0.0618436 -0.144308
000360 49 a1 4c 3f a4 a9 fe 3d b0 3d 03 3f 92 96 82 3f
       0.799336 0.124347 0.51266 1.02022
000370 39 d5 82 be fd 15 12 be c8 5b b3 3d 6f ba 8d 3e
       -0.255533 -0.142662 0.0875774 0.276813
000380 f7 65 df bc 11 8d 8e 3f c6 d2 d1 3c c2 69 6f c0
       -0.0272703 1.11368 0.0256132 -3.74083
000390 49 2c 41 3f 16 35 c8 bf 67 0a d1 3f af 97 0e 3f
       0.754582 -1.56412 1.63313 0.557002
0003a0 2a 6f b7 be e8 bc 00 c0 b7 ee 68 c0 9b 1d 69 be
       -0.35827 -2.01153 -3.63957 -0.227652
0003b0 88 0e 81 be 2c 46 35 bf 60 04 9d be a0 3c 27 3d
       -0.252064 -0.708102 -0.306674 0.0408293
0003c0 f0 a6 0b 3f 09 fc 91 3e b2 11 d4 bf 22 de 06 3f
       0.545516 0.285126 -1.65679 0.526827
0003d0 3f 1d e7 3f 6c b3 c1 3e 17 0f 7b 3f 4a 46 6e 40
       1.80558 0.378322 0.980699 3.72304
0003e0 00 8a 36 bd 27 16 68 be 82 e4 49 bf dd 78 77 bc
       -0.0445652 -0.226647 -0.788643 -0.0151045
0003f0 35 b7 32 3e 5a 83 97 be f2 d2 69 bf 86 31 b3 3d
       0.174527 -0.295924 -0.913375 0.0874968

Operation_3_Add_B f4 [50]
000000 39 b9 2f 3f de 8e a0 bf 31 d0 65 3f 44 df dd 3c
       0.68642 -1.25436 0.897708 0.027084
000010 04 8e 18 bf dc 47 62 3f 68 96 38 bf a5 30 07 bf
       -0.595917 0.883909 -0.721045 -0.528086
000020 9a ed 26 bf 13 0f 20 c0 64 1f 78 bf a1 a2 5a 3e
       -0.652063 -2.50092 -0.969229 0.213511
000030 86 bf 10 bd f1 29 c0 3f 67 0a b9 bf 99 bc 45 bf
       -0.0353389 1.50128 -1.44563 -0.772409
000040 2b 87 9a 3f d0 f2 84 bf a2 7a a3 3f f5 2d cb bf
       1.20725 -1.03866 1.27718 -1.58734
000050 c4 21 1f bf 69 e1 16 bf 99 84 2b be 68 e7 f4 3d
       -0.621609 -0.589377 -0.167498 0.119582
000060 e1 62 45 bc f9 83 85 bf d9 3f af 3e 44 32 44 be
       -0.0120475 -1.04309 0.342284 -0.191598
000070 7e 8c e9 bf fc 52 03 3f 68 05 fe be 9e 29 b4 bf
       -1.8246 0.512985 -0.496135 -1.40752
000080 8f a8 d0 3d d6 c5 59 3f ae 46 de 3e 43 59 f8 bd
       0.101884 0.850675 0.434133 -0.121264
000090 1a 32 02 bf 59 78 4d 3c 5b 28 49 3e 1b 13 52 be
       -0.508577 0.0125409 0.196443 -0.205151
0000a0 c6 a9 71 bd 91 2c 0e c0 f3 5a 09 bf 64 20 1b bf
       -0.0589998 -2.22147 -0.536544 -0.605963
0000b0 e6 79 8c bf e0 81 59 bf e2 74 22 be 09 51 7e be
       -1.09747 -0.849638 -0.158649 -0.248356
0000c0 67 bd b3 bd 61 8b 85 3e
       -0.0877636 0.260829

Operation_4_MatMul_W f4 [50, 50]
000000 dc 2f 8f 3e 89 f0 97 be 53 cb 4e 3f 44 f1 0f 3d
       0.279662 -0.296757 0.80779 0.0351422
000010 84 2e 7d 3f 8b 54 a4 3f 3c 88 e5 3f 14 09 3a bf
       0.988991 1.28383 1.79322 -0.726701
000020 ba 31 ad 3e b6 f8 b4 bf 10 06 6e 3f ef 55 bf 3f
       0.33827 -1.41384 0.92978 1.49481
000030 34 f8 e3 be 46 b1 00 3f c9 ac ce 3e 1a 4e 29 3f
       -0.445253 0.502705 0.403662 0.661348
000040 11 35 f1 3e 72 52 0c bf 4a c7 46 bd b8 23 b7 bd
       0.471108 -0.548133 -0.0485299 -0.0894236
000050 95 f1 df 3f 3a cc 83 3f ec 2e 14 3f 1f a0 23 bf
       1.74956 1.02967 0.578841 -0.639162
000060 f3 a6 68 bb 7c 7f 53 3e e9 f0 d8 be 78 d3 ed bd
       -0.00354999 0.206541 -0.423713 -0.116126
000070 1f 0e 32 3d 59 31 9c be c7 9c 27 3e df c7 e5 39
       0.0434705 -0.305064 0.163684 0.000438272
000080 fb 20 db be f6 0b a2 3f 66 d9 8b be e0 a1 c4 3f
       -0.427986 1.26599 -0.273143 1.53619
000090 62 b5 de bc 92 3b bc 3e e4 bc 17 3f 25 e9 ce 3f
       -0.0271861 0.367642 0.592726 1.61649
0000a0 a8 c5 64 3f 34 2e 3c 3f dc 11 de bf 13 9d bd 3e
       0.893641 0.73508 -1.73492 0.370339
0000b0 53 75 23 bf 52 7e 5a c0 60 76 83 3f 33 31 4d 3e
       -0.638509 -3.41396 1.02705 0.200383
0000c0 0b d3 2b bf 21 56 97 be a5 db 0e 3f ff e7 8c 3f
       -0.671189 -0.295579 0.558039 1.10083
0000d0 7c b8 1a 40 1c 25 07 bf bc cb b1 3f 68 5c f4 3f
       2.41751 -0.52791 1.38903 1.90907
0000e0 6b 9f fa bf 18 b2 9e 3f 92 05 e0 3f 71 56 14 3f
       -1.95799 1.23981 1.75017 0.579444
0000f0 76 ff 30 3f 32 e6 e6 3f 5b 0a 90 be 7a fe 20 bf
       0.691398 1.8039 -0.281329 -0.628883
000100 8f df 2b 3e 31 ec 58 3f 9b fe c4 3f e5 d0 a2 3f
       0.167845 0.847354 1.53902 1.272
000110 e9 2b 3c 3f 72 de df 3e c1 e3 1b 3d 77 db 81 3f
       0.735045 0.437244 0.038059 1.01451
000120 e7 50 96 3e 4f 06 db 3f 75 d3 01 bd 68 ae 8b bf
       0.293586 1.71113 -0.0316958 -1.09126
000130 2d 3e 99 bf 38 f9 bd 3d be d9 b6 3f 49 4a 92 be
       -1.19721 0.0927605 1.42852 -0.285723
000140 f1 4b 09 40 54 6e 22 bd 59 a3 8e 3e 97 ca c7 3f
       2.14526 -0.039656 0.27859 1.56087
000150 1c ce ec be 4a 45 3f 3f 66 6b b1 bf 50 c2 cc bf
       -0.46251 0.747151 -1.38609 -1.59968
000160 a5 bd 2d 40 6d 56 07 c0 cd 75 82 3f eb ac 12 3f
       2.7147 -2.11465 1.01922 0.572951
000170 af eb 3f 40 a9 9f a3 3f 77 2b d3 be 7a 53 0d c0
       2.99876 1.27831 -0.412441 -2.20822
000180 87 50 55 3e 8e af c1 bf 2d 0a 6b 3e 65 c8 49 3f
       0.208315 -1.51317 0.229531 0.788214
000190 28 43 ad 3e d2 a6 2a bf d2 1d a0 3f c9 8e d1 3f
       0.338403 -0.666608 1.25091 1.63717
0001a0 1f 68 a1 3f 5f b3 1c bf 24 d4 7c be 3a 3d af 3e
       1.26099 -0.612112 -0.246903 0.342264
0001b0 ae 9e 15 40 ba 6b ad 3f e4 2b c6 bd d4 2b b9 3f
       2.33781 1.35485 -0.0967634 1.44665
0001c0 02 61 27 be 2c 0e e7 3f 7e e3 bb 3e 3d 2c 88 3f
       -0.163456 1.80512 0.36697 1.06385
0001d0 82 73 9a 3f 9c 19 4d 3f 2d cf e3 be 54 1a 31 3e
       1.20665 0.801172 -0.44494 0.172952
0001e0 f7 1e 02 3f a0 fd 9c 3f 8f 6c 2e be 46 40 35 3f
       0.508285 1.22649 -0.170336 0.708012
0001f0 7c 04 08 bd 3e 59 7d 3f ef 70 5b 3f 79 01 02 bf
       -0.0332074 0.989643 0.857192 -0.507835
000200 16 c1 7f bf 2e c8 66 3f c2 51 fe 3f 26 ae 3e 3c
       -0.99904 0.901492 1.98687 0.0116382
000210 54 6e b2 be da 72 00 40 c6 8a ea 3f 82 e2 cb 3f
       -0.348498 2.00701 1.83236 1.59285
000220 16 f9 29 3f 59 c2 8a be 71 c6 68 bf 41 2a 7d bf
       0.663957 -0.271014 -0.909278 -0.988926
000230 d2 a7 c5 3e 3e 92 ea 3e cc 7f 56 40 f5 68 9a 3e
       0.386046 0.458147 3.35155 0.301582
000240 71 8f 05 be 86 03 c6 40 43 71 47 3f 87 a2 06 c0
       -0.13043 6.18793 0.779072 -2.10367
000250 b4 ac 3f 3f 7b f6 9c be 07 40 28 bf 44 a2 7c 3f
       0.748729 -0.306568 -0.657227 0.986851
000260 c5 c9 1b 40 47 21 31 3f 0d 8e 8e 3f 0b 08 45 3f
       2.43419 0.691914 1.11371 0.769654
000270 63 d1 12 40 25 43 99 3d 82 ab cc 3d 68 cb c5 bf
       2.29403 0.0748351 0.0999365 -1.54527
000280 cb f3 84 3f 51 f7 b1 bf 8c 9f 86 be 26 53 13 c0
       1.03869 -1.39036 -0.262936 -2.30195
000290 e2 21 6c be 79 ea 81 3e 99 62 32 bf 2e c6 20 be
       -0.230598 0.253742 -0.696817 -0.157006
0002a0 54 57 d2 bf 89 d4 44 3e 5e 2e 9a 3f 42 ea c6 be
       -1.64329 0.192217 1.20454 -0.388506
0002b0 6a bc d4 3e 52 d5 b8 3f c9 1b 85 3c c1 1d e8 3d
       0.4155 1.44401 0.0162486 0.113338
0002c0 fb 04 a0 bd 2d 40 47 3f a2 28 50 3e e3 8c 2d 3f
       -0.0781345 0.778323 0.20328 0.677931
0002d0 19 ff c2 3f c9 a0 04 3d b2 7c 22 bd d4 5f 6f 3f
       1.52341 0.0323799 -0.0396697 0.935056
0002e0 93 57 df be 61 6c 83 40 8b 6c 2b bf a0 89 e8 bf
       -0.436215 4.10698 -0.669625 -1.8167
0002f0 77 bf e2 be bc 3f ce bf 46 ce f2 3f 03 3b e1 bb
       -0.442867 -1.61132 1.89692 -0.00687349
000300 0c 3c 2d 40 90 4a d1 3e bb d5 14 3c f4 a5 97 be
       2.70679 0.408772 0.00908416 -0.296188
000310 45 9e e0 3f 88 f4 13 3f 08 cc 33 be a6 ed 5f 3e
       1.75483 0.57795 -0.175583 0.21868
000320 0d 18 60 3f 7d 5c 01 40 7d 96 13 3f a6 62 27 3f
       0.875367 2.02127 0.576515 0.653849
000330 76 e0 c4 3f 36 21 c5 be 79 b0 fd be dd ef e0 bf
       1.5381 -0.385019 -0.495487 -1.75732
000340 12 a5 ed bf ef 03 f4 bf cf a0 67 40 4f ca 14 be
       -1.8566 -1.90637 3.61919 -0.145303
000350 dc 29 fd bd d8 61 a4 3e b6 14 d0 3d d3 1c 14 bd
       -0.123615 0.321059 0.101602 -0.0361603
000360 85 7c 28 40 e7 df ee 3d 58 8d fd 3e 89 41 28 3f
       2.6326 0.116638 0.495219 0.65725
000370 b7 d0 71 3f d8 64 dd 3f ba 11 3e 3f 0e f8 a4 3f
       0.944591 1.72964 0.742458 1.28882
000380 02 c2 bd 3c 9c 30 f1 be e7 1a 62 bf 15 70 6f be
       0.0231638 -0.471074 -0.883223 -0.233826
000390 7b da b9 3f 3f fe 3a bf f1 64 c7 3e ad 06 97 bc
       1.45198 -0.730442 0.389442 -0.0184358
0003a0 f9 4e 94 be af ce 0d 40 42 ec 30 3f 3d 44 3b c0
       -0.289665 2.21574 0.691105 -2.92604
0003b0 bc e8 8f bf e2 23 82 bf 21 cd 38 c0 d0 61 de bf
       -1.12429 -1.01672 -2.88752 -1.73736
0003c0 78 f2 55 3f a2 7a b3 3f ea cf 0a 3f 68 05 06 3e
       0.835731 1.40218 0.542235 0.13088
0003d0 56 c4 3f bd 24 b9 4c bf 47 55 a3 bf b2 83 7a 3e
       -0.0468181 -0.7997 -1.27604 0.244643
0003e0 ef 1f 7b bf 2a 37 d1 3e 1c 24 a4 be d6 05 77 3d
       -0.980956 0.408624 -0.320588 0.0603083
0003f0 58 73 80 bf 4c 89 8c 3f 02 4b 1a bf 17 b8 ac be
       -1.00352 1.09794 -0.602707 -0.337342

Operation_4_Add_B f4 [50]
000000 eb a8 c6 3f 7a a8 35 bf a8 e3 3b 40 14 ed 62 c0
       1.55203 -0.709602 2.93577 -3.54572
000010 0a 6a 58 3e 8e 06 8c 3f e9 c8 ab bd 8c be 5e 40
       0.211342 1.09395 -0.0838793 3.48038
000020 e0 14 3a 3f 4d bd 7a 3f f0 c4 98 bf 54 3a 60 3f
       0.726881 0.979451 -1.19351 0.87589
000030 09 1b 2c c0 90 31 9b 3f 75 c8 fd bf e0 10 0a 40
       -2.68915 1.21245 -1.98268 2.15728
000040 0f d2 2b bf 9f b0 bc 3e 02 d4 2a 40 3f 74 61 be
       -0.671174 0.368535 2.66919 -0.22017
000050 13 7e 9a c0 ab 26 a0 3f a0 df cf 3e c7 63 be bf
       -4.82789 1.25118 0.406003 -1.48742
000060 2e 1c c8 bc 1b 2a 48 40 b9 c7 a2 bf aa 82 15 3f
       -0.0244275 3.12757 -1.27172 0.584025
000070 8c be 96 40 66 a0 ca 3f 79 95 49 bf 2b ea 82 bc
       4.71076 1.58302 -0.787437 -0.0159808
000080 5b 99 12 40 fd a0 62 bf af eb 23 bf 99 7e b9 3e
       2.29061 -0.885269 -0.640315 0.362294
000090 a0 c6 6d 3e 40 a4 71 c0 db 6b 45 bf 4d f3 ee bf
       0.232203 -3.77565 -0.771177 -1.8668
0000a0 b7 09 f7 3e 29 b3 79 bf 57 cd 53 3f 07 eb cb bf
       0.482496 -0.97539 0.827352 -1.59311
0000b0 6a f5 aa bd 68 22 3c be 6f 64 2a 3f 07 b6 b6 3f
       -0.0834759 -0.183725 0.665595 1.42743
0000c0 cc 62 12 40 50 c7 af bf
       2.28728 -1.37327

Operation_5_MatMul_W f4 [50, 50]
000000 52 7c b4 3e dc 9d 95 bf 78 54 46 3c 8e 8f a6 3e
       0.352511 -1.16888 0.0121051 0.325314
000010 e7 8d 33 be 32 e6 8e 3f 53 e7 05 bf 8d 25 7c 3e
       -0.175346 1.1164 -0.523061 0.246237
000020 df e1 f6 3d 1b da 64 3f 84 2d 1e bf 60 73 6e bd
       0.120548 0.893953 -0.617882 -0.0582155
000030 dd 60 38 3e 8d 80 ba be 02 65 17 3f 9f 76 88 3f
       0.180057 -0.364262 0.591385 1.06612
000040 f2 b0 98 bf c2 66 85 3d 8a d2 d6 bb d8 9b b0 3e
       -1.1929 0.0651374 -0.00655586 0.344939
000050 12 9f fb bd 64 e9 a3 be 8c 4d a3 3e 45 84 7f 3f
       -0.122862 -0.32014 0.318951 0.998112
000060 41 66 17 3f 6c 29 cb 3d 88 26 85 bd 5f 26 1a 3e
       0.591404 0.0992001 -0.0650149 0.150537
000070 b7 99 16 3f c1 90 b1 bf 64 ce 27 3f f1 2e 0f c0
       0.588283 -1.38723 0.655493 -2.23724
000080 75 e4 88 3e 29 f6 06 3d 42 d2 b7 be dd b3 9e 3d
       0.267368 0.0329496 -0.359026 0.0774915
000090 5a 64 09 c0 61 c6 24 3e 19 39 83 bf 25 b1 34 3e
       -2.14675 0.160913 -1.02518 0.176457
0000a0 16 f8 0a 3e cb 44 16 3d 0b aa 17 bd 5b ea a0 3e
       0.135712 0.0366867 -0.0370274 0.314288
0000b0 d0 9b c6 3f c6 db 0a 3e fc e4 3c bf 56 b6 87 be
       1.55163 0.135604 -0.737869 -0.265063
0000c0 4f 75 90 3f 64 40 ea bf 8a 57 31 bf 21 1f 16 40
       1.12858 -1.83009 -0.692742 2.34565
0000d0 43 73 b5 bf 13 ef 64 3f 41 2b 02 c0 00 74 da c0
       -1.41758 0.894273 -2.03389 -6.82666
0000e0 34 f4 c7 be bd e1 f6 3e 78 0b 90 3f 09 e1 e1 3f
       -0.390535 0.482191 1.12535 1.76468
0000f0 74 b3 f7 be 4e 28 74 3e 1e ff 65 be 0b 63 09 40
       -0.483791 0.238435 -0.224606 2.14667
000100 85 5f a2 bf 1c 5f b7 bf 3a cc 03 40 9a 94 16 bf
       -1.26854 -1.43259 2.05934 -0.588205
000110 aa 7d 06 40 9a 77 1c be 89 ef 8c c0 75 b0 96 bf
       2.10142 -0.1528 -4.40424 -1.17726
000120 60 05 18 bf d5 b2 09 40 a4 53 9f bf 0a 4d f2 be
       -0.593832 2.15154 -1.24474 -0.473244
000130 93 d4 d3 3c 91 ef f2 3d fd 10 db be 21 b0 a2 3f
       0.0258582 0.118621 -0.427864 1.271
000140 12 13 e4 3e aa 0c 0b 3f 69 35 94 3e fe 2b 4f 3f
       0.445458 0.543162 0.28947 0.809265
000150 23 f8 41 40 36 59 63 be f5 a2 0a bf 8f a5 a3 3f
       3.03077 -0.22202 -0.541549 1.27849
000160 de 5a 42 3f 88 f7 60 bf 97 ca 61 40 68 ea 5d 3f
       0.759199 -0.878777 3.52799 0.866858
000170 a0 39 26 3d 16 88 ae be a3 58 ca c0 d6 ff 49 bf
       0.0405823 -0.340882 -6.32332 -0.78906
000180 f6 b2 09 3f 90 bd 1e c0 1b f2 af 3e 30 65 1e 3c
       0.537887 -2.48032 0.343644 0.00966768
000190 de 8a b9 3d 87 4d 74 3e 95 f3 dd 3e 4c a6 9a bf
       0.0905969 0.238577 0.433499 -1.2082
0001a0 d2 8e 13 3f f2 41 b8 c0 5d c3 0c 3f cb 81 6e be
       0.576398 -5.75805 0.549856 -0.232917
0001b0 37 fc 96 be 24 b4 75 be ff 85 94 bc 51 de 57 be
       -0.294893 -0.239945 -0.0181303 -0.210809
0001c0 ca 6d 2b 3e 34 14 f7 be 6f 64 a2 3f 9d 46 ee 3f
       0.167411 -0.482576 1.26869 1.86153
0001d0 b0 72 a4 3f eb 8b dc bf ad c0 9c 3f ba ba 53 3e
       1.28475 -1.72302 1.22463 0.206767
0001e0 46 41 f0 bd 8e 57 30 3e 29 79 05 3f d2 18 3d c0
       -0.117312 0.172209 0.52138 -2.95464
0001f0 a5 f4 44 3f 9a 7a 8d be a0 59 ad 3d 20 b6 5c bf
       0.769358 -0.276326 0.0846436 -0.862154
000200 f4 e0 2e bd ea 21 f6 3f e2 91 d8 be 98 f8 57 3f
       -0.042695 1.92291 -0.422988 0.843637
000210 40 2f 84 be 65 c6 53 3f c9 02 26 bf 54 01 bf 3e
       -0.258173 0.827246 -0.64848 0.373057
000220 38 db 10 c0 ab 98 e5 bc 7e 52 05 c0 99 a9 bf 3c
       -2.26338 -0.0280269 -2.08316 0.0233963
000230 2d b2 e5 3e 97 58 29 3e 6f da c6 3a d2 a7 85 3e
       0.448625 0.165377 0.00151713 0.261046
000240 60 02 83 c0 90 6b e3 bd c2 6a b4 be 78 9c 0e c0
       -4.09404 -0.111045 -0.352377 -2.2283
000250 3e d0 9e bf fa d0 fd be 86 4a 2f 3b 50 39 e6 3d
       -1.24073 -0.495735 0.00267473 0.112414
000260 e6 52 21 3d 44 fb 38 3e 03 ea 01 3f 35 d4 a8 3e
       0.0393857 0.180646 0.507477 0.329744
000270 40 87 91 3e 4a ef 4b 3e ac 72 e1 3d 26 a9 10 3f
       0.284235 0.199155 0.110082 0.565081
000280 f1 2f 12 be 4b 01 19 3e 1e 17 05 3e 56 61 ab be
       -0.142761 0.149419 0.129971 -0.334727
000290 1e 35 56 bf 0a ee 9c 3d 30 81 e3 3e af 10 cc 3c
       -0.836748 0.0766259 0.444345 0.0249103
0002a0 11 c7 3a 3e ff 25 c1 3e a3 e7 22 bf b3 28 b4 be
       0.1824 0.377243 -0.636347 -0.351873
0002b0 c6 6c 91 be 79 04 07 be f6 42 51 3e e5 7f ea be
       -0.284033 -0.131853 0.204357 -0.458007
0002c0 db 4d f0 bd 13 7e 29 3e f7 80 12 3b 93 a1 cf 3c
       -0.117336 0.16552 0.00223547 0.0253456
0002d0 c9 8e 95 be 5d 6d 05 bd d5 20 4c bf 82 7b 89 bd
       -0.292105 -0.032575 -0.797376 -0.0671301
0002e0 a5 16 b2 be e5 6c c0 bd ee e0 8e 3b 04 59 b7 3e
       -0.347829 -0.0939577 0.00436031 0.358101
0002f0 e9 28 67 be 0a 31 d7 3d 7c 44 e4 3f 8f 50 fb 3e
       -0.225742 0.105074 1.78334 0.490849
000300 4c a6 4a bd d4 0a 8b 3e 7a aa 9b 3f 05 22 ba 3c
       -0.049475 0.271567 1.21614 0.0227213
000310 59 8a 04 be 20 24 6b be f7 e6 57 3e ac aa 97 bd
       -0.129434 -0.22963 0.210842 -0.074056
000320 ac 10 80 bd 58 ff 0d 40 b7 b4 3a bf 4d be 07 c0
       -0.0625318 2.21871 -0.72932 -2.12099
000330 47 8d 39 be 5e 68 de c0 0b 5e 64 3f 3a 7a 6c be
       -0.181203 -6.95024 0.89206 -0.230935
000340 3a 58 2f 3f 65 6f e9 bc 10 92 19 3f 5c 1d d0 be
       0.68494 -0.0284955 0.599885 -0.406474
000350 43 72 22 3f f9 83 11 40 ec 2f ef 3f d0 62 71 3f
       0.634556 2.27368 1.86865 0.942914
000360 51 a0 fb bf ba 6b 81 3e 70 42 9d bf 72 a3 b0 be
       -1.96583 0.252775 -1.22859 -0.344997
000370 57 40 55 bf a0 fd 98 bd 58 1e 10 3f 98 2f 57 3f
       -0.833013 -0.0747025 0.562963 0.84057
000380 d3 87 10 c0 81 5f 63 be 9a ac f6 bc ab 3e 96 c0
       -2.25829 -0.222044 -0.0301116 -4.69515
000390 78 99 81 3e 76 8b 00 3f bb 9b 13 40 18 60 eb 3f
       0.253124 0.502128 2.30638 1.83887
0003a0 a4 ab 84 be dd 45 38 bd 93 8c 80 3f ce 55 6f 3f
       -0.259122 -0.0449885 1.00429 0.934903
0003b0 92 79 4e c0 83 89 d7 be e6 20 40 bf 0c 23 35 3f
       -3.22617 -0.420971 -0.750502 0.707566
0003c0 df 9a 25 bd 0b 29 67 c0 5f fa 0f 3b c8 cd 80 3e
       -0.0404309 -3.61188 0.00219693 0.25157
0003d0 4d 4a be c0 5f 09 34 be a0 88 07 bb 53 79 a3 bf
       -5.94657 -0.175817 -0.00206808 -1.27714
0003e0 c7 bc 2a bf 73 9d d6 3f 53 cb 8e be 38 f6 58 3f
       -0.666943 1.67668 -0.278895 0.847507
0003f0 0e bd 31 bf 61 4f b7 bf 39 44 fc 3d 23 bc dd be
       -0.694291 -1.43211 0.123177 -0.433076

Operation_5_Add_B f4 [50]
000000 cc 0b c8 3f 99 45 e8 3e 6b 9a ef bf 79 3a 27 bf
       1.56286 0.453656 -1.8719 -0.653236
000010 c8 07 1d 40 86 ac 8e bf ba a0 f2 3f d0 b9 bb be
       2.4536 -1.11464 1.89553 -0.366652
000020 9b f3 9d bd 87 8a d1 3f 43 73 0b c0 9a e9 a6 3e
       -0.0771248 1.63704 -2.17891 0.326001
000030 2b fc 21 3f 8a 3a 73 3e 4a b5 43 40 47 e6 73 40
       0.632754 0.237528 3.05794 3.81093
000040 b7 7c 64 be 73 65 e8 be fb 3a 3c 3f d2 e3 83 40
       -0.223132 -0.453899 0.735275 4.12156
000050 9c df 60 3f fd 87 8c be 3f 8c 4a 40 e6 22 b6 bf
       0.878412 -0.274475 3.16481 -1.42294
000060 78 7d 8e 3e d9 97 ec 3d 64 75 bb 3f 6f 7f 7e 3e
       0.278301 0.115524 1.46452 0.248533
000070 7c 61 34 40 54 28 c1 bc 6d 00 72 bf d3 9f 61 bf
       2.81845 -0.0235788 -0.945319 -0.881345
000080 44 dd 4b 40 4d 4a cd 3f 31 57 4b bd 7c ed a9 3f
       3.18538 1.60383 -0.0496437 1.32756
000090 49 86 3c 3f 79 1f 47 3e e9 48 28 c0 05 86 22 c0
       0.736424 0.194456 -2.62945 -2.53943
0000a0 63 b4 b2 3f 02 9d 89 3d d6 35 3f bd 82 e2 ca 40
       1.39613 0.067194 -0.0466822 6.34015
0000b0 15 6f e0 3f 76 8c 2b 3f a9 c1 52 40 d4 d3 07 bf
       1.75339 0.670112 3.29307 -0.530576
0000c0 65 c8 c9 be cc 0f 57 3d
       -0.394107 0.0525053

Operation_6_MatMul_W f4 [50, 50]
000000 2a 8d 28 3e e3 e3 13 be 42 cf 30 c0 81 09 02 40
       0.164601 -0.144424 -2.76265 2.03183
000010 30 9e aa c0 30 0a a7 3d 94 4e 03 bc 56 45 a8 3e
       -5.33181 0.0815624 -0.00801434 0.328654
000020 8e 01 1f 40 15 17 2c 3d 11 06 39 bd 50 52 d0 3e
       2.48447 0.0420142 -0.0451718 0.406878
000030 99 f5 da 3f f4 17 16 bf 10 06 c2 3f 22 e2 26 3d
       1.71062 -0.586303 1.51581 0.040743
000040 80 5f 88 3d 1a 86 1b 3f e7 00 55 c0 04 75 f2 be
       0.0665884 0.607515 -3.32818 -0.473549
000050 72 f8 c9 3d d5 7a 4f be 25 5c 28 3e 35 9a 1c 3e
       0.0986184 -0.202617 0.164414 0.152932
000060 19 75 65 3f 50 3a 51 3e 05 b4 be bd 53 ae 14 c0
       0.896318 0.204324 -0.0931168 -2.32314
000070 1f 14 84 3e 2a c6 f1 be b7 ce 64 3d 3a fc 7f 3c
       0.257966 -0.472215 0.0558612 0.0156241
000080 56 65 e7 be bf 29 ec bd e8 22 b4 3c dc ec d5 3a
       -0.451945 -0.115314 0.0219893 0.00163212
000090 b4 03 ee 3d c6 1e 75 3d d3 4f 74 3f d7 8e ad bd
       0.116218 0.0598438 0.954343 -0.0847451
0000a0 3c bd ca bf 4d 65 4d 3f df 89 19 40 49 3e c0 bc
       -1.5839 0.802327 2.39904 -0.0234672
0000b0 70 d1 29 3e ce 8c 2e be 7f 87 c6 3f 07 08 2a 40
       0.165838 -0.170459 1.55101 2.65674
0000c0 5f ef bf c0 f0 a7 26 3e 93 1e 41 3d 9f c2 17 3c
       -5.99797 0.16275 0.0471483 0.00926271
0000d0 e1 7a 56 c0 4c fd ac 3f da c9 28 c0 13 5f 92 3b
       -3.35125 1.35148 -2.63732 0.0044669
0000e0 23 92 57 bd f4 f8 a5 bf a2 d3 23 3e 73 26 c2 3d
       -0.0526296 -1.29666 0.159987 0.0947999
0000f0 f7 c7 ac c0 b6 48 da bc 83 19 07 bf 6a f7 cb be
       -5.39941 -0.026646 -0.527733 -0.398372
000100 27 84 8e be 69 e6 a4 bc 95 32 5f bc 31 d3 b8 c0
       -0.278352 -0.0201294 -0.0136229 -5.77578
000110 8c f3 df 3f d5 fe f3 3c 7e e5 49 bf a1 10 21 bd
       1.74962 0.0297846 -0.788658 -0.0393225
000120 68 d9 b3 38 5e bd e2 3e ed 47 be bf 8b 35 00 bf
       8.57588e-05 0.442851 -1.48657 -0.500817
000130 4b ff f7 3c 85 26 b1 be ee d1 5b 3e bc 2a 2b bc
       0.0302731 -0.345997 0.214668 -0.0104472
000140 a3 1e 22 bd 70 63 ed bb 19 f9 c6 3c f4 cd ec 3b
       -0.03958 -0.00724452 0.0242887 0.0072267
000150 1c b8 c1 3a a0 f9 9c bd c0 cf b8 bc ad 5c 5e bd
       0.00147796 -0.076648 -0.02256 -0.0542876
000160 ea 77 f1 3e 13 23 f0 bb 59 dd 2e bf 38 58 ae bc
       0.471618 -0.0073284 -0.683065 -0.0212823
000170 b1 33 9d 3f 7e ef 05 bd 94 de 4b 3f 88 32 ef bc
       1.22814 -0.0326991 0.796365 -0.0291989
000180 85 94 61 c0 2b 4d 8a bf 73 a2 7f c0 bf 30 74 bd
       -3.52469 -1.08048 -3.99429 -0.0596168
000190 de 86 22 bd 76 94 99 3d 08 e6 e8 3f f7 58 1a bf
       -0.0396794 0.0749902 1.81952 -0.60292
0001a0 ce fb 8f 3e 9d 85 7d 3e d1 ae 26 3f fc 6f 0d c0
       0.281218 0.24758 0.651105 -2.20996
0001b0 7c b8 10 c0 95 9f 84 be 54 da 0c bd 0c ce 00 3e
       -2.26126 -0.25903 -0.0343879 0.125786
0001c0 d7 a3 0c c0 6a bc b4 3f d1 57 2c c0 db 33 f7 3f
       -2.1975 1.412 -2.69286 1.93127
0001d0 f8 88 a4 3f 7d 79 5d c0 52 d5 38 c0 e3 a5 87 3f
       1.28543 -3.46054 -2.88802 1.05975
0001e0 61 c3 af 3f fd a0 b6 be 06 64 0b 40 74 0c f8 bf
       1.37315 -0.356697 2.17798 -1.93788
0001f0 4b 84 97 3c d3 9f 06 c1 1d 38 9f be fe 43 85 40
       0.0184957 -8.41402 -0.310975 4.16455
000200 0d 50 c2 be c3 63 17 3f a9 12 65 3d 47 19 56 3d
       -0.379517 0.591366 0.055926 0.0522702
000210 f6 42 7d 3f ea 7b c8 3d c1 ea c3 3d 36 59 4b 3f
       0.989303 0.0978926 0.0956626 0.79433
000220 10 af 3b 3e cc 5d 4b 3d 1b f1 04 3e e9 7c 60 bf
       0.183285 0.04965 0.129826 -0.876906
000230 14 1d 2e bd a7 e9 5b bf 0d 89 43 c0 f9 d6 d7 3e
       -0.0425082 -0.859034 -3.05524 0.421562
000240 c8 06 d2 bd 0b c3 b6 3d 40 4d 35 c0 fb 74 b0 bf
       -0.102552 0.0892392 -2.83284 -1.37857
000250 11 0d 21 3d fb 69 0d 3d 1e fa 2e be 49 91 c6 bc
       0.0393191 0.0345249 -0.170876 -0.0242392
000260 56 83 c0 be 52 0a a2 bf 96 3e 08 40 fb 07 c1 be
       -0.376002 -1.26594 2.12882 -0.377014
000270 98 4e 83 3e b3 29 b7 bf ec dd c7 3f 54 c5 14 3e
       0.256459 -1.43096 1.56146 0.145284
000280 7b 31 d4 bf 78 b6 27 bf a6 27 08 40 84 f5 01 c0
       -1.65776 -0.655128 2.12742 -2.03061
000290 7b 66 c1 be 8b a9 04 be c0 3c 04 bf 00 74 90 40
       -0.377735 -0.129553 -0.516552 4.51416
0002a0 3a 1e 57 40 6e 32 e2 be bb 7e 61 3e 5e 82 33 3d
       3.36122 -0.441791 0.22021 0.0438255
0002b0 55 f6 81 bf 9d 11 95 3f 59 69 1a c0 b7 28 35 40
       -1.01533 1.1646 -2.41268 2.83061
0002c0 04 e3 70 be 96 3d c9 be 0d 6e 1f 3f 03 5c 00 be
       -0.235241 -0.393048 0.622773 -0.125351
0002d0 6c b1 1b be 4c be 4f ba a0 36 92 3e b9 e1 37 3e
       -0.152044 -0.000792478 0.285573 0.179572
0002e0 11 e6 13 3c 5b ed 05 3f 78 4d 3e bd 86 62 a1 bc
       0.00902702 0.523153 -0.0464606 -0.0197003
0002f0 21 76 d2 bf ea 96 7d bd 21 74 04 bf db c1 b0 be
       -1.64423 -0.0619115 -0.517397 -0.345229
000300 d8 0c 58 bf 6b 10 e6 3c ea 96 61 3f 07 3f d1 bd
       -0.843946 0.028084 0.881209 -0.102171
000310 1d 04 09 bf 9f c8 94 40 f3 ab 63 c0 71 39 fe be
       -0.535219 4.64949 -3.55737 -0.496532
000320 0b ef b0 3b c4 91 ac 3b 48 19 21 bf 5e be 71 bf
       0.00539959 0.0052664 -0.629292 -0.944311
000330 54 74 64 c0 74 9b f0 3c 3e ae 0d be 12 bd 26 c0
       -3.5696 0.029371 -0.13836 -2.60529
000340 71 5a d0 bf cc 00 41 3d 4b ab 11 c0 21 8f 50 be
       -1.62776 0.0471199 -2.27608 -0.203671
000350 30 49 19 bf 31 5f a0 c0 f6 7f 16 c0 a2 62 7c bf
       -0.598773 -5.01162 -2.35156 -0.98588
000360 4f 6d aa bd d1 ae 4e c0 3c 6b 09 c0 d2 38 f4 bd
       -0.0832163 -3.22942 -2.14717 -0.119249
000370 07 99 e4 bd f9 eb 5f 3c 09 c3 20 be f3 77 8a bc
       -0.11162 0.0136671 -0.156994 -0.0169029
000380 63 28 e3 bf be 9f 36 c0 11 32 b5 bc 9f c9 2e be
       -1.77467 -2.8535 -0.0221186 -0.170691
000390 21 77 c9 be 90 2d 70 bd 98 be 97 bc d0 ef 1b 3d
       -0.393487 -0.0586372 -0.0185235 0.0380705
0003a0 1f 0b b6 bd a3 a3 b7 39 ce 19 b1 be 99 9d 75 be
       -0.0888884 0.000350264 -0.3459 -0.239859
0003b0 db 1a 2c bd 41 b0 cf bc fe 80 bf 3e cf 6a 01 be
       -0.0420178 -0.0253526 0.374031 -0.126384
0003c0 1e a3 cc be 8e cd 3e 3e 6d ff 48 c0 bc cc 93 bb
       -0.399682 0.186331 -3.14059 -0.00451049
0003d0 55 16 09 3f 61 8a 82 3d d9 99 08 c0 cd 92 54 c0
       0.535497 0.0637405 -2.13439 -3.32146
0003e0 df e1 06 be bc 3f 9e bc b5 91 86 3c dc 54 b4 bb
       -0.131721 -0.0193175 0.0164269 -0.00550328
0003f0 25 07 68 bf e9 f3 01 3f 83 f7 bd 3e 46 02 f2 3c
       -0.906359 0.507628 0.371029 0.0295421

Operation_6_Add_B f4 [50]
000000 be 30 c9 3e c2 6b 7f 3f 0a a3 41 3f 96 43 83 3e
       0.39295 0.997738 0.756394 0.256375
000010 22 37 a7 bf c8 eb 09 bf 96 26 b1 3f 78 b9 b8 3f
       -1.30637 -0.538754 1.38399 1.44316
000020 c8 5e 27 c0 5c cb 28 3f a0 53 00 3f 94 6a 4d 40
       -2.61516 0.659353 0.501276 3.20963
000030 7f 87 44 c0 2e e3 e6 bd 91 44 37 bf 8f df 2d c0
       -3.07077 -0.112738 -0.71589 -2.71677
000040 2b a4 f8 3f 7b 4e 8a bf c8 ef bd bf e7 73 e6 3e
       1.94251 -1.08052 -1.48388 0.450103
000050 39 0b c3 3f 61 6c e1 3f 0a d7 7d 40 6a 4f 01 3f
       1.52378 1.76112 3.96625 0.505118
000060 17 bc e4 3f 73 68 83 c0 f5 a1 15 40 e3 c6 6d 3f
       1.78699 -4.1065 2.33801 0.928816
000070 f6 ee a7 3f a5 15 23 3f bc 41 04 be e9 60 9d 3f
       1.31198 0.637049 -0.129157 1.22952
000080 d6 b2 10 3d bc ae 87 3f bc 21 9d 3e 6d a8 26 40
       0.0353268 1.06002 0.306898 2.60403
000090 41 2b 8c 3f 2b a6 b2 3e dd 7b 28 3f 88 11 e6 3f
       1.09507 0.348924 0.65814 1.79741
0000a0 9b 72 a5 3f 69 1e 68 bf c2 be f5 be fb 05 33 40
       1.29256 -0.906714 -0.479971 2.79724
0000b0 bd a9 24 bf 1a df 97 3e 22 ab 8b 3f 03 3e 3b c0
       -0.643215 0.296624 1.09116 -2.92566
0000c0 6d 8c 71 bf 22 7e 4f 3d
       -0.943549 0.0506574
