resources/onnx/acasxu/ACASXU_experimental_v2a_1_9.onnx (onnx, 55889 bytes, 15 tensors)

input_AvgImg f4 [1, 1, 1, 5]
000000 00 00 00 00 00 00 00 00 00 00 00 00 00 00 00 00
       0.0 0.0 0.0 0.0
000010 00 00 00 00
       0.0

Operation_1_MatMul_W f4 [5, 50]
000000 9b 26 a2 bd 4f 52 aa 3d d4 22 47 bc 5b 45 9a bc
       -0.0791752 0.0831648 -0.0121543 -0.0188319
000010 04 a3 f9 3b c0 17 70 bc fd dc d0 3c a7 80 8f bc
       0.00761831 -0.0146541 0.025496 -0.0175174
000020 a1 83 56 bf a3 d4 f9 bc 29 76 34 3c df fb 3b 3e
       -0.837946 -0.0304969 0.0110145 0.183578
000030 72 e0 19 bf 1e c2 e0 3e e7 72 83 be 32 f6 2f 3d
       -0.601081 0.438981 -0.256736 0.0429594
000040 79 51 e0 bc 85 ff 1e 3d 4a 9a 9e 3b d9 8f 59 3d
       -0.0273826 0.0388179 0.00484017 0.0531157
000050 66 08 4f bb 29 42 07 bc 2c 9f dd bf 2d cf 24 bb
       -0.00315907 -0.00825552 -1.73142 -0.00251479
000060 d3 a2 de 3d e9 df 85 bb 80 84 dd bb 7e 57 34 3e
       0.108709 -0.00408553 -0.00676018 0.176115
000070 4a 7f 0a bc 19 72 6c 3c 28 0a 54 3d 7c b7 d1 3e
       -0.0084532 0.0144315 0.0517675 0.409603
000080 b7 70 0a 3d 9d 18 6d bd 57 ee e5 bd 69 f2 9e bc
       0.0337989 -0.0578848 -0.112271 -0.0194027
000090 14 02 de bc 36 4f 3f 3c 0a a3 14 3d 99 a7 e9 bc
       -0.0271006 0.0116766 0.0362883 -0.0285223
0000a0 27 a6 28 bb 6f 2f 44 bb 76 b0 b4 3a b3 2f 72 3b
       -0.00257338 -0.00299355 0.00137855 0.00369547
0000b0 2d a8 98 ba 63 b1 f2 bc 19 73 07 3f dd a3 ab 3a
       -0.00116468 -0.0296256 0.5291 0.00130951
0000c0 2f fb 25 3f 13 47 42 bf e2 3a 4e bf c5 bb af bb
       0.648364 -0.758897 -0.805586 -0.00536296
0000d0 0f 8d b8 bc d3 86 17 bf b0 03 2f bf 4d ba e5 3e
       -0.0225282 -0.591901 -0.68365 0.448687
0000e0 20 d3 fa bd 53 23 30 bf ef bd a6 3b 7a fc be 3e
       -0.122473 -0.688039 0.00508856 0.37302
0000f0 ac 03 50 3e 20 62 23 be 09 c0 bf be 19 01 d5 bc
       0.203139 -0.159554 -0.374512 -0.0260015
000100 dc de 29 3d f3 92 6f be a3 1e ca 3e a6 f1 5f 3f
       0.0414723 -0.233959 0.394765 0.874781
000110 9e f0 82 be 39 f1 0d 3f 8d 0a 1c 3f e4 48 27 3d
       -0.255742 0.554462 0.609536 0.040841
000120 71 f9 d9 bb 29 15 43 3c 98 fa 09 3e f3 f9 cd bb
       -0.00665205 0.0119069 0.134745 -0.0062859
000130 70 a2 8c bc 72 2d 7f bc d2 31 0a 3c f1 d4 37 3f
       -0.0171673 -0.0155748 0.00843473 0.718093
000140 5c df 4c 3d 76 73 cc 3c 5d 0c 0f 3d ea ef 80 3b
       0.0500177 0.0249574 0.0349239 0.00393485
000150 ad 32 70 3b eb c1 a8 bb 19 50 d2 39 e3 37 09 3f
       0.00366513 -0.00515007 0.00040114 0.536009
000160 7f 15 50 bf 89 4c ef 3c fd db 21 3f 84 c2 7b bd
       -0.812828 0.0292113 0.632263 -0.0614648
000170 97 03 58 bd 8e eb 17 bf ec 78 9d bd a1 68 42 3f
       -0.0527378 -0.593438 -0.0768908 0.759409
000180 3f 4b e1 bc 98 ed 94 3c 07 ea 39 3c 88 1f d2 bc
       -0.0275017 0.0181797 0.0113473 -0.0256498
000190 86 09 be bc fa 52 2e bc 68 b3 49 3b 52 0d 13 3f
       -0.0231979 -0.0106399 0.00307771 0.574422
0001a0 54 e4 44 3f 1a 77 18 bc 24 d3 91 3e ad 86 40 bf
       0.769109 -0.00930574 0.284814 -0.752055
0001b0 ee 08 27 3b 68 cf a5 3e 38 5d e0 bb d9 8b b2 bc
       0.00254875 0.323848 -0.00684705 -0.0217952
0001c0 cb f8 f7 3d 85 ad 9f 3b 2f 6c cd 3c 4f ae 35 3f
       0.12108 0.00487298 0.025076 0.709691
0001d0 eb a1 02 3d 81 90 11 3c cc f4 e4 3b ff ca 82 bf
       0.0318927 0.00888455 0.00698719 -1.02182
0001e0 84 00 ae 3a 10 95 86 3e 8a 14 52 3b d6 1d 83 be
       0.00132753 0.262856 0.00320557 -0.256087
0001f0 bd 01 c1 3c 64 96 d8 bc 0b a2 24 bc 72 ad 71 bd
       0.0235604 -0.0264389 -0.0100484 -0.0590033
000200 fe b9 a6 3b bd 1e ac be 22 ea 74 3b c5 af 33 3c
       0.00508809 -0.336172 0.0037371 0.0109672
000210 a6 97 88 3d 10 cc 30 bb 78 e0 4e bb 21 c8 49 bf
       0.0666955 -0.00269771 -0.00315669 -0.78821
000220 fd 40 c1 bb 5e dc e1 bc 5d a5 03 3f 94 6c ed be
       -0.00589764 -0.0275709 0.514242 -0.463719
000230 63 ec 24 bf 5c e7 1f be 38 d4 b4 3d 3f 99 f3 3a
       -0.644232 -0.156156 0.0882954 0.00185851
000240 7e fc 15 be bb ed 46 bf 36 29 bf 3b b8 d9 6d bb
       -0.146471 -0.777065 0.00583377 -0.00362931
000250 47 4b 2f 3c 00 c4 a2 bd 0d 35 26 3f e5 f1 8c 3e
       0.0106991 -0.0794754 0.649247 0.275283
000260 d5 22 32 3e 8e 63 5a 3c e2 00 9f 3c ca 2e 9d 3d
       0.173961 0.0133294 0.0194096 0.0767494
000270 83 fa 26 be 4e 7b 1a 3e ee 94 9c 39 09 35 53 3e
       -0.163065 0.150861 0.000298656 0.206257
000280 5a 3d af 3b 2a b0 9b bd 95 81 e3 3d 99 db 1a 3c
       0.00534789 -0.0760196 0.111087 0.00945177
000290 87 62 bc 3c b9 fc c7 3e fd 11 06 be 8d 0e 38 3e
       0.0229962 0.3906 -0.130928 0.179743
0002a0 b7 be 7e 3c 1f 1e 98 bd da 8b 8d bc 5a 88 69 bd
       0.0155484 -0.0742762 -0.0172786 -0.0570148
0002b0 5c 0f 95 bb 54 e1 8f 3c b1 f9 c8 3e 3a 58 8f be
       -0.00454895 0.0175635 0.39253 -0.27997
0002c0 eb ac 66 3e bc 24 7e be 97 38 82 bd 25 ca de 3c
       0.225269 -0.248187 -0.0635845 0.027196
0002d0 bb 9b 27 bf 52 a6 c7 bc 03 5c d0 bd 0e 4c ce 3d
       -0.65472 -0.0243713 -0.101738 0.100731
0002e0 ba 14 17 be bc ab 22 3c ae b2 be 3a 4a 28 1d 3e
       -0.14754 0.00992864 0.00145491 0.153474
0002f0 f5 e0 89 3c 07 ac 91 3d 8b 39 93 3d 82 9c b6 bd
       0.0168309 0.0711289 0.0718871 -0.0891657
000300 4f be 8a 3d 07 9e 56 3b 52 f0 04 3e b5 b6 aa 3d
       0.0677458 0.0032748 0.129823 0.0833563
000310 b3 f4 db bb 75 f7 8c 3a 81 31 24 39 cf 81 b5 3d
       -0.00671252 0.00107549 0.000156587 0.0886265
000320 db a7 cb be f1 2e 8f bf 13 48 7d bf 83 f8 20 3e
       -0.397765 -1.11862 -0.989381 0.157198
000330 5a 2d 80 3d 53 42 00 be 82 c5 c1 3e d4 10 70 3d
       0.0625865 -0.125253 0.37846 0.0586098
000340 32 e1 fa 39 f0 2f 97 bd 5b e9 35 be 22 c1 dc be
       0.000478515 -0.0738219 -0.177648 -0.431161
000350 08 2d 8a 3d 3c 87 d2 bd 42 e9 1f bf 04 a3 3c bd
       0.0674687 -0.102797 -0.624653 -0.0460539
000360 7d 46 fd 3c 33 70 d8 be 88 59 3b 3b 57 7c 03 3f
       0.0309174 -0.422731 0.00285873 0.513616
000370 86 54 f1 3d 18 e9 9a 3d 01 ec 97 39 10 ce 08 bc
       0.117837 0.0756399 0.000289768 -0.00834991
000380 61 4f bb be 27 b0 aa 3d 02 0f f4 be 01 89 26 bc
       -0.36584 0.0833438 -0.476677 -0.0101645
000390 32 b0 8e bd 97 c6 0f bd 77 68 38 be 77 6a de be
       -0.069672 -0.0351015 -0.180086 -0.434406
0003a0 cb 81 5e be f8 c4 da 3d 47 3c 99 3e 4c 6c e3 3a
       -0.217292 0.106821 0.299288 0.0017351
0003b0 c0 6d 58 bb 87 1a 35 3e bd 52 d6 bd 02 e2 a4 3c
       -0.00330244 0.176859 -0.10465 0.0201273
0003c0 95 64 9d bb 51 82 7e 3d 49 12 04 be b0 85 ea bb
       -0.00480325 0.062136 -0.128976 -0.00715705
0003d0 53 79 ab bd 22 5a c6 3d b2 35 76 3d 72 a7 6b ba
       -0.0837275 0.0968516 0.0601098 -0.000898949
0003e0 22 d8 1f bb 6a bd 2f 3e
       -0.00243903 0.171621

Operation_1_Add_B f4 [50]
000000 f6 60 52 3e 35 9a 1c be b8 3a 98 be 4b 8b 8f bd
       0.205448 -0.152932 -0.297323 -0.0700899
000010 da 00 6c be 0a 85 c8 3c d2 46 7f bd 53 6b 2b bc
       -0.230472 0.0244775 -0.0623234 -0.0104626
000020 55 de 6e be 31 4c 1c bd 9b 90 d6 bd e6 96 76 be
       -0.23327 -0.0381586 -0.104768 -0.24081
000030 60 99 55 3a 69 f3 69 3d 67 d7 9d be 00 90 d3 3d
       0.000814816 0.0571169 -0.308284 0.103302
000040 27 b6 b7 bd 93 a6 e1 bd 8e 39 74 3c 0e b4 9c 3d
       -0.0897029 -0.110181 0.0149063 0.0765153
000050 2c cc 9c 3d c1 32 fc b9 f2 e9 71 be 90 14 91 3c
       0.0765613 -0.00048103 -0.236244 0.01771
000060 7f 4c 4b 3d f7 02 53 3d 74 54 bf 3d 0b 45 aa bd
       0.0496335 0.0515165 0.0934228 -0.0831395
000070 85 3d 92 bc 3e ca 28 be 38 83 7f be d3 a2 fe bd
       -0.0178516 -0.164834 -0.249524 -0.124334
000080 7e 8a 03 be 62 53 ad 3d 50 d3 3d 3d 8a 6a ba bb
       -0.128458 0.0846317 0.0463441 -0.00568897
000090 48 c9 86 bc 84 9b 5c 3e b2 2c 48 be 73 8f 8b 3d
       -0.0164534 0.215437 -0.195483 0.0681447
0000a0 30 46 84 be c4 7e 2a bb 8a e3 c0 3c 1b 7a 0f bc
       -0.258348 -0.00260155 0.023546 -0.00875714
0000b0 57 1b 6d 3d 7d 5e d1 bd bf 65 8e bc a3 26 55 bc
       0.0578874 -0.102231 -0.0173825 -0.0130097
0000c0 d7 4b 33 3e 6d a1 95 bd
       0.175094 -0.0730618

Operation_2_MatMul_W f4 [50, 50]
000000 86 c9 d4 bf b4 8e a2 3e f8 1c f5 3b f9 82 06 3e
       -1.6624 0.317495 0.00748026 0.131359
000010 ed b3 2f 3d 7a c4 78 3e 6a 90 b8 3d ab 05 1e bf
       0.0428962 0.242937 0.0901192 -0.617274
000020 71 39 02 bf 6e dc 72 be a5 38 a2 bb 50 e6 8a bd
       -0.508689 -0.237169 -0.0049506 -0.0678221
000030 6c b1 93 be 15 39 54 be 12 08 85 bd 86 ff f4 3d
       -0.288463 -0.207249 -0.0649568 0.119628
000040 25 23 e7 3d 18 f5 7f bb 95 64 8d be 42 cd 73 bb
       0.11286 -0.0039056 -0.276158 -0.00372012
000050 75 f7 ad ba c0 59 af bc 30 d7 62 3e 82 58 66 be
       -0.00132726 -0.0214051 0.221524 -0.224947
000060 8e 8f 26 be c1 e3 0f bf 73 30 56 bd b1 6b 3b 3e
       -0.162657 -0.562069 -0.0522923 0.183028
000070 e6 d7 05 3d ac 1a a4 3e fb 78 58 3e 92 47 a6 bc
       0.0326766 0.320516 0.211399 -0.0202978
000080 cf 48 49 bd e5 d2 f8 bd 15 e1 06 3e 9e 26 f3 3d
       -0.0491417 -0.121496 0.131718 0.118726
000090 32 18 98 bd ac 36 4f be ea 8d bf bc 1b cf bc bd
       -0.0742649 -0.202357 -0.0233831 -0.0921919
0000a0 57 79 02 3c ab 17 8d bc 9e 07 27 3e c3 ab 9b bc
       0.0079635 -0.0172232 0.163115 -0.0190028
0000b0 19 c6 59 3f a8 af b2 bd 71 02 43 be 3e 96 2e be
       0.850679 -0.0872491 -0.190439 -0.170495
0000c0 31 17 22 3d 23 f3 ad 3c 67 b4 19 3f fb 59 4c 3e
       0.0395729 0.0212341 0.600409 0.199562
0000d0 2d 93 06 bd 42 05 87 3d e2 78 19 bd d7 c1 91 3e
       -0.0328552 0.065928 -0.0374688 0.284682
0000e0 a0 3f e3 bc 28 38 ab 3d 2b fa 53 3e e5 2b ac bd
       -0.0277403 0.0836032 0.207009 -0.0840681
0000f0 ac 4b d7 bc aa 43 b3 3d 21 c8 99 be 50 39 c6 bd
       -0.0262812 0.0875314 -0.300355 -0.096789
000100 9d 0e cc be 29 23 ee 3d b7 64 f0 bc 94 41 3d 3b
       -0.398549 0.116278 -0.0293449 0.00288782
000110 18 cc 03 3f 1e dd 38 3e 0b 13 e1 bc 56 c9 91 3d
       0.514833 0.180531 -0.0274749 0.0711848
000120 30 d5 34 3f ac 3d 07 bd a1 b4 dc 3c 4e 0e 27 bf
       0.706378 -0.0330178 0.0269416 -0.652562
000130 0f 4d f2 3a 4c 35 f3 3d c7 f1 c8 3d fd a3 0f be
       0.00184861 0.118754 0.0981174 -0.140274
000140 a5 7c 8d 3d 5b 38 3a bd 25 a0 18 3d 81 5e 34 bf
       0.0690854 -0.0454639 0.0372621 -0.704567
000150 00 96 80 bd 28 77 64 3d 4e 0e 07 bf 40 18 58 3d
       -0.0627861 0.0557777 -0.527562 0.0527575
000160 43 fe d9 3c 73 85 17 be fa 0b fd bc b6 f6 8e bd
       0.0266105 -0.14797 -0.0308895 -0.0698065
000170 e7 73 ae 3e 2b e1 a4 bc 13 d3 cd 3e 81 5c 03 3c
       0.340728 -0.0201269 0.402001 0.00801766
000180 8f 70 1a 3e cb 10 97 be d2 84 92 bc ad f1 a3 bd
       0.15082 -0.29505 -0.0178856 -0.0800508
000190 b5 54 56 3f df c5 e3 3e e0 59 0c bd 76 c1 00 be
       0.83723 0.444869 -0.0342654 -0.125738
0001a0 41 0c 24 3e b6 4c 12 3f cd e7 5c be b1 df 83 3e
       0.160203 0.571483 -0.215728 0.257566
0001b0 ad 6e 75 3e 57 b5 9c 3e 1a ca e4 bc a3 c5 3e 3c
       0.23968 0.306071 -0.0279284 0.0116438
0001c0 ba 9f 93 be b8 01 5f 3e 30 68 91 3e a9 db a9 3e
       -0.288328 0.21778 0.283998 0.331754
0001d0 7d 63 7e bd 3c 16 5b 3c 36 90 06 3f 0a 9d 07 3f
       -0.0621066 0.013372 0.525638 0.52974
0001e0 10 76 4a bd 16 e9 34 3d d9 ea 56 3f 43 3c 4e 3f
       -0.049429 0.0441676 0.839521 0.805607
0001f0 84 02 c2 bb e9 0c 68 bf 5c ae 7e bc d3 9f 0d be
       -0.00592071 -0.906447 -0.0155445 -0.138305
000200 37 24 24 3c 18 5a 1d bf 0f 81 73 3e 31 63 a5 3c
       0.0100184 -0.614656 0.237797 0.0201889
000210 5f 04 f2 3c 5e f5 48 bf 2f 80 b5 3d 09 7a 3e bd
       0.0295431 -0.784994 0.0886234 -0.0465031
000220 a0 e1 6d 3f 62 f9 eb 3e 4e 1a d9 3c f4 15 34 3e
       0.929224 0.460887 0.0265018 0.175865
000230 99 50 3c bd 7a c2 06 bf 14 0d 2d bc e2 d3 32 3d
       -0.0459753 -0.526405 -0.0105622 0.0436591
000240 1f ba 8c 3f 2c bb 00 be de 01 c6 3e de 5a 36 bf
       1.09943 -0.125714 0.386733 -0.712324
000250 80 48 9f bf f9 da 83 be 09 8a 3f be d7 a3 84 3f
       -1.2444 -0.25753 -0.18705 1.03625
000260 03 dd 0d bd 72 c4 02 bf 8d 24 1d bf 6c 21 88 3f
       -0.0346346 -0.51081 -0.613839 1.06352
000270 49 68 83 be f5 f4 55 3f 13 10 1f 3f 19 be 0d 3c
       -0.256655 0.835769 0.621339 0.00865128
000280 78 a8 dc 3c c6 d1 c6 bd f1 f4 5a 3f 26 e5 b6 3e
       0.0269358 -0.0970798 0.8553 0.357217
000290 44 a2 14 bf 32 e8 24 3e e5 f2 03 bf c9 3b 27 bd
       -0.580601 0.161042 -0.515425 -0.0408285
0002a0 86 01 03 3f 84 cf 8b bd c7 0f d5 bc 6e 14 d9 3e
       0.511742 -0.0682669 -0.0260085 0.423984
0002b0 d2 fd 5c 3e b8 5c 8d 3e e8 83 25 3d 8d 44 24 3f
       0.215812 0.276098 0.040409 0.641671
0002c0 45 86 11 bc 82 71 10 be 77 49 5c be 8f a5 b3 3f
       -0.00888211 -0.141058 -0.215124 1.40349
0002d0 f4 dd 85 3e 91 91 fd 3c 87 e8 c6 3c 44 de 2e 3f
       0.261459 0.0309532 0.0242808 0.683079
0002e0 7b db 5c be 25 5b 05 3f 82 6f 62 3f 7b f9 1d 3e
       -0.215681 0.520922 0.884514 0.154272
0002f0 bb d7 24 3c 76 89 5a be 30 7f ea bc da 1d 0a bf
       0.0100612 -0.213415 -0.0286251 -0.539518
000300 30 86 2c 3b 70 72 a4 3c d6 8f 7d be 2d cf 23 be
       0.00263251 0.0200741 -0.247619 -0.15997
000310 66 2e 08 3f d6 4c 25 3b 2b 1a 46 3c d0 b5 ef 3d
       0.531958 0.00252228 0.0120912 0.117046
000320 88 2b 33 bf 73 10 ec 3e 6c 5a 4e 3c 09 3f c7 bd
       -0.699883 0.461063 0.0125948 -0.0972882
000330 94 a4 a7 bf fd 13 dc bd 54 d5 15 3d 88 da 0e 3f
       -1.30971 -0.10746 0.0365804 0.558022
000340 0d 50 4a 3e d1 67 c6 bd a3 b9 24 3d 22 df 45 3f
       0.197571 -0.0968777 0.0402161 0.772936
000350 6a c1 3b bf 97 55 68 be 6b 49 13 bf 19 c5 d2 3f
       -0.73342 -0.226889 -0.575339 1.64664
000360 ca 13 5b 38 39 d5 d6 3b 45 47 96 3f 8b c0 98 be
       5.22321e-05 0.00655618 1.17405 -0.298344
000370 a6 14 4f 3c 84 48 06 3f ac 1a 08 3f 3e 22 de 3e
       0.0126392 0.524544 0.531657 0.433855
000380 89 88 81 bd 62 f9 93 3e 74 5c 2d bd e5 d5 e9 3f
       -0.0632487 0.289012 -0.0423245 1.82684
000390 b0 ca 55 3e b7 7a 8a bf 9a b3 fe 3e 97 e1 ff bc
       0.208781 -1.08187 0.497464 -0.0312355
0003a0 a4 e4 10 bd 6a bd 7b 3f 71 92 76 3e c7 13 01 3f
       -0.0353743 0.983359 0.240793 0.504208
0003b0 0a 6a 14 3f 63 d4 e5 be 14 34 b7 3c 42 0a 7e be
       0.579743 -0.448886 0.0223637 -0.248086
0003c0 a3 59 d9 3c 5f 24 14 3f 65 38 3e be 20 d9 b7 bc
       0.026532 0.57868 -0.185762 -0.0224424
0003d0 94 14 88 3e 3f 52 bc be d6 3a a1 3e 3c 90 eb 3c
       0.265782 -0.367815 0.314902 0.0287553
0003e0 bd 8b 07 3e 7a 34 55 bc 02 2b a3 bf e2 58 d7 3d
       0.132369 -0.013013 -1.27475 0.10515
0003f0 b1 f3 1f 3c e6 b1 96 3e 08 1d 84 3d b5 fa 3e bf
       0.00976269 0.294326 0.0645085 -0.746013

Operation_2_Add_B f4 [50]
000000 8a 20 d6 3e 16 85 dd 3d 67 a4 e0 39 df 81 96 bd
       0.418217 0.108164 0.000428471 -0.0734899
000010 d5 7d be 3b 91 29 0f bf 7b 30 59 be 6d aa 1e be
       0.00581334 -0.559228 -0.212099 -0.154947
000020 52 26 15 3d 1c 5e 10 3e 7c 12 b3 bc 13 a5 83 bd
       0.0364135 0.140984 -0.0218594 -0.0642797
000030 90 7a 79 bd 27 b5 e1 bc ee 9f 9d bc 59 dc bf bd
       -0.0609079 -0.0275522 -0.0192413 -0.093682
000040 ac 96 cf 3b 31 63 65 bc ab 3d a4 3e 4f 06 37 be
       0.0063351 -0.0140007 0.320783 -0.178735
000050 a7 83 ab bc cc b2 e7 bc 64 92 85 3f a4 9a 83 bd
       -0.0209368 -0.0282835 1.04353 -0.0642598
000060 54 d4 cf bc 51 7d b1 3c c7 3e 92 bb 1f 0f 7d bd
       -0.0253698 0.0216662 -0.00446305 -0.061782
000070 61 53 08 bc ae 10 26 be 87 6c 10 be 8f e0 86 bc
       -0.00832066 -0.162173 -0.141039 -0.0164645
000080 66 6d ae 3b 20 27 ac bd d4 a2 d9 3c 44 1d a1 3d
       0.0053231 -0.084059 0.0265669 0.0786691
000090 b1 50 fb be d0 36 ed bc 47 a1 76 bc 47 1c f4 bb
       -0.49085 -0.0289568 -0.0150531 -0.00744966
0000a0 ec 23 c3 bb 5b 72 c1 3d 68 98 35 3d 11 02 51 bb
       -0.00595521 0.0944564 0.0443348 -0.00318921
0000b0 99 50 9c bd bc ce 46 3d b1 e1 a1 be b7 5e bb be
       -0.0763256 0.048537 -0.316175 -0.365957
0000c0 2f 17 b1 3e 85 56 6c 3d
       0.34588 0.0576997

Operation_3_MatMul_W f4 [50, 50]
000000 ce c5 3f be b3 44 5f 3f 69 e3 d8 3e b3 f5 42 bd
       -0.187278 0.872142 0.42361 -0.0475976
000010 ee 04 57 bf db 85 16 3e 11 51 ec 3d 4a 24 b9 3e
       -0.839919 0.146995 0.115389 0.361605
000020 dd 45 a8 3d 69 35 04 3e 28 d5 3e 3e 6b 60 93 3f
       0.0821645 0.12911 0.18636 1.15138
000030 b2 85 88 3f ac e2 b5 3e c4 97 c1 3e a7 cb ca 3e
       1.06658 0.355245 0.378111 0.396085
000040 7c 74 b4 3d 36 59 33 c0 36 e6 25 be 32 13 76 bd
       0.0881128 -2.80232 -0.162011 -0.0600769
000050 c4 98 94 be 01 f8 d7 3e 1d 31 44 bd 88 84 cf 3d
       -0.290228 0.421814 -0.0478984 0.101327
000060 82 e2 a7 3f 8f e4 fa be 5e b5 d7 bc 30 68 d9 3e
       1.3116 -0.490025 -0.0263316 0.424623
000070 47 04 13 3f 0b fd 22 3d 56 7f 8c be 51 c1 41 3f
       0.574284 0.0397921 -0.274409 0.756856
000080 5b 8c cb bd d3 66 2c 3e 20 7c b8 be 03 7d fa be
       -0.0993888 0.168361 -0.360322 -0.489235
000090 9c 2b 94 bc 83 51 81 be c2 14 05 3f 52 d7 36 3f
       -0.0180872 -0.252575 0.519848 0.714223
0000a0 be 4d 87 3f 4b d6 57 3d 57 97 a3 3d 4b e0 ff bb
       1.05706 0.0526946 0.0798785 -0.00780872
0000b0 65 74 cb 3d 58 ab 26 3f df 35 18 be 94 fa 0e bf
       0.0993431 0.651052 -0.148643 -0.558511
0000c0 6d 3a 16 bf f4 c4 07 bf bc 24 ee 3d bf 60 97 bf
       -0.586829 -0.530349 0.116281 -1.18264
0000d0 a3 58 86 3f 53 ae 95 3b d4 d4 c2 3e 38 2d 68 be
       1.04958 0.0045679 0.38053 -0.226735
0000e0 15 70 cf 3d a3 e9 cc bd 6c 68 b9 3b aa 0c 8b 3e
       0.101288 -0.100055 0.0056582 0.271581
0000f0 a8 6e 02 3f 01 04 45 bb b9 34 56 bf b7 d5 f4 be
       0.509501 -0.00300622 -0.836742 -0.478193
000100 da 70 1c 3f 67 ef 28 bf 8a 3d 84 3e d4 47 60 bf
       0.611097 -0.659903 0.258282 -0.876096
000110 eb 70 f4 3d 29 e8 76 3e 19 56 89 3f 51 87 05 bf
       0.119356 0.24112 1.07294 -0.521596
000120 ca a8 aa be f3 e8 01 3d 09 88 c9 3e 2a 69 9a bd
       -0.333319 0.0317163 0.393616 -0.0753959
000130 7d 41 b6 3d 7b d8 a3 be 1c 30 be bc e4 f7 f6 3d
       0.0889921 -0.320011 -0.0232163 0.12059
000140 58 3c ed 3e 03 27 bb 3e 42 d1 30 bf b8 56 00 3d
       0.463351 0.365532 -0.690693 0.0313327
000150 53 c5 b9 3d 69 ff fb 3e df 5c f2 bc 6c 07 53 3e
       0.0907084 0.492183 -0.0295853 0.206083
000160 23 b4 9f 3d b3 ed 34 3e e1 eb eb 3e 33 d6 83 bd
       0.0779803 0.176688 0.460784 -0.0643734
000170 06 f4 22 3e 17 b7 11 3e ab 79 6e 3d 3d 29 63 3e
       0.159134 0.1423 0.0582215 0.221837
000180 03 5b 95 be f2 ef e3 3e 2b a1 b0 bd 36 94 aa 3e
       -0.29171 0.44519 -0.0862449 0.333162
000190 af 56 32 3d 52 03 93 ba c1 65 df 3c d3 2b 2a 3d
       0.0435397 -0.00112162 0.0272702 0.0415457
0001a0 dc a3 92 bc 13 da cd bc 69 40 98 3c 44 98 2c 3d
       -0.0179004 -0.0251284 0.0185854 0.0421374
0001b0 cb bd dd 3b d5 7b c5 3c d5 4a ba 3b b4 3c 48 39
       0.00676701 0.0241069 0.00568519 0.000190961
0001c0 5f 29 46 3d 9e af 3e bd 0e 16 2e 3d c3 78 32 3d
       0.0483793 -0.0465542 0.0425015 0.0435722
0001d0 d5 58 e7 3c 18 98 d5 3c a0 43 ea bc f0 fd a8 3c
       0.0282406 0.0260735 -0.0285967 0.0206289
0001e0 3a 5a 95 3c d1 04 6a bd d9 18 25 3d b2 b2 07 bc
       0.0182315 -0.0571335 0.0403069 -0.00828235
0001f0 1f 47 98 3c 8f 22 21 bc 45 53 0f bb b7 09 b7 3c
       0.0185886 -0.0098349 -0.00218697 0.0223435
000200 7d eb c3 bc 24 f1 72 bc 96 d7 40 bd d0 5c 2c bd
       -0.023916 -0.014828 -0.0470806 -0.0420807
000210 eb 4e 5c 3d 0d 56 b7 3c 56 6a d1 bc a0 89 b0 bc
       0.0537862 0.0223799 -0.0255634 -0.02155
000220 6e 78 b0 bc f5 3f 48 bb f7 50 ac 3c c2 a1 37 bc
       -0.0215418 -0.00305557 0.0210347 -0.011208
000230 c4 9e 51 3c c8 d0 b1 3c 0a 2e 56 3c 4a 02 3e 3d
       0.0127942 0.021706 0.0130725 0.0463889
000240 a7 6c 22 3d fc 8d f6 bc e3 7d 8b bc b8 84 32 3c
       0.0396544 -0.030097 -0.0170278 0.0108959
000250 c8 08 87 3b 8a 07 0f bd ce 36 f7 3d 18 09 6d be
       0.00412092 -0.0349193 0.12071 -0.23148
000260 03 77 50 be f8 5e f2 3c f2 b5 07 be 05 15 2d bf
       -0.203579 0.0295863 -0.13253 -0.676102
000270 cf 70 b9 3b 7e c5 fa 3e a3 07 de 3d 37 01 91 3d
       0.0056592 0.489788 0.108413 0.0708031
000280 fe fc ad 3b 2c 2b d5 be 7c ee 24 3e 00 5e a5 bd
       0.0053097 -0.416345 0.161066 -0.0807457
000290 4f 23 85 3f 98 a3 c3 3f f3 02 5c 3e 30 2e 19 bf
       1.04014 1.52843 0.214855 -0.598361
0002a0 4f b3 bc 3b d5 7f 91 bd 9c 51 2f 3f 8b c4 34 be
       0.00575868 -0.0710446 0.684839 -0.176531
0002b0 e0 91 c2 3c 19 35 24 bd 00 fa 02 3d 14 3d 40 be
       0.0237512 -0.0400897 0.0319767 -0.187733
0002c0 85 ba 63 3d a7 7a 9a be c6 33 90 be 5c 3c 04 3f
       0.0555978 -0.301717 -0.281645 0.516546
0002d0 3f 01 04 3e 5f ec f5 3e 94 6d 40 3e 4b 1f 32 3f
       0.128911 0.480319 0.187918 0.69579
0002e0 e6 ea 77 be a6 9c 5f 3f d3 13 79 3a d9 0a 0a 3e
       -0.242107 0.873484 0.000950155 0.134807
0002f0 cd 61 2d bd 45 9e a4 3e 32 e4 98 bd be d9 de be
       -0.0423296 0.32152 -0.074654 -0.435255
000300 30 02 14 bd f0 c4 88 3f c3 f9 2f bd 8d 61 ee 3d
       -0.0361349 1.06851 -0.0429628 0.116397
000310 cf de 74 bd 1e c2 38 be 95 d4 91 3e 59 8b 47 3f
       -0.0597828 -0.180428 0.284825 0.77947
000320 d5 e8 45 3e 57 5b 19 3f 68 91 6d 3d 25 03 00 bd
       0.193271 0.59905 0.058 -0.031253
000330 52 b5 ed be 71 5a 80 bf 86 97 bb bc 29 b1 4b 3e
       -0.464274 -1.00276 -0.0228994 0.198918
000340 1e 0d 51 3d 8f ab 4d bf 29 8f 73 3d f5 b8 87 3e
       0.0510379 -0.803399 0.0594627 0.265083
000350 c1 6e fd 3c 21 e8 68 bf a7 cb 12 3e e4 bd a6 3f
       0.0309366 -0.909792 0.143355 1.30267
000360 9a 81 05 bd 36 c8 28 bf 27 4b 5d 3e 6e 13 ce bd
       -0.0325943 -0.659305 0.216107 -0.100623
000370 86 54 69 3f d2 8c 8d 3f 4d 4d 42 bf b3 25 4b bd
       0.911446 1.10586 -0.758992 -0.0495965
000380 6c 76 20 3f 64 40 16 be 22 aa f0 3b c0 59 9a be
       0.626807 -0.14673 0.0073445 -0.301466
000390 db c1 d0 be 49 c6 a0 3d dc 64 14 be a9 32 58 3f
       -0.407729 0.0785032 -0.144916 0.844523
0003a0 da 3c 2e be 7a c7 b9 bd e6 02 47 3e 3e 5c 22 be
       -0.170154 -0.0907125 0.194347 -0.158555
0003b0 f5 a2 31 bd 10 75 0f 3e 5a b8 0c bf a9 8d 01 bc
       -0.0433683 0.140095 -0.549688 -0.00790731
0003c0 d6 58 42 bc df fe 4c 3e 1f 10 58 3e 06 83 0b be
       -0.011862 0.200191 0.210999 -0.136242
0003d0 9e 9d a7 3c dd 7b a8 be b7 43 7f 3f d4 7e 3f 3f
       0.0204609 -0.32907 0.997127 0.748029
0003e0 91 fa b1 3d 02 28 86 3e 34 84 e3 3d 68 eb a8 be
       0.0869037 0.262024 0.111092 -0.329921
0003f0 f1 d5 be 3d 9c 6c 62 bb c7 f3 d9 3e cd ab 1a 3f
       0.0931815 -0.00345496 0.425688 0.604184

Operation_3_Add_B f4 [50]
000000 44 4d 14 3f 6f 2d 03 3e 09 ff 32 be b3 a9 42 bb
       0.579304 0.128103 -0.174801 -0.00297032
000010 bb 6c 6a bd 54 a7 83 be 18 a4 8f bc 4d 2c 70 3e
       -0.0572326 -0.257136 -0.0175343 0.234544
000020 11 eb 4c ba db 63 b3 bb 77 26 39 bd 13 49 84 be
       -0.000781701 -0.00547455 -0.0452027 -0.25837
000030 0d 43 aa bd 40 37 8f 3d 2b f3 3b bd 46 28 26 be
       -0.0831357 0.0699296 -0.0458862 -0.162263
000040 01 70 b9 39 95 d3 5e 3e d2 c6 f1 3d d0 bc 37 3d
       0.000353694 0.217604 0.118055 0.0448578
000050 dc 10 27 bf b9 c6 df 3e a8 53 8e 3d fc a8 66 bd
       -0.652601 0.437063 0.0694955 -0.0563135
000060 f6 61 4d be 4f 77 1e bf 19 39 9b 3d 9f 91 28 3e
       -0.200569 -0.619008 0.0757925 0.164618
000070 ca a4 22 bf 04 7d 98 3c 97 a9 39 3e 58 ac 41 3d
       -0.635327 0.0186143 0.181311 0.0472835
000080 41 2d ae be 0c ce e0 3e f5 bd 86 3e 95 4a 93 3c
       -0.340189 0.439072 0.263168 0.0179799
000090 f4 15 c5 bb 13 e3 ab 3d e4 65 19 3f ce 4f d1 3d
       -0.00601458 0.0839292 0.599211 0.102203
0000a0 16 87 9b 3e a7 94 27 3e fb b2 f4 bc 22 37 43 3e
       0.303765 0.163653 -0.0298705 0.19064
0000b0 48 b2 7d 3c d9 42 80 be 52 5f 36 be cf d8 67 be
       0.0154844 -0.25051 -0.178098 -0.226413
0000c0 95 49 48 bd 53 07 f9 bd
       -0.0488983 -0.121596

Operation_4_MatMul_W f4 [50, 50]
000000 d9 5a 7f be 41 9e 2d 3f 75 75 0b 3f b6 64 15 be
       -0.24937 0.678196 0.544761 -0.145892
000010 ed d4 00 3f 6b b9 2f bf 35 0d 6e bf 9c c1 4f 3e
       0.503249 -0.686423 -0.929889 0.202887
000020 a1 db 83 3e 63 0d c7 be b4 94 bc be 67 9a 00 3e
       0.257535 -0.388774 -0.368322 0.125589
000030 d5 cb 12 3c 97 1c 8f 3e 65 9d 3b bc b3 42 11 be
       0.00895973 0.279515 -0.0114511 -0.141856
000040 a7 e6 da be cc 32 3a bd bf 0e dc bd f2 ae dd 3a
       -0.427541 -0.0454586 -0.10745 0.00169131
000050 fb 91 e2 be bc ea 71 3e 1b 80 85 be 54 f3 a6 3c
       -0.44252 0.236247 -0.260743 0.0203797
000060 d7 c0 fe be 3a 90 55 be e1 99 70 3e 43 26 11 3c
       -0.497565 -0.208558 0.234962 0.00885922
000070 6e 8a 77 3e 2f 97 43 3c 27 b3 0b bd 4c aa ae 3e
       0.241739 0.0119379 -0.0341064 0.341143
000080 1f 4c aa be c1 02 40 bf b4 42 ac bc 8c d8 47 be
       -0.332612 -0.750042 -0.0210279 -0.195162
000090 43 92 a1 be 28 0f 8b 3f 14 5b 51 3e 4a 7e 64 3e
       -0.315569 1.0864 0.204449 0.223138
0000a0 14 26 ec 3d 52 43 0b be 48 c5 5f be 72 fe aa 3f
       0.115307 -0.135999 -0.218526 1.33589
0000b0 46 61 6f 3f 54 fc 4f be b7 61 84 bd b4 e3 ab 3c
       0.935078 -0.203111 -0.0646395 0.0209826
0000c0 3e e7 0e bf c4 ce 8c be 36 f5 30 3d 0a a3 29 3f
       -0.558216 -0.275015 0.0432026 0.662644
0000d0 b3 7e d3 3d d1 3c 70 be ae 12 d4 be 54 ab 0f 3e
       0.103269 -0.234607 -0.414205 0.140302
0000e0 7f f6 87 3f 39 62 d9 3f 7d 76 b8 be 6d 8c e5 be
       1.06221 1.69831 -0.360279 -0.448337
0000f0 c1 8e 0f bf 54 74 02 c0 be 67 64 3e 6c 70 cc bd
       -0.560772 -2.03835 0.223052 -0.0998238
000100 59 c4 28 3f 71 39 7e be 52 50 40 bd 18 25 e0 3e
       0.659246 -0.248266 -0.0469516 0.437783
000110 4e e6 94 bd 75 56 cb bc f8 46 ae 3d b2 d8 c6 3e
       -0.0727049 -0.0248215 0.0850963 0.388372
000120 8e e6 68 bf 3c 9b 1a 3d 0a be 1d 3f 57 21 01 3f
       -0.909768 0.0377457 0.616181 0.504415
000130 55 c2 cb 3e dd 7a 8d 3d 0c 8f fd bd a7 ee 25 bd
       0.397967 0.069082 -0.123808 -0.0405108
000140 84 67 92 be 75 ab 8f 3f 9b 75 06 3e 35 5e 0a 3e
       -0.285946 1.12242 0.131308 0.135125
000150 fd 7e 36 bd 4e e1 57 3d 0c 1e 36 be 03 93 a0 bd
       -0.0445547 0.0527051 -0.177849 -0.0784054
000160 e8 16 26 3f 3b 37 dd 3e c7 66 77 be 39 f7 a2 bd
       0.648787 0.432062 -0.241603 -0.0795731
000170 44 86 25 be 7f 84 15 3f 72 c2 8c 3e d8 2c 97 be
       -0.161645 0.584053 0.274921 -0.295264
000180 06 0d 95 3e cf 32 26 3d d2 e5 ed 3d f9 75 96 bd
       0.291115 0.0405758 0.116161 -0.0734672
000190 0b 25 eb be 61 c2 e8 3d ea 78 a8 3f 76 70 30 bc
       -0.459267 0.113652 1.31619 -0.010769
0001a0 75 e6 ce be e6 95 2b 3e da 58 39 3e f6 0b a2 bf
       -0.404102 0.167564 0.181003 -1.26599
0001b0 66 11 2a 3d 7d 1f 6e be 11 34 22 bf 9a eb ec be
       0.0415205 -0.232542 -0.633607 -0.462735
0001c0 98 50 21 be bc ea a9 be 11 1c bf be 85 05 f7 bd
       -0.157534 -0.331869 -0.373261 -0.120616
0001d0 46 41 b8 be ff b1 c8 3e 52 80 18 3f e6 eb 9f 39
       -0.359873 0.391983 0.595708 0.000305026
0001e0 40 fb d9 be 3a b5 ae 3d 46 b1 14 bf b4 dd 2e bd
       -0.425745 0.0853066 -0.58083 -0.0426919
0001f0 4e 46 55 3e 80 b6 a5 bd 67 37 44 3c 34 a2 34 be
       0.208276 -0.0809145 0.0119761 -0.1764
000200 1c b3 2c be a2 20 3d bd 70 0d 47 3c c9 e9 73 3f
       -0.168652 -0.0461737 0.0121492 0.952786
000210 85 8a 1b 3d 3d 82 1b 3e d5 38 40 bd 42 94 97 3e
       0.0379739 0.151864 -0.0469292 0.296053
000220 4d 5d 23 bd 57 43 82 be 8b 29 42 bd d3 39 8a 3d
       -0.0398839 -0.25442 -0.0474029 0.0674931
000230 4e f1 38 bd 4b b1 23 bd 9f 64 82 3b 03 cd 5f 3f
       -0.045152 -0.039964 0.00397928 0.874222
000240 4a 44 54 bf 95 2d 82 3e 35 b7 62 3e 7a d2 18 bd
       -0.829167 0.254254 0.221402 -0.0373101
000250 97 01 47 bf 2b da 3c 3e a3 52 91 bc df 18 e1 bb
       -0.777368 0.184426 -0.0177396 -0.00686942
000260 67 7c 3f bd 8e 9a 0a 3d f2 58 79 bb 66 3a ea 3c
       -0.0467495 0.0338388 -0.00380474 0.0285923
000270 c4 8f 56 3c 6a d2 b7 3c 99 30 b7 bb aa d7 70 ba
       0.0130958 0.0224392 -0.00559051 -0.000918741
000280 95 08 19 3d c5 32 02 3d 95 5f 4c bb 55 29 42 bd
       0.0373617 0.0317867 -0.00311849 -0.0474027
000290 c4 b5 35 bd 7a 74 3e 3d 29 37 9b bc 00 6e 3b bc
       -0.0443628 0.0464978 -0.0189472 -0.0114398
0002a0 d4 10 00 3a 4d 5c 58 bb 44 fa 4c bb 32 5d 23 3d
       0.000488532 -0.0033014 -0.00312771 0.0398838
0002b0 fa 5e 43 3d bf 76 d5 3c 87 4b 10 3c 1e 0f 07 bc
       0.047698 0.0260576 0.00880707 -0.00824335
0002c0 c0 5f a7 bc f3 5c 1a bd 5a 94 e3 3c 8b 36 27 3d
       -0.0204314 -0.0376863 0.0277807 0.0408235
0002d0 aa ae 0d bd bf 58 a9 bc b2 5c 7c bb 03 24 3a bd
       -0.0345904 -0.0206722 -0.00385074 -0.0454445
0002e0 de 08 26 bd 88 0c 30 3d f7 56 c5 3b 06 bc 4c bd
       -0.0405358 0.0429807 0.00602233 -0.049984
0002f0 ac 7d 4f bb 56 c7 a0 bc 9c 9e 4b ba e8 3f f5 3c
       -0.00316606 -0.0196263 -0.000776747 0.0299377
000300 aa 49 10 bd 17 24 22 bd ce 86 a1 3c 00 09 59 3d
       -0.0352265 -0.0395852 0.0197176 0.0529871
000310 a7 34 0c bd 42 57 47 3c a4 ae 30 bd 54 b8 af 3b
       -0.0342299 0.0121668 -0.0431353 0.00536255
000320 6e da 4c 3e 2f df 6a 3e 45 2a f8 bf 67 f3 80 3e
       0.200052 0.229367 -1.93879 0.251857
000330 4a 62 e1 3e 01 4e ef 3e c8 5c f1 be 4d a3 19 3f
       0.440203 0.467392 -0.471411 0.600148
000340 fe 0d 36 bf 3c 67 8b be 29 e6 85 3d 47 56 7e 3e
       -0.711151 -0.272272 0.0653804 0.248376
000350 aa 46 c7 be 57 b0 95 be 5b ec ae be 2f 88 68 3d
       -0.389211 -0.292361 -0.341647 0.0567705
000360 f8 4c 1b bd 5c 22 b2 bc 8a 93 5b be 58 c7 d4 3b
       -0.0379152 -0.0217449 -0.21443 0.00649349
000370 b5 8a 0a 3f ab b3 12 3f d9 95 36 3e fb f1 30 bb
       0.541179 0.573054 0.178306 -0.00269997
000380 7b 13 73 3e ce 8b 43 be e8 a4 8f be dc b8 05 3d
       0.237379 -0.190963 -0.280555 0.032647
000390 ac 00 1f 3e cd 12 2e 3d 86 bd aa 3d bf 9a 9f bf
       0.155276 0.0424984 0.0833693 -1.24691
0003a0 a3 90 dc be 5c 93 be be 1a 63 f1 3c d2 c5 e6 bd
       -0.430791 -0.372218 0.0294662 -0.112682
0003b0 64 5b 76 3e a5 30 bf be 40 a6 d5 bd 1e e2 97 be
       0.240583 -0.373418 -0.104321 -0.296647
0003c0 cc 46 07 bd 78 0a 09 3e d2 1d 84 bf e5 98 94 be
       -0.0330265 0.133829 -1.03216 -0.290229
0003d0 f1 2b 9e be 07 0b d7 be 1f a2 89 bf af 3e 9e 3c
       -0.308929 -0.420006 -1.07526 0.019317
0003e0 2b a6 22 be ea 7a 92 be a6 9c 4f be 84 b9 9d 3c
       -0.158837 -0.286094 -0.202746 0.0192535
0003f0 bf b7 1d 3f 7f be 3d be fb 51 3e bd 21 b0 d2 bd
       0.616085 -0.185297 -0.0464649 -0.102875

Operation_4_Add_B f4 [50]
000000 5e fb 1b 3c a4 18 b0 be ce c2 96 3f 0e 9e 69 be
       0.00952038 -0.343938 1.17782 -0.228142
000010 ab 08 97 be 7f 95 12 bd 0e da 83 be fa cf 82 be
       -0.294988 -0.0357871 -0.257523 -0.255493
000020 c0 cc 8f be a7 3c 7a be 5e b9 3e be a3 62 b2 bd
       -0.280859 -0.244372 -0.186254 -0.0871022
000030 db 3d 4f bd 16 55 3a bd 29 ae ea bd 42 43 df bd
       -0.0505961 -0.0454913 -0.11459 -0.109015
000040 d1 75 51 bf a0 18 81 be 53 ce df 3e c4 87 88 bc
       -0.818204 -0.252141 0.437121 -0.0166663
000050 0f 99 a2 be 42 00 85 bd c3 7f 62 bf cd 4b cf bc
       -0.317574 -0.0649419 -0.884762 -0.0253047
000060 0c 32 a3 3d 22 35 4d be 45 f4 a3 3e 1f db aa be
       0.0796853 -0.200398 0.320223 -0.333703
000070 84 2c 2b 3e d9 c0 67 bc 2b 34 c0 be d0 9a 67 bf
       0.167162 -0.0141451 -0.375398 -0.904706
000080 7b 63 4d 3d ef ff 83 be 38 ec c6 bb 7d 25 b0 3e
       0.0501437 -0.257812 -0.00607064 0.344036
000090 34 dd c6 bc 6b 0b 97 be 53 95 26 be 39 b6 a6 be
       -0.0242754 -0.295009 -0.162679 -0.325609
0000a0 25 ce ea 3e 94 a1 1a 3e e9 d7 56 bc 27 be c2 be
       0.458604 0.151007 -0.013113 -0.380357
0000b0 80 21 b5 3c 74 ec e0 bd 28 f1 19 be c0 a9 59 bc
       0.0221107 -0.109826 -0.150334 -0.0132851
0000c0 b2 e8 47 bd bf 08 3f bd
       -0.0488059 -0.0466392

Operation_5_MatMul_W f4 [50, 50]
000000 e1 9b 96 be 4f 74 cd 3e 2a 53 0c 3e 04 73 98 bf
       -0.294158 0.401278 0.137036 -1.19101
000010 ab 05 0e 3f 8f df 9f bf 97 77 6e bb 54 2f 49 3d
       0.554774 -1.24901 -0.00363872 0.0491174
000020 81 5a 4c bf 82 03 b9 3b 9b 03 34 3e 05 db f8 3e
       -0.798256 0.00564617 0.175795 0.486046
000030 be 13 93 bf 30 4b d3 3e 36 58 48 be 3d 4d 61 bd
       -1.14904 0.412683 -0.195649 -0.0550053
000040 de 54 74 be 89 90 bf bd 16 1b 4e bd 46 60 5c 3e
       -0.238605 -0.0935374 -0.0503188 0.215211
000050 62 6a a3 be 4a 24 6d 3f 00 74 10 3f e4 de b7 bd
       -0.319171 0.926335 0.56427 -0.0897806
000060 d3 f9 a0 be f0 05 dc 3c 6c a9 28 3d 31 08 80 bf
       -0.314406 0.0268583 0.0411772 -1.00025
000070 3f 3b cb bd 86 84 f9 3c da 1b 5c be cd 9d 2f bd
       -0.0992341 0.0304587 -0.21495 -0.0428751
000080 48 fb 5f be b5 17 d1 bd dd 23 3b 3e 76 6e da 3d
       -0.218732 -0.102096 0.182754 0.106656
000090 74 a9 db 3c 6e 6e c4 3e db f8 93 3c b1 fc 21 bf
       0.0268142 0.383655 0.018063 -0.632762
0000a0 ff 25 59 be ea 77 b9 be 59 13 83 be 51 6b da 3c
       -0.212059 -0.362243 -0.256007 0.0266625
0000b0 16 13 2b 3e b1 db cf be 67 28 ce be de af b2 bd
       0.167065 -0.405973 -0.402652 -0.0872495
0000c0 0d 6e 1f bf ba 85 4e 3e 23 4a bb 3e 30 46 fc 3e
       -0.622773 0.201682 0.3658 0.492723
0000d0 d7 7a 2f bb 18 05 b9 be 0d c3 19 40 5d bf e8 3e
       -0.00267761 -0.361367 2.40253 0.454585
0000e0 2e 26 2c bd 88 eb 42 3d 15 aa 73 bf af 99 57 bb
       -0.0420286 0.0475879 -0.951814 -0.0032898
0000f0 57 cc 64 3f e9 9a 95 3f 61 8e 96 be 7d 91 88 3e
       0.893743 1.16879 -0.294055 0.266735
000100 51 7c 26 bd 5b 5e d9 bd 2a 03 9f 3e bc 03 4c 3e
       -0.0406459 -0.106137 0.310571 0.199233
000110 be 61 87 bc 29 8c 92 3c ba f6 9d be 48 00 b2 bd
       -0.0165261 0.0178891 -0.308523 -0.0869146
000120 12 4f 9e be 01 18 ef 3d c0 5f 2c 3e e5 41 7a 3e
       -0.309197 0.116745 0.168334 0.244392
000130 b0 ad 0b bf fa ab 91 3d 75 b3 7a bd 29 a9 5d 3c
       -0.545619 0.0711288 -0.0612063 0.0135291
000140 fe 62 36 3d be 3a 7d bc cb 64 bd bd 50 df 42 3f
       0.044528 -0.0154559 -0.0924774 0.76122
000150 ca 6f 31 be 0b c7 bd 3c 68 07 6c be b8 40 6e 3f
       -0.173278 0.0231662 -0.230497 0.930675
000160 be 92 9a bc 4c 70 92 3e a1 2f 7d be f3 72 34 bf
       -0.0188688 0.286013 -0.247252 -0.704879
000170 20 62 e3 bd 2f b9 9b bc 7a e3 14 3e bd fe 18 3f
       -0.111027 -0.0190092 0.145399 0.597637
000180 e7 00 71 be ec da 5e 3e a0 c5 32 be 0e be 80 3f
       -0.235355 0.217632 -0.174582 1.0058
000190 04 eb 73 bd 3a 5e 8c bd 37 0a 1f bd 0f 04 ed bc
       -0.0595503 -0.0685391 -0.0388281 -0.0289326
0001a0 59 4e d2 be cb 34 12 3c 18 f4 54 bd 11 f3 c6 bd
       -0.410754 0.00892372 -0.0519906 -0.0971433
0001b0 30 da 33 3e bd 54 ec 3b cc 9b 53 be 51 4a b8 be
       0.175637 0.00721225 -0.206649 -0.359942
0001c0 c4 05 00 be 08 8c ba 3d ad e4 1d bb ed 65 7b bd
       -0.125022 0.0910874 -0.00240926 -0.0613765
0001d0 03 3e 0f be cd ba 15 3d c9 9e 73 bc 55 a1 e1 bd
       -0.139885 0.0365551 -0.0148694 -0.110171
0001e0 31 3e 12 bc 19 90 3d 3e 1b 5f 40 bd 56 33 84 ba
       -0.00892596 0.18512 -0.0469657 -0.00100861
0001f0 3f a8 cb bc 56 e6 17 bd c0 21 14 3e 56 7e 49 be
       -0.0248605 -0.0370849 0.14466 -0.196771
000200 8b 33 27 3b f0 6e 40 bd 19 9b ac bd db 47 f6 3b
       0.00255129 -0.0469808 -0.0842802 0.00751589
000210 6f c8 90 3c a7 eb 2a 3b 70 ec d9 3d a3 bb 5a bc
       0.0176737 0.00260804 0.106408 -0.0133504
000220 99 4a bf bc dc b8 45 3c 66 57 30 3d 6a 18 5e be
       -0.023351 0.012068 0.0430521 -0.21689
000230 15 e8 4e 3d 83 74 cc 3d 6f ee 14 3d b1 bb 85 bd
       0.0505143 0.0998316 0.0363602 -0.0652994
000240 d6 cf a6 3d 05 47 6e 3d 31 b1 c1 be ed 2e 8b 3d
       0.0814511 0.0581732 -0.378305 0.0679606
000250 c4 9b 70 3d 20 7a 72 be ad 32 63 be 27 a3 2a 3f
       0.0587423 -0.236794 -0.221873 0.666552
000260 f7 e5 0c 3e 4e ec 31 3e 84 bc 56 bf a7 06 16 3f
       0.137596 0.173753 -0.838814 0.586039
000270 0f 3a cf bb bc 06 e5 be bd 54 4c 3d 65 c6 83 3e
       -0.00632406 -0.447317 0.0498855 0.257373
000280 91 0a d3 3e cc f2 50 bd 0d 89 31 c0 05 87 f7 3d
       0.41219 -0.0510128 -2.77399 0.120863
000290 3e b4 b7 3e 40 05 c6 3d b2 65 15 bf 8d 0d bd 3e
       0.358797 0.0966897 -0.583583 0.369244
0002a0 ea 3c 0d 3c 94 34 17 3f 8a c5 54 3d 8b a8 0d 3f
       0.00862048 0.590646 0.0519462 0.553353
0002b0 c2 f9 c4 3e a8 fc 83 3e 24 09 52 3e b8 01 df be
       0.384718 0.257787 0.205113 -0.43556
0002c0 9f 13 ac bd e0 c5 b1 bd e3 50 8f be 1e b2 b7 3b
       -0.0840218 -0.0868032 -0.279914 0.00560595
0002d0 8b 31 c5 3d 0c 79 94 be 37 05 bd bd e8 67 3a bf
       0.0962859 -0.289986 -0.0922951 -0.728148
0002e0 65 c7 66 3f e1 6c 46 3b 88 b3 0c bd 6a 4f e9 bd
       0.90148 0.00302773 -0.0343509 -0.113921
0002f0 01 85 fa bd d6 aa 3d 3e 3d 60 52 bf a0 89 80 3e
       -0.122324 0.185222 -0.821781 0.25105
000300 7c 99 88 3e 55 96 f2 bc e5 05 8d 3d 50 72 8f be
       0.266796 -0.0296127 0.0688589 -0.280169
000310 a0 e2 0c bf 5c 20 91 be 19 8e 8f 3e b0 3a e2 be
       -0.550333 -0.28345 0.280381 -0.441854
000320 97 ac 32 3f 6e c4 23 be 95 27 f0 3d 35 98 d6 3e
       0.697946 -0.159929 0.117263 0.41913
000330 75 8e 03 40 f2 77 17 3f be a4 f1 3c ca a6 6c 3e
       2.05557 0.591674 0.0294975 0.231105
000340 4e 9c a4 be c7 bb 73 3e d8 d4 c9 be a8 df 79 3f
       -0.321505 0.238021 -0.394202 0.976069
000350 d9 7c 18 c0 11 64 be 3d c7 2f bc bd 8e 3a fa 3d
       -2.38262 0.0929643 -0.091888 0.122182
000360 fc 54 6d bf ed 2d bd 3e 17 b2 5f 3c 46 b6 29 40
       -0.927078 0.369491 0.0136533 2.65175
000370 36 57 65 bf ca f9 66 3f 13 47 96 3e b9 16 9d be
       -0.895862 0.902249 0.293511 -0.306814
000380 2d f9 6e 3d ff e1 f8 3c 33 a7 b7 bf 7f 6a 94 3f
       0.0583431 0.0303812 -1.43479 1.1595
000390 1e e2 ff bd 29 93 da 3c 96 eb 0d be 79 c4 9d bd
       -0.124943 0.0266815 -0.138594 -0.0770349
0003a0 a0 a9 d7 3d 2f 06 85 3d d5 77 d6 3e 2f 69 84 3e
       0.105304 0.0649532 0.418883 0.258615
0003b0 bd 6e f1 be ce 8d a9 3f 2b 51 f6 bd 92 3f 38 3e
       -0.471548 1.32464 -0.120272 0.17993
0003c0 d0 44 88 3e a3 e7 a6 be c3 f0 e1 3e ff df 02 3d
       0.26615 -0.325986 0.44129 0.0319519
0003d0 0d 8d 77 3e 86 cb d2 3e 22 55 14 bf c8 ef 49 bf
       0.241749 0.411709 -0.579424 -0.788815
0003e0 e8 01 62 3d 95 44 96 3e 3b c5 52 bf e0 48 50 3e
       0.0551776 0.293492 -0.823322 0.203403
0003f0 ef ff 23 be cb bc 21 bf 06 2f 2a be 3d 0a a7 3f
       -0.160156 -0.631787 -0.166195 1.305

Operation_5_Add_B f4 [50]
000000 c7 d9 94 be 58 8c df 3c 8e ad 37 3e 96 ea 92 bd
       -0.290724 0.0272886 0.179373 -0.0717365
000010 f2 7a 70 be 84 9c 5b bf 6d b9 06 bc 5c 02 88 3e
       -0.234844 -0.857857 -0.00822292 0.265643
000020 ec 34 aa bf be 4e 0a 3e fa 27 18 be 63 57 a4 3d
       -1.32974 0.135066 -0.14859 0.0802448
000030 6d c6 89 3e 99 0d 92 be 94 4a 48 3e 8e 59 a6 3e
       0.269092 -0.28526 0.195597 0.324902
000040 cf 66 fd 3e a8 42 82 bd 08 19 6d bc 16 13 9b be
       0.494925 -0.0636037 -0.0144713 -0.30288
000050 ef 73 0c be eb c5 90 bf 56 99 e1 be 98 3f 15 3d
       -0.137161 -1.13104 -0.440623 0.0364376
000060 24 0f 44 3e 63 0a 36 3e eb 1d e6 be 28 0d 05 be
       0.191464 0.177774 -0.449447 -0.129933
000070 ef b5 96 bc 0a 35 9e bc 61 1c dc 3d 1b 2f 2d 3e
       -0.0183973 -0.0193124 0.107476 0.169125
000080 ec 15 36 bd 9d 48 80 3e 1f f3 a9 be 7e e2 10 3e
       -0.0444545 0.250554 -0.331933 0.141489
000090 b5 a6 49 3e 5a a1 44 bf 3b 77 76 3d e3 36 9e bf
       0.196925 -0.768087 0.0601723 -1.23605
0000a0 7a a6 6f bf 67 0b 28 be dd ce 5e be 43 da d0 bc
       -0.936134 -0.164106 -0.217586 -0.0254947
0000b0 ad fc 32 be 21 ca 27 be 7d 3f 09 c0 ee 78 eb be
       -0.174792 -0.163857 -2.1445 -0.459907
0000c0 fe fe c3 bd 69 c5 07 3e
       -0.0957012 0.132589

Operation_6_MatMul_W f4 [50, 50]
000000 08 5b 6c 3d f3 87 b0 bc 52 d5 2c bf 81 82 81 3c
       0.057704 -0.0215492 -0.67513 0.0158093
000010 cf 78 0c 3d ed 67 4c bd 89 44 09 3f 3e 5a fc bd
       0.0342949 -0.0499038 0.536202 -0.123219
000020 8c da 0d be df 18 46 bf 92 30 22 bd e9 d5 b0 3e
       -0.138529 -0.773817 -0.0395971 0.345382
000030 51 27 28 3b fd f4 ff 3e 09 de 48 bf 1a db 4b bd
       0.00256582 0.499916 -0.784638 -0.0497695
000040 77 2e 3c 3e ce 94 cc bc fa b7 eb 3d f0 4e f6 3e
       0.183771 -0.0249733 0.115097 0.481071
000050 f0 13 ef be b4 77 b6 bd 49 0e 00 bf 74 b9 3c 3d
       -0.466949 -0.0890955 -0.500218 0.0460753
000060 c4 71 c5 3d c0 f4 ec 3c ab 6a 93 3c 83 86 26 3f
       0.0964084 0.0289253 0.0179952 0.65049
000070 16 6d ce bd 22 9d 2b 3d 69 54 80 3e ec e3 7c bc
       -0.100794 0.0418979 0.250644 -0.0154352
000080 53 79 db 3d bc fc 33 3d 44 30 96 3e bf a4 2c 3d
       0.107165 0.0439422 0.293337 0.0421493
000090 30 59 86 3d 07 f0 d6 bd 00 1c 2b 3e 5b 01 2a 3c
       0.0655998 -0.10495 0.167099 0.0103763
0000a0 e7 ec 13 bd ea 64 df 3c 3e 1a d8 3c 2c 28 71 3d
       -0.0361146 0.0272698 0.0263797 0.0588762
0000b0 cd 31 4a bd ca de 22 be 16 24 6d 3a c5 f4 6f 3b
       -0.0493639 -0.159053 0.000904621 0.00366144
0000c0 16 68 0b 3f 02 c5 9f 3b 28 ea f1 bb 1f d8 31 bd
       0.544557 0.00487578 -0.00738265 -0.043419
0000d0 4c 54 5f 3e 96 9c 4e bd a1 d7 af 3e 14 94 02 be
       0.218095 -0.0504423 0.343442 -0.127518
0000e0 3d 43 04 3f 10 ef f3 3b 4a 29 a8 3c 1b 47 5a c0
       0.516651 0.00744427 0.0205275 -3.41059
0000f0 35 82 28 bd 57 b3 1e 3e bc f5 d0 bc 74 97 24 3e
       -0.0411398 0.154981 -0.0255078 0.160734
000100 bd 6f f0 bf 6a 9e 88 bc c7 63 8a bf a2 2b ec bc
       -1.87841 -0.0166771 -1.08117 -0.0288294
000110 20 97 88 bd 35 2a f0 be f9 4e 54 3f 83 2a 3a bd
       -0.0666945 -0.469072 0.82933 -0.0454507
000120 a9 83 3c be 73 b8 18 3c b6 d9 88 bd 7e fe bb bd
       -0.184096 0.00932132 -0.0668215 -0.091794
000130 00 a9 51 3b be f7 17 be d6 c5 ed be 51 8a 11 bd
       0.00319916 -0.148406 -0.4644 -0.0355323
000140 b0 00 9e 3e c9 15 a4 bb d2 9a a5 bd 38 32 2a bd
       0.308599 -0.00500748 -0.0808617 -0.0415518
000150 64 e0 ca bc f2 a9 ad ba c3 92 9c bd e5 d2 b8 bd
       -0.0247652 -0.00132495 -0.0764518 -0.090246
000160 c0 31 b6 bb ea de 33 bb 18 7b cf bd ba 7d 3b bd
       -0.00556013 -0.00274461 -0.101309 -0.0457742
000170 7d 5a 25 be e4 bd 9a 3d 9d 50 42 bb 8d 44 08 be
       -0.161478 0.0755575 -0.00296501 -0.133074
000180 23 49 75 bd e2 6f 00 bd 0e f6 36 be c7 9e 3d bc
       -0.0598842 -0.0313567 -0.178673 -0.0115735
000190 da 8e 09 be 62 af 06 bd 73 2a 09 bf d6 b2 82 3a
       -0.134334 -0.0328821 -0.535804 0.000997151
0001a0 cc ee 55 3f 13 f0 3b 3e 8c 4d 7b be 1a b0 ba bd
       0.835675 0.183533 -0.245413 -0.0911562
0001b0 a6 d0 f9 bd fe 0e 27 c0 8f ac 17 bd e6 04 7d be
       -0.12198 -2.61029 -0.0370298 -0.247089
0001c0 7a c9 9a bc 38 2e db 3e 49 a2 3d c0 b5 94 62 3c
       -0.0188949 0.428087 -2.96303 0.0138294
0001d0 e4 83 9b c0 ef 55 ab bc ef fe d8 bd 50 eb ac bc
       -4.85985 -0.020915 -0.105955 -0.0211083
0001e0 48 53 7d bf 28 88 10 3d 20 98 d3 bf a8 11 04 bd
       -0.989552 0.0352861 -1.65308 -0.0322434
0001f0 e3 34 04 bc a7 22 85 be 7b 9e 94 bd 42 cf e2 bf
       -0.00806925 -0.26003 -0.0725679 -1.77195
000200 24 28 92 bf 1e cd b7 bd e5 0b 12 bf 07 70 c4 3a
       -1.14185 -0.0897467 -0.570494 0.0014987
000210 ea 5d ac 3d 16 95 93 bd 63 2b b0 3e 4a bf 33 bc
       0.0841635 -0.0720617 0.344081 -0.0109709
000220 16 f9 d5 bd cf bb 11 bf 55 34 16 be d0 ff 8c bd
       -0.104479 -0.569272 -0.146684 -0.0688473
000230 e7 87 c6 bd df f0 4c bc d5 fd 52 38 ce e1 4a be
       -0.0969389 -0.0125086 5.03043e-05 -0.198127
000240 6e 7f 15 3c 25 58 4c be 8a df 39 bc 56 a5 48 bd
       0.00912462 -0.199555 -0.0113448 -0.0489858
000250 b4 3b ac be a2 68 b9 bd 81 b3 d4 bd 18 59 37 bd
       -0.336393 -0.0905316 -0.103858 -0.0447627
000260 89 29 71 3d 9a 12 e2 3b cb 69 4f 3e ee 96 e4 3d
       0.0588775 0.00689919 0.202552 0.111616
000270 d6 53 f3 3e 17 d7 74 bf 8f 44 1e bc ee 5a 9a bf
       0.475249 -0.956407 -0.0096599 -1.2059
000280 d2 97 14 bd 28 95 75 3d d6 91 fe bb 5f cf cf 3e
       -0.0362776 0.0599567 -0.00776885 0.405879
000290 4c d2 4b bd ed 44 2e 3d 43 cb 0a bf 3f c8 12 bd
       -0.0497611 0.0425462 -0.542164 -0.0358355
0002a0 13 99 79 3e c5 ae cd 3d c2 fb ba 3e 6f 12 33 be
       0.243748 0.100431 0.365202 -0.174875
0002b0 d5 f2 39 bd 59 02 9f 3d a8 62 b4 bc 13 d0 c8 bb
       -0.0453976 0.0776412 -0.0220197 -0.00612832
0002c0 f4 c7 11 3c 48 bf c1 bf 46 09 02 bf e6 11 12 3d
       0.00889777 -1.51365 -0.507954 0.0356616
0002d0 9c 4f 95 3e 7c 87 56 bd ff 5a a6 be 03 87 66 bd
       0.291623 -0.0523753 -0.324913 -0.0562811
0002e0 d8 0e 36 be c8 60 05 3c 6d 56 dd bd 07 60 83 3c
       -0.177791 0.00814075 -0.108075 0.016037
0002f0 e2 17 63 3d 49 0f 47 3b 11 25 14 3c fa 92 f2 3c
       0.0554427 0.00303741 0.00904204 0.0296111
000300 6f b6 3e bd 2f c4 ea 3d 93 b7 32 3d 4e 83 9d 3d
       -0.0465607 0.114632 0.0436321 0.0769106
000310 13 fe fb 3c 7e 59 f5 bc a7 05 1f 3e 36 8c 0a bc
       0.0307608 -0.0299499 0.155295 -0.00845628
000320 92 3b 31 bd 22 fd 76 3c 61 53 07 bd 68 53 9a bc
       -0.0432697 0.015075 -0.0330385 -0.0188386
000330 79 cd e3 be c7 2e 01 be 5c c9 3e bf 10 1c 7a bb
       -0.444927 -0.126155 -0.74526 -0.00381637
000340 2f 50 d2 bd 6f 83 a2 be a2 b5 e0 bb 01 fb 48 be
       -0.102692 -0.317409 -0.00685759 -0.19627
000350 23 7f 55 bc 74 61 68 bf 97 39 03 c0 2b 98 42 bc
       -0.0130308 -0.907737 -2.05039 -0.0118771
000360 36 ce e6 bd 21 b2 a3 ba 52 7e c6 bf 6e 93 90 bd
       -0.112698 -0.0012489 -1.55073 -0.0705937
000370 4f e6 7f be 07 0a 3c bd 52 bb 3a 3c 48 10 a3 bd
       -0.249902 -0.045908 0.0113972 -0.0796209
000380 fd 47 8b bc 39 42 12 bf bc e4 a4 bc 9a 5b 29 bf
       -0.0170021 -0.571323 -0.0201286 -0.661554
000390 57 07 28 bf 81 3d 8b 3c d4 5d a9 39 fe af 04 bc
       -0.656362 0.0169971 0.000323041 -0.0080986
0003a0 4a 5b 81 bd 20 13 1f bd af d2 dd bd 6b 24 ae bc
       -0.0631624 -0.0388366 -0.108312 -0.0212576
0003b0 05 53 68 bd 1e e4 70 bd 4c d0 35 3d 29 ea 30 39
       -0.0567198 -0.0588113 0.0443881 0.000168719
0003c0 ac e4 23 bd 16 79 48 3c 81 bb 03 bc 3b 29 c0 bb
       -0.040013 0.0122359 -0.00804031 -0.00586429
0003d0 3d ca 52 bd 38 15 79 be f2 84 94 bc 13 d8 b7 bc
       -0.0514624 -0.243245 -0.0181298 -0.0224419
0003e0 11 fc cf bd c7 e3 75 3b 8d 0a 3c bd 80 82 0b bd
       -0.101555 0.00375198 -0.0459085 -0.03406
0003f0 15 41 b7 3d b3 66 3f 3c 2c bb 70 be 3d 82 a6 bd
       0.0894796 0.0116822 -0.235089 -0.0813031

Operation_6_Add_B f4 [50]
000000 a0 aa 5d 3d b8 a4 f4 bc dc 2e 9c be ef e8 3a bd
       0.0541178 -0.0298637 -0.305045 -0.0456323
000010 f5 80 69 bf 9d 67 c4 be d7 c0 9e bf d9 89 1c 3d
       -0.912124 -0.383603 -1.24026 0.0382174
000020 39 f5 5c bb f4 52 35 3f f0 fd 2d bd c1 90 ed be
       -0.00337155 0.708297 -0.0424785 -0.463995
000030 37 d8 45 bd cd 5b f5 be cf d0 99 3d 61 e0 59 bd
       -0.0483019 -0.479216 0.0751053 -0.0531925
000040 87 db 21 3e 85 81 82 bd 8d 55 f3 3b cf be 72 be
       0.158064 -0.0637236 0.00742597 -0.237056
000050 8b 52 46 bf 94 c6 2c 3a 38 f4 b6 be 96 40 8a 3c
       -0.774697 0.000659087 -0.357332 0.0168765
000060 43 d8 ca bd f7 fc c5 3d 33 3a 3b bd e1 40 e8 3d
       -0.0990453 0.0966739 -0.0457098 0.113405
000070 16 87 23 3e 57 ea f9 bd e7 ab 94 be c5 0c 83 bd
       0.159695 -0.122029 -0.290374 -0.0639892
000080 2e ac 9b bd 73 b9 a1 bd 89 29 c1 be 77 83 28 bd
       -0.076012 -0.078967 -0.37727 -0.041141
000090 a8 9f 81 3c 23 a4 42 bf 0a 85 80 be d2 b1 f9 3c
       0.0158232 -0.760317 -0.251015 0.0304803
0000a0 a5 7b c7 bd 9b 1c 1e bd 8d 61 4e 3d 2a 9a 5d 3d
       -0.0974038 -0.0386015 0.050386 0.0541021
0000b0 34 ce 10 bd 44 a5 89 be 3c 84 31 bd 9c 3b d5 bc
       -0.0353529 -0.268839 -0.043339 -0.0260294
0000c0 78 26 44 be 36 e8 2b 3d
       -0.191553 0.0419695
