resources/onnx/acasxu/ACASXU_experimental_v2a_2_7.onnx (onnx, 55889 bytes, 15 tensors)

input_AvgImg f4 [1, 1, 1, 5]
000000 00 00 00 00 00 00 00 00 00 00 00 00 00 00 00 00
       0.0 0.0 0.0 0.0
000010 00 00 00 00
       0.0

Operation_1_MatMul_W f4 [5, 50]
000000 a8 e3 f1 3f 1b c5 28 bc fe 11 81 3d 17 9d cc bd
       1.88976 -0.0103009 0.0630226 -0.099909
000010 a1 5d 4f 3c ec 0c f8 bc 88 49 f8 3e bf d1 ce 3d
       0.0126566 -0.0302796 0.484936 0.100986
000020 0f 80 d8 3e 7e 38 86 3b f1 12 bc be 5c 10 c0 bc
       0.422852 0.00409609 -0.367332 -0.0234453
000030 78 ec 87 3e 48 8d 05 3c 51 d8 87 bb e6 c9 ad 3e
       0.265476 0.00815136 -0.00414566 0.339431
000040 e4 0e b0 bd 38 4a 2e 3e 94 02 81 bc e9 65 d4 bd
       -0.0859659 0.170205 -0.0157483 -0.10371
000050 22 30 7b 3c 30 64 11 c0 c4 77 42 be 5f 84 c4 3c
       0.0153313 -2.27174 -0.18991 0.0239889
000060 80 0b 12 bd b6 3b da bc 80 f4 cd bd 40 4e f8 bd
       -0.0356555 -0.0266398 -0.100564 -0.121243
000070 eb ff 1c 3c c2 ab b0 bd 52 23 d9 bc 5b 26 03 bd
       0.0095825 -0.0862651 -0.0265061 -0.032019
000080 76 e6 96 3b dd 08 eb 3d 30 61 99 3c 4d 32 fa 3f
       0.00460511 0.114763 0.0187231 1.95466
000090 4a 0d ab 3b c1 6f ab 3e 88 0f 20 3f fd ed fc 3c
       0.00522009 0.334837 0.625237 0.0308752
0000a0 3b 39 0f 3f ac 95 e4 bc 10 af 9b 3d 4d 2c 00 be
       0.559467 -0.0279034 0.0760175 -0.125169
0000b0 06 0d bd bc 54 39 5d 3e 21 1f 24 3f 65 4a b5 3b
       -0.0230775 0.216039 0.6411 0.00553255
0000c0 44 74 63 bc 31 99 1a 3e a7 00 1c 3b d7 0a e4 bc
       -0.0138827 0.150975 0.00238041 -0.0278372
0000d0 9d 66 5d bf 7a fc 72 bf 22 c5 68 3f ce 88 c6 bf
       -0.864847 -0.949165 0.909258 -1.55105
0000e0 8b 4f a1 3f 02 82 f5 bf ce fe 30 be a3 b0 6b 3f
       1.26024 -1.91803 -0.172847 0.920664
0000f0 e2 3b a1 3f 16 cd 39 3c 57 95 85 bf f7 83 cf bb
       1.25964 0.0113404 -1.04362 -0.00633287
000100 3d 21 05 bd 57 3e 17 bf d8 d8 20 bd fd 4d b0 3f
       -0.0325024 -0.590795 -0.0392693 1.37738
000110 66 be fb 3e 93 e2 eb 3e 1f 62 28 3c c5 89 b4 bd
       0.491687 0.460713 0.0102773 -0.0881534
000120 4d bb 30 bf 72 f1 c1 bc 45 9e f4 3f 6f 45 22 be
       -0.690358 -0.0236747 1.91108 -0.158468
000130 a0 18 49 bf 3c 68 02 bf 3c bf 70 3f e0 69 d2 3e
       -0.785532 -0.509403 0.940418 0.410964
000140 87 a2 2c 40 6c 43 85 bf 00 e3 09 40 33 c5 48 3f
       2.69742 -1.04112 2.15448 0.784259
000150 60 59 f5 bf 16 6e 79 3b e3 36 0e 40 54 52 b7 bf
       -1.91679 0.003806 2.2221 -1.4322
000160 fb cc c9 be f7 75 80 3f be bc 10 c0 ba 83 d8 bf
       -0.394142 1.0036 -2.26152 -1.69152
000170 95 27 50 bf 7b d9 1e bf 97 c9 b8 be c5 74 51 bf
       -0.813104 -0.620506 -0.360913 -0.818188
000180 a9 a0 ba 3e 16 4d 9f 3f 8a 8e 6c bf a1 9e 5e 3f
       0.364507 1.24454 -0.92405 0.869608
000190 dd f8 4e b9 31 ee 86 3b c0 7a 30 bf d0 b3 95 bf
       -0.000197384 0.00411775 -0.689373 -1.16955
0001a0 1b 62 74 3f 78 7a b5 3f 3f 3b 44 bf 37 54 cc bd
       0.954622 1.4178 -0.766529 -0.09977
0001b0 c2 ab 40 3d a6 44 92 3f 60 c8 ba bf 6c 5e 55 3c
       0.0470388 1.14272 -1.45924 0.013023
0001c0 b6 9e 31 be 20 27 8e ba b4 89 f8 bc 08 e5 ad 3e
       -0.173457 -0.00108454 -0.0303391 0.339638
0001d0 1b 32 f9 bb 34 9d d1 bf bb db 70 bd 3c 2e d2 3e
       -0.00760485 -1.63761 -0.0588033 0.410509
0001e0 bd d8 c5 3b b8 af 58 3a 31 94 2b 3f 64 e7 cd bd
       0.0060378 0.000826593 0.67023 -0.100539
0001f0 66 2f 13 bf 4e 7f d6 be 99 12 e9 be 34 11 86 be
       -0.574942 -0.41894 -0.45522 -0.26185
000200 47 5a a2 bf 3b 19 0c 3f 0a f4 9d 3f 42 09 33 bf
       -1.26838 0.54726 1.23401 -0.69936
000210 9d 2e eb bf e1 a1 54 b9 e4 f6 67 3f 69 db b4 3a
       -1.83736 -0.000202782 0.906111 0.00137983
000220 0f bf 71 3d 01 40 a4 bd a4 8b 5d bf 91 d0 a2 bf
       0.0590201 -0.0802002 -0.865412 -1.27199
000230 bb ed 1e 40 2e ff c9 3f d5 3d c2 be 17 2b 14 c0
       2.48326 1.5781 -0.379378 -2.31513
000240 f2 b3 e1 be 0e 4f 5b 3f 2c 9a 4a bf f5 dc bd 3d
       -0.440826 0.856675 -0.791415 0.0927066
000250 9e 5f 7c 3f 02 2b 81 c0 e2 43 a6 bb 67 7e fd 3e
       0.985834 -4.0365 -0.00507401 0.495105
000260 14 75 fe 3e 5c 3b 41 3e 4f 5d 11 3f 4e 47 40 bd
       0.496987 0.188703 0.56783 -0.046943
000270 db 6a de 3e 1b 4c 93 3f f5 3b 5e 3c d5 42 69 be
       0.434409 1.15076 0.0135641 -0.227794
000280 ab 1f 60 3d 31 f0 37 3c ad 42 52 3b 5c 93 89 bc
       0.0547177 0.0112267 0.00320832 -0.0167939
000290 88 74 cb ba 2e 59 85 bd cc f0 07 bf d3 66 9c bc
       -0.00155224 -0.0651115 -0.531018 -0.019092
0002a0 80 b6 75 3e dd 78 b7 3e 69 a9 ac bf 91 7c a9 3b
       0.239954 0.358344 -1.34892 0.00517232
0002b0 11 ad c0 3d d5 cf 9b be 76 f9 06 3f 4f 3e 9d be
       0.0940801 -0.30432 0.527244 -0.307116
0002c0 b6 f7 c9 be fb 94 53 3e 89 40 85 bd cb 14 c3 be
       -0.394468 0.206623 -0.0650645 -0.381018
0002d0 dd ec d7 3e 00 55 9c 3e f9 65 e0 be b1 6e 18 3f
       0.421729 0.305336 -0.438278 0.595439
0002e0 e5 f1 fc 3e 20 a5 69 bb 84 17 58 3c fb 3b 9b 3c
       0.494033 -0.00356514 0.0131892 0.0189495
0002f0 af 3e 16 3f bf af c6 3d 78 f0 f3 3d 97 e4 e0 be
       0.586894 0.0970149 0.119111 -0.439244
000300 19 e6 d4 be 8b 8c 2e be 4e 64 26 be 41 40 a3 bc
       -0.415818 -0.170458 -0.162492 -0.0199281
000310 3e 7b ee bd 03 b5 b8 be b2 a7 78 bd 8a ae 4b 3e
       -0.116446 -0.360756 -0.0607068 0.198908
000320 5b 97 f9 3a 6a 4b 05 bf b5 e1 60 be a4 54 e2 bd
       0.00190423 -0.520682 -0.219611 -0.110513
000330 11 b5 63 3d de c7 a9 3e e9 d6 f3 be 49 d7 b8 bf
       0.0555926 0.331603 -0.476249 -1.44407
000340 2e 56 08 3f 81 cb ab 3e 09 85 6d bd 07 44 2e ba
       0.532565 0.335537 -0.0579882 -0.000664771
000350 af 77 4f 3e 19 e4 11 ba db 6d c7 bf 46 97 97 be
       0.202605 -0.00055653 -1.55804 -0.296076
000360 06 46 0e 3f 43 c7 86 be 71 01 e8 bd ab 26 f0 be
       0.555756 -0.263239 -0.113284 -0.469045
000370 70 ca 21 3d bb 59 bd 3d b8 03 a5 be 74 41 c5 bf
       0.0394997 0.0924563 -0.322294 -1.54106
000380 92 5c 22 bf a4 97 a7 3d 82 74 51 3e 68 62 75 bd
       -0.634225 0.0818322 0.204546 -0.0599083
000390 05 6d 72 3e a7 3e 10 3e 1e 88 c4 be 49 13 3f be
       0.236744 0.140864 -0.383851 -0.186597
0003a0 8f 18 31 3f 0d 72 47 bf 9f e5 29 bf 80 68 03 3b
       0.691781 -0.779084 -0.66366 0.00200513
0003b0 27 a0 91 bf df 32 df bf a6 47 4b bf 34 d5 83 3e
       -1.1377 -1.74374 -0.794062 0.257486
0003c0 e3 a5 1f 3f 6a c2 86 3e 95 9c 03 3f 8b a7 be 3e
       0.623625 0.263202 0.514108 0.372372
0003d0 fc 8a 75 be 17 47 45 3e cd 1d ad 3e 47 93 37 3f
       -0.239788 0.192654 0.338118 0.717091
0003e0 dd 7a 8d 3e 78 b7 d2 3d
       0.276328 0.102889

Operation_1_Add_B f4 [50]
000000 0d ff 05 3f ae 12 ec 3d d0 63 d4 bd eb 35 92 3d
       0.523423 0.11527 -0.103706 0.0713919
000010 dc ba 0b be f6 ec f9 be 8a e4 83 be 60 76 3f be
       -0.136455 -0.488136 -0.257603 -0.186975
000020 13 0e 3d be f1 b2 8b 3d 31 40 62 be 03 1d d2 bc
       -0.184624 0.0682124 -0.220948 -0.0256486
000030 df 9e cc 3d 80 55 a4 bc c2 31 07 bf 5b 5a 32 bc
       0.0999124 -0.0200603 -0.528103 -0.0108858
000040 c2 50 c7 3c 16 30 a9 be 84 83 fd 3d 76 b9 52 3c
       0.0243305 -0.330445 0.123786 0.0128616
000050 66 4d d4 be b9 a7 0f bf da bc f9 bb d5 79 40 bf
       -0.414653 -0.561153 -0.00762139 -0.751859
000060 4c e3 67 be d0 55 63 bb e7 c7 a7 be 25 f5 94 3d
       -0.226453 -0.00346886 -0.327697 0.0727332
000070 e8 bf 03 bf 93 da 55 3c 00 72 0e bf 6e 87 96 be
       -0.514647 0.0130526 -0.556427 -0.294002
000080 ce 52 ea be de e3 ec bd 85 ce 7b be c7 f6 0a 3f
       -0.457663 -0.115669 -0.245905 0.542828
000090 17 2e a3 be 32 59 30 bf 6a f8 16 be 5f 7a bb be
       -0.318711 -0.688861 -0.147432 -0.366168
0000a0 58 e3 0c 3e 3a ad 5b bf 50 b2 bb 3d 73 a8 b5 3d
       0.137586 -0.858112 0.0916487 0.0887002
0000b0 5a 53 4f 3d 76 c1 c0 be 29 15 7e 3d d4 0a a3 3e
       0.0506166 -0.376476 0.0620319 0.318442
0000c0 c9 56 57 be 6c 07 a3 3e
       -0.210292 0.318416

Operation_2_MatMul_W f4 [50, 50]
000000 2f 30 3b be f8 8a de 3e 66 82 81 3e b6 1c 5e bd
       -0.182801 0.434654 0.252948 -0.0542266
000010 7c e6 76 bc 72 5e 82 bd 1b 7c 46 bd d6 8b dd 3f
       -0.0150696 -0.0636567 -0.0484582 1.73083
000020 98 db c5 3e 05 c0 98 bf 31 26 0d 3f df 37 5e 3e
       0.386441 -1.19336 0.551364 0.21701
000030 05 33 a6 be 28 81 b5 3e 2c 48 43 3e 9d 7f 83 3e
       -0.324608 0.354501 0.190705 0.256833
000040 31 c9 4d bd 67 ba 47 be c9 f4 3a bc 71 a0 b1 3d
       -0.0502407 -0.195047 -0.0114109 0.0867318
000050 26 51 ef 3c b9 52 0f 3e 18 35 99 3d 15 86 2d bd
       0.0292135 0.139964 0.0748083 -0.0423642
000060 e3 aa 02 3f 8d 7a 88 be ce 94 f1 bc 08 cc b3 be
       0.51042 -0.26656 -0.0294899 -0.351166
000070 f4 97 8c 3c be f1 5a bc a2 9a 12 3e cb b8 5c 3a
       0.0171623 -0.0133633 0.143168 0.000841987
000080 7e 57 24 bd cb 0f ac be 4f 8c 11 bd 27 a5 8d c0
       -0.0401225 -0.336058 -0.0355342 -4.42641
000090 4f 3e 95 be b6 da 03 bd 0b 24 00 bf 82 96 c9 3c
       -0.291491 -0.032191 -0.50055 0.0246079
0000a0 4c fd 1c be 21 e9 f3 bd 4c c6 89 3e c4 0b 82 3e
       -0.15331 -0.119097 0.269091 0.253996
0000b0 86 e1 48 3c 31 b0 33 3c cf f3 e7 3d 97 ca 0e c1
       0.0122608 0.0109673 0.113258 -8.92446
0000c0 c6 2d 2b bd 2e 41 21 bd 9f 92 3f 3f 75 c8 6d be
       -0.0417917 -0.0393688 0.748331 -0.23221
0000d0 16 de dc c0 98 2f eb bf ba d9 33 bf 94 e2 be 3c
       -6.90211 -1.83739 -0.702541 0.0233014
0000e0 09 9e 27 bd 45 2b f7 bd 48 8a 9b c0 68 78 6b 3f
       -0.0409222 -0.120688 -4.86063 0.919806
0000f0 f5 b9 84 c0 2f 35 1a bf b2 f6 72 3d 23 10 8b bf
       -4.1477 -0.602374 0.0593173 -1.08643
000100 c2 4f 2c be e5 60 96 3e c7 1e 6b bc e3 53 2c c0
       -0.168273 0.293708 -0.0143506 -2.69262
000110 7b ad ba 3b 2b a2 16 3e d1 3f 31 be cc 28 92 bf
       0.00569695 0.147103 -0.173095 -1.14187
000120 5e f7 46 3e 6d 1f 51 bb 6c 25 04 be 96 77 15 be
       0.194303 -0.00319096 -0.129049 -0.145964
000130 8c a5 02 3c 39 ef 4f 3f 8d ec ef bc 17 f2 f8 be
       0.00797404 0.812244 -0.0292876 -0.486222
000140 5d dc 76 3e 24 f3 23 bd 3b 1d 24 3f ac 71 b6 bb
       0.241075 -0.0400268 0.641071 -0.00556775
000150 8c 84 9a 3f 18 79 c1 3e 35 3b 37 3d 3e 18 42 3c
       1.20717 0.377877 0.0447342 0.0118466
000160 7e c6 8d 3f 7b 1c 3c bc e1 46 b2 be 62 84 88 bf
       1.10762 -0.0114814 -0.348197 -1.06654
000170 e3 6c ca 3e 03 ec df bf 5a 51 19 bd 3d f1 54 3f
       0.395362 -1.74939 -0.0374311 0.831806
000180 e2 56 81 3e e3 df db bf 60 3b d8 bc 92 69 be 3c
       0.252616 -1.71777 -0.0263955 0.0232437
000190 7b d9 52 3f 75 e6 3e 3f 20 41 b1 3e cc 40 a5 3f
       0.823631 0.745704 0.3462 1.29104
0001a0 17 d9 aa 3f df 1d b2 3b 96 46 06 bc 51 de b7 3e
       1.33475 0.00543569 -0.00819554 0.359118
0001b0 1e c1 a5 3e 86 cf c1 bd 44 a8 8e bf 30 83 d1 3d
       0.323739 -0.0946341 -1.11451 0.102301
0001c0 63 40 8b bd 8b 53 ad 3e 1d 5b 77 3f bc ae 83 3f
       -0.0679939 0.338528 0.966234 1.02877
0001d0 d2 17 67 3c 94 d9 c8 bf 5c 6b 34 bd b8 3e bc be
       0.0141048 -1.56914 -0.0440477 -0.367666
0001e0 6f d9 21 3f f8 a5 06 40 58 8c f2 be c4 a5 54 bd
       0.632224 2.10388 -0.473727 -0.0519159
0001f0 42 5c 79 be 63 93 61 3d 23 bb 17 bd 88 28 cb bc
       -0.243516 0.0550722 -0.0370437 -0.0247996
000200 14 ec 3f 3c 38 be 52 3f 0d 53 cb be 6c 43 e0 bc
       0.011714 0.823215 -0.397118 -0.0273759
000210 cc b2 37 3e c8 13 77 3c b2 01 c7 3c 57 ef cb bc
       0.179393 0.0150804 0.0242928 -0.0248944
000220 73 69 ac 3e 7e 41 21 bd b7 5f 0e 3f 8c 09 96 bc
       0.336742 -0.0393691 0.556148 -0.0183151
000230 6d 1c b5 3f 5b b1 97 be cd 4f 1a bc 45 d7 9d 3e
       1.41493 -0.296275 -0.00941844 0.308283
000240 81 35 d8 3c 69 c6 ba bf ab 26 84 3f 22 cd 8e bd
       0.0263927 -1.45918 1.03243 -0.0697272
000250 c1 6d 32 bd ae f6 cb bc 44 19 5a be ae 52 30 bc
       -0.0435617 -0.0248979 -0.212987 -0.0107619
000260 95 f1 c3 3f 22 72 fa bd e9 26 51 3e cc 3e f4 3c
       1.53081 -0.122288 0.20425 0.0298151
000270 0b 3e 32 3d 91 59 82 bd 3a ad 0b be bc 3b 92 3e
       0.0435162 -0.0636474 -0.136403 0.285612
000280 0f d1 94 bf 2e e6 17 3f 8a 57 f9 3d 61 8b ad 3e
       -1.16263 0.593356 0.121749 0.338954
000290 5a 47 91 bf 30 65 10 3f 76 90 b2 bc 57 43 02 3e
       -1.13499 0.564044 -0.0217974 0.12721
0002a0 2c b5 22 3c 1d 94 88 3f 07 ef 73 3f 52 10 1c 3f
       0.00993089 1.06702 0.952866 0.609624
0002b0 c3 19 32 3c 1f 53 0d bd e8 4d 59 3f e2 cd 5a 3e
       0.0108704 -0.0345031 0.848845 0.213676
0002c0 63 f5 62 bd 4d da 24 3e 8c ab 20 bd 8a 3b fe bd
       -0.0554098 0.160989 -0.0392261 -0.124137
0002d0 e0 9c cd bf 13 f9 24 bd ae f4 8a 3e 2a c7 34 3e
       -1.60635 -0.0402766 0.271398 0.176541
0002e0 5f ef be 3d 9d 64 eb be 1e a5 42 be 06 91 36 bd
       0.09323 -0.459752 -0.190083 -0.0445719
0002f0 66 14 87 3f ed 54 ed 3b 39 ec 2e 3e 82 37 c4 bd
       1.05531 0.00724279 0.170823 -0.095809
000300 19 e7 7f 3e 27 6a 45 bf 1b 26 ff bc de b0 a5 bf
       0.249905 -0.771151 -0.0311461 -1.29446
000310 42 60 65 3f 67 44 c6 c0 5e 72 d0 bb ba e6 44 bd
       0.896 -6.19585 -0.00636129 -0.0480716
000320 a1 48 cf be 0f 5d b5 bc 55 de 2e be bc e9 66 3e
       -0.404851 -0.0221391 -0.17077 0.225501
000330 2a 54 bf 3e 12 20 59 bd 7a 50 75 bc d1 5c e7 bc
       0.373689 -0.0530091 -0.0149728 -0.0282425
000340 5b b1 e3 3f 67 52 19 3d 48 c2 72 bf 39 d6 01 bf
       1.77885 0.0374321 -0.948277 -0.507175
000350 e0 63 60 3e 0b 7c ad be 21 1f 94 3e 6b 22 a8 3d
       0.219131 -0.338837 0.2893 0.0820969
000360 95 43 6e 3b 87 a7 43 c0 6e c6 04 bd d7 34 3f be
       0.00363562 -3.0571 -0.0324158 -0.186725
000370 64 40 a6 3f 0a 9d d7 3f de 6a 97 bd 44 30 33 bd
       1.29884 1.68448 -0.0739343 -0.0437472
000380 77 2d 69 3f 40 a2 b1 be 5b 29 1f bd 89 07 44 3e
       0.91085 -0.346941 -0.0388578 0.191435
000390 5d 83 25 bb f7 ae 41 3f b4 5b 63 3f 56 85 61 bd
       -0.00252553 0.756576 0.888118 -0.0550588
0003a0 3e 05 d8 3f 96 fd 64 3d 8c 0f 17 bf cb f6 c1 be
       1.68766 0.0559059 -0.590081 -0.378836
0003b0 67 0a c5 bf e8 55 b8 3c aa 0a 6d be 51 54 8d 3b
       -1.53938 0.0225019 -0.231486 0.00431303
0003c0 27 6b b8 bf 19 e8 56 bf 81 35 78 bd 60 1f 35 c0
       -1.44077 -0.839479 -0.0605979 -2.83004
0003d0 f6 b6 19 bd 12 de 1e 3e cd 59 ff be 71 bf ae 3a
       -0.037528 0.155144 -0.498732 0.00133322
0003e0 a2 6a 2a 3c 9f dc 9d bb b8 e9 e7 3f 19 57 50 bf
       0.0104014 -0.00481756 1.81182 -0.813829
0003f0 f9 14 8c bf 3f 6e 73 bf 97 1e 9d 3e 23 bb 94 3b
       -1.09439 -0.950901 0.306874 0.00453891

Operation_2_Add_B f4 [50]
000000 2d b4 9b be cb a1 4d bf f6 45 4a 3f 3d 65 6d bf
       -0.304109 -0.80325 0.79013 -0.927326
000010 1a 51 b6 bf 7e 7a 22 bd 49 cc 7d bc ae 9e 83 be
       -1.42435 -0.0396676 -0.0154906 -0.25707
000020 2d d0 22 bf 3a 57 84 3e e1 0b 93 bf 13 7e 4d 3f
       -0.635989 0.258478 -1.1488 0.802705
000030 69 c4 9c be ff 95 ad bf e3 8d 6c 3e 2f 6f b6 be
       -0.306186 -1.35614 0.23101 -0.356317
000040 da cb d1 bc 5c c9 c6 bf 1d 61 87 bc ae 82 18 3d
       -0.0256099 -1.55302 -0.0165258 0.037234
000050 a8 1d 9a 3f 86 72 62 3f 0a 64 3a 3f 3d c9 e7 bc
       1.20403 0.88456 0.728089 -0.0282942
000060 40 f6 9a bf b8 78 1c 3f ca c7 49 bc 46 25 05 3e
       -1.21064 0.611217 -0.0123157 0.130025
000070 9f e6 c7 bb ec a5 49 3f 57 40 71 3f c0 59 af bc
       -0.00610049 0.787688 0.942388 -0.0214051
000080 05 a6 6b bf dc ad 96 bd 8a fd 0a 3d b2 0d c4 3e
       -0.920502 -0.0735738 0.0339332 0.382917
000090 08 55 82 bf 7c 88 7c bc b8 58 15 3f 88 c2 82 bc
       -1.01822 -0.0154134 0.583385 -0.0159619
0000a0 4e 2a 16 3f 75 cd 28 3f 4e 43 18 3f cf 83 8b 3f
       0.586583 0.659385 0.594777 1.08996
0000b0 31 69 82 bc 5b 43 e9 be 1b 0d e0 bd 12 a0 12 3f
       -0.0159193 -0.455592 -0.1094 0.572755
0000c0 2f b9 76 bc a1 db 8b bc
       -0.0150588 -0.0170725

Operation_3_MatMul_W f4 [50, 50]
000000 72 32 f1 3d f4 26 85 3d c3 9a 4a bf 1d 39 ea be
       0.117772 0.0650157 -0.791424 -0.457467
000010 4c c5 56 be 2f 34 f7 bd 10 21 c6 be 21 14 95 3d
       -0.209737 -0.120705 -0.386971 0.0727923
000020 8e 23 4e 3f fd fe 68 3d 7a 3c c6 bb ba 42 69 3c
       0.80523 0.0568838 -0.00604969 0.0142371
000030 6c 09 b9 bd 52 ef 6d bf 4f 79 34 3f 87 6c a0 3e
       -0.09035 -0.929433 0.704976 0.313328
000040 2c 44 6b bf 72 75 7b 3d 2f c4 36 bf b8 34 93 3d
       -0.919009 0.0613913 -0.713931 0.0718779
000050 d8 61 40 3f 34 49 4c be ae f0 52 c0 ad da 1d 3f
       0.751493 -0.199498 -3.29594 0.616618
000060 44 a4 42 3f e5 42 75 3e af d1 36 3f 4e 61 15 3e
       0.760319 0.239513 0.714137 0.145879
000070 3e 3f 8c 3e 62 30 6f 3e b1 15 ac 3e 9d 10 a2 be
       0.27392 0.233583 0.336103 -0.316533
000080 7b 82 50 3f 25 e6 4d 3f 3d 0c 35 bf f3 76 40 bf
       0.814491 0.804293 -0.707218 -0.751815
000090 5f 96 3e bf 03 12 03 bd a7 22 27 40 c4 cc 2e 3e
       -0.744482 -0.0319996 2.61149 0.170703
0000a0 c3 41 97 bd 85 79 13 3f 16 6d ae bd 28 9d 4c bf
       -0.0738559 0.576073 -0.085169 -0.799273
0000b0 49 da cd be 02 d4 d4 bd f2 b2 ce 3e a0 8d 48 bf
       -0.402056 -0.10392 0.403709 -0.783411
0000c0 79 58 f4 bf cd 5c 40 3e 1f bd 6d bf 2f be 00 3f
       -1.90895 0.187854 -0.928667 0.502902
0000d0 ee b0 49 3e 39 b9 9b 3f 34 b6 ac 3d c2 a3 4d be
       0.196964 1.21659 0.0843319 -0.20082
0000e0 bc 05 12 3e 11 37 73 bf a3 cc 89 40 97 90 83 bf
       0.1426 -0.950059 4.30623 -1.02785
0000f0 69 8f 3f bf 25 92 ec bf 47 8e 24 3f 40 dd a8 be
       -0.748282 -1.84821 0.642796 -0.329813
000100 e3 19 8c bf 20 63 46 3f de e8 07 bf da 1d d2 3c
       -1.09454 0.77495 -0.530897 0.025649
000110 73 4b 9f bf 56 65 fb bf e7 4d aa bd b0 1d cc 3e
       -1.24449 -1.96403 -0.0831564 0.398664
000120 27 6b bc bf 39 62 e5 be a3 3c 33 bf fa 42 78 3e
       -1.47202 -0.448015 -0.700144 0.242443
000130 17 7e f0 bd 08 39 f7 3e a3 e6 2b 3f 5d 8c 05 3f
       -0.117428 0.482857 0.671488 0.521673
000140 1c b6 bd bf db db cd bd 58 72 25 be 8c 9e 7f bf
       -1.48212 -0.100517 -0.161569 -0.998513
000150 86 ac 86 3f 05 f9 d1 be 38 4a 8a 3f 39 97 ea 3e
       1.05214 -0.410103 1.08039 0.458185
000160 ef 20 02 3f 7a c7 f9 bf 67 b8 a5 3f 9f 1f b2 3f
       0.508315 -1.9514 1.29469 1.39159
000170 60 56 0c bf cc 62 92 3f 7e c6 65 3e b8 ae 78 be
       -0.548193 1.14364 0.22439 -0.242854
000180 62 bd f1 3e 01 6b 35 bd b9 1c e7 be b3 ec e9 3d
       0.472148 -0.0442915 -0.451391 0.114221
000190 9b 70 f7 3e 3a cc 8b bf a1 13 fa 3e 78 61 fb 3e
       0.483281 -1.09217 0.488431 0.490978
0001a0 5d 6f 8b bd 99 47 2a 3f 61 8d 07 3f 80 9d 2b be
       -0.0680835 0.665155 0.529501 -0.167593
0001b0 68 cb 21 bf f8 e3 86 be 17 64 0b be 71 2e 8f 3d
       -0.63201 -0.263458 -0.136124 0.0699128
0001c0 62 bf 77 3e 72 a3 14 bf b4 76 9b 3f 00 8b 18 3f
       0.241941 -0.580619 1.21456 0.595871
0001d0 10 e6 86 be 8b 87 0b bf 9e 61 56 3f a5 83 05 3e
       -0.263474 -0.545037 0.837427 0.130385
0001e0 fe f1 b2 bf e4 f5 c0 3e 26 c7 5d 3d c5 fe 8a 3f
       -1.39801 0.376876 0.054145 1.0859
0001f0 07 61 96 3e c8 ed 0f 3f b8 02 ea 3e 68 3f 62 be
       0.293709 0.562222 0.457052 -0.220945
000200 9e 44 14 3f f7 92 ee bf 37 16 94 3c e2 78 fe bd
       0.579172 -1.86386 0.018077 -0.124254
000210 84 e0 97 3d 71 56 74 3e d7 4c 86 3f 71 d0 18 ba
       0.0741587 0.238611 1.04922 -0.00058294
000220 d9 22 b1 be 75 af f3 3e 62 f8 bc 3f ff b0 55 3f
       -0.345969 0.475948 1.47633 0.834732
000230 3b f3 3c bd 56 d3 29 3f 4f ce b0 be b5 4f eb 3f
       -0.0461304 0.663381 -0.345324 1.83837
000240 90 4e 05 3f e4 31 53 3e 8c 5e 52 bd 8f 72 30 3e
       0.52073 0.206245 -0.0513597 0.172312
000250 40 31 f2 3d b6 2c 9f 3e 00 00 84 bf bb 27 0b 3f
       0.118258 0.310888 -1.03125 0.543575
000260 3c f5 78 be 57 95 07 40 6c c4 3d bd b0 38 80 3f
       -0.243123 2.11849 -0.0463299 1.00173
000270 73 11 db bf 3a 06 90 bf d4 9a 36 c0 77 4b f2 bd
       -1.71147 -1.12519 -2.8532 -0.118308
000280 13 d5 17 3f 64 96 8d be df 37 76 bf 34 f2 69 bf
       0.593095 -0.276538 -0.96179 -0.913852
000290 3f 91 bb 3f 94 12 5e 3f 45 f8 b2 3c 31 95 9e be
       1.46537 0.867471 0.0218469 -0.309732
0002a0 27 a0 85 bf d2 e5 fd be e3 88 f1 bf cb 64 38 3e
       -1.04395 -0.495894 -1.88699 0.180072
0002b0 46 94 f6 bd 12 da 86 3f e2 96 8a 3d ce fc e2 3f
       -0.1204 1.05353 0.0676706 1.77334
0002c0 4a b4 44 3e c5 c9 c1 3f fe 47 e6 3e cb f8 37 bf
       0.192094 1.51397 0.449768 -0.71864
0002d0 76 e2 0e 3f 08 90 99 3e dc ba 87 3f 8f 70 30 c0
       0.558143 0.299927 1.06039 -2.75687
0002e0 27 c2 9a 3f c8 07 25 3f 5e 10 e9 3e 2f 57 3a bd
       1.20905 0.64465 0.455203 -0.0454933
0002f0 4e 7f ee 3f 9a ce fa 3f 28 d5 78 c0 7d 35 11 bd
       1.86326 1.95943 -3.88801 -0.0354514
000300 78 25 d1 3e b1 8a 47 3f 85 22 1d 3f 0a 0f 4e 3f
       0.408489 0.77946 0.613808 0.804917
000310 37 17 d7 be e9 c3 a9 3d 29 79 75 3f aa b7 86 3f
       -0.420099 0.0828932 0.95888 1.05248
000320 57 04 d7 be 29 22 47 bf 8b 50 50 3f 4e 7a 4f be
       -0.419955 -0.777865 0.813729 -0.202615
000330 d4 d3 97 3e 70 ed c4 3e 67 7d 0a 3f e8 6b d6 be
       0.296538 0.384624 0.540976 -0.418792
000340 dc f1 d6 be e1 ce 3d 3f 3b 72 54 3f ca 6f d1 bd
       -0.419814 0.741438 0.829868 -0.102264
000350 99 e1 35 3d 73 d7 2e c0 0a bb c8 be f1 11 e9 3f
       0.0444046 -2.7319 -0.392052 1.82086
000360 6f 64 fa bf b8 cc 29 3e f0 be 82 be 4a 41 19 c0
       -1.95619 0.16582 -0.255363 -2.39461
000370 fb 96 a5 bf 83 6e c7 bf fd 4f 2a bf 0c e5 a8 3f
       -1.29367 -1.55806 -0.665283 1.31949
000380 dd 78 5b 3f ad 34 63 c0 91 b8 ab 3f 59 32 f7 be
       0.857313 -3.55009 1.34157 -0.482806
000390 6a f3 24 3c 50 01 e8 3f 44 6d 63 3f d1 3e 32 bf
       0.0100678 1.81254 0.888386 -0.696271
0003a0 e0 2d e0 3f c2 fa 51 c0 d9 77 6b 40 6c 21 c8 3f
       1.7514 -3.28093 3.67919 1.56352
0003b0 0a f2 1f bf ef ac 9d 3f 60 3e 29 3f 66 4e 2b bf
       -0.624787 1.23184 0.661108 -0.669165
0003c0 b8 01 bc c0 17 45 bf be 4b 56 31 bf 6e 69 21 3f
       -5.87521 -0.373574 -0.692723 0.630515
0003d0 22 e2 32 3f 83 a3 24 3e 62 85 2b 3e 32 3e 7c 3e
       0.698763 0.16078 0.167501 0.246331
0003e0 35 ef 34 c0 79 c9 4f be 24 39 0a bd 4a bf 73 bd
       -2.8271 -0.202917 -0.0337459 -0.0595086
0003f0 11 35 f2 bb 38 21 5e 3d f7 d1 a1 3a 91 37 ca bc
       -0.00739158 0.0542309 0.00123459 -0.0246847

Operation_3_Add_B f4 [50]
000000 65 a7 5f bd df 4f c1 bf 76 fd 9e bf a4 88 b0 bf
       -0.054603 -1.51025 -1.24211 -1.37917
000010 a5 31 10 c0 48 20 89 bd 83 f9 0b 3d 58 75 46 3e
       -2.25303 -0.0669561 0.0341735 0.193807
000020 4b 76 46 c0 86 71 a7 be 62 69 70 bf fb 96 d1 be
       -3.10097 -0.327038 -0.939108 -0.409355
000030 43 1c ef bf 69 01 66 3f 9f c8 ab be ea 94 37 be
       -1.86805 0.898459 -0.335515 -0.179279
000040 f8 89 27 3f 51 f4 d8 3e dc b7 0e 3f e7 fc 14 be
       0.654449 0.423739 0.557493 -0.145496
000050 23 4e 23 3f 6c 3d d3 3e 3e 59 81 3e 83 6c 59 3f
       0.637911 0.412578 0.252634 0.849312
000060 dc bd 04 bf 3f 00 39 3e 44 be f3 be 51 86 4a 3e
       -0.518522 0.180665 -0.476061 0.197778
000070 0b b5 26 c0 9b 76 a1 3e 3c da cc bf 31 08 ac 3e
       -2.6048 0.315358 -1.60041 0.336
000080 a7 e8 0c c0 21 a0 cc 3d ad a3 30 c0 c0 29 c7 bc
       -2.2017 0.0999148 -2.75999 -0.0243119
000090 4e d4 26 3f c1 c8 a3 3e 3b 36 00 40 23 9e 6c bf
       0.651677 0.319891 2.00331 -0.924288
0000a0 15 6f cc bf f4 4d 06 3f c4 99 a3 bf 5d 6d 5d c0
       -1.59714 0.524627 -1.27813 -3.4598
0000b0 c7 64 c1 3e fd 86 75 3f f9 4e 08 c0 cf 9c aa 3d
       0.377722 0.959091 -2.12982 0.0833069
0000c0 fc 35 55 bf 8e ce 11 bf
       -0.832855 -0.569558

Operation_4_MatMul_W f4 [50, 50]
000000 9c bf d9 3e 93 c6 90 bf aa 60 02 c0 74 6a 1d 3d
       0.42529 -1.13106 -2.03715 0.0384316
000010 a1 dc a1 3d 22 c3 da 3f cc d9 76 3d e2 88 3f 3d
       0.0790341 1.70908 0.0602663 0.0467614
000020 7c 65 4a bf f8 a4 23 3e 28 2a 7b be 4a b5 bb bf
       -0.790611 0.159809 -0.245278 -1.46647
000030 ba 65 87 be 2d 3f e0 3e ba 4a 8f 3e 75 04 d8 be
       -0.264448 0.437982 0.279867 -0.421909
000040 9f b0 a0 3f 34 be 6f be 57 78 cb bf 7d 24 15 3f
       1.25539 -0.234124 -1.58961 0.582588
000050 37 1c 22 bf e9 15 c5 bc 73 85 6b 3f 6b 76 8f 3b
       -0.633243 -0.0240583 0.920005 0.00437813
000060 63 7e fe 3e bb 44 d1 bf e5 28 b0 be 17 9e 03 bf
       0.497058 -1.63491 -0.344062 -0.514131
000070 b6 14 34 3f 3f 6f a6 bf cc b7 d6 be 95 49 e8 bc
       0.703441 -1.30027 -0.419371 -0.0283554
000080 58 1e cc be fe 7f 54 3f 49 ba 8a 3f c9 12 b7 bd
       -0.398669 0.830078 1.08381 -0.0893913
000090 fd 16 29 3f ca 15 d6 be 0d e9 c6 bd c6 14 10 bf
       0.660507 -0.418135 -0.0971242 -0.562817
0000a0 11 19 ae 3f 60 e9 30 3f 5c 8d 11 bd 77 bb de 3d
       1.36014 0.691061 -0.0355352 0.108756
0000b0 a5 31 82 be 03 97 a7 bd 62 a0 eb 3e 77 a1 e1 be
       -0.254285 -0.081831 0.460208 -0.440685
0000c0 10 1f 38 3e 98 6e 6a 3f 00 75 23 be 50 56 5c bf
       0.179806 0.91575 -0.159626 -0.860692
0000d0 d5 26 be bf a4 3f 2a bd 7d 03 6b 3f fc 35 dd bf
       -1.48556 -0.0415646 0.918022 -1.72821
0000e0 7b 83 bb 3f b6 5e bd bd 98 fa 51 3f 31 05 70 bd
       1.46495 -0.0924658 0.82023 -0.0585987
0000f0 7d 94 11 be 8b c0 68 bf 8f a8 d0 3e f2 60 f3 3e
       -0.142168 -0.909188 0.407536 0.475349
000100 36 b0 e5 3e ce 89 9d bd c3 81 08 40 21 cd 18 3e
       0.44861 -0.076923 2.13292 0.14922
000110 bd 61 c1 bd ce 44 92 3d a9 56 3a 3c 88 46 9f 3e
       -0.0944247 0.0714203 0.0113732 0.311085
000120 ad 4e 3a 3f 72 bf 15 c0 42 5d ec 3e 05 51 3b 3f
       0.727763 -2.33981 0.461649 0.731705
000130 1e 50 92 3f cc 7f e8 3f 82 3b 98 3e 08 ae 32 be
       1.14307 1.8164 0.297329 -0.174492
000140 41 67 1e 3f e8 a1 1e bf 49 ba 36 40 b3 b5 0a 40
       0.618763 -0.619658 2.85512 2.16734
000150 fd 4d f8 be 23 be 83 3f 98 30 fa 3d a9 a3 57 3f
       -0.48497 1.02924 0.122163 0.842341
000160 5e 2d a7 bd d1 79 25 c0 9c bf e9 bf b9 fe d5 3e
       -0.0816295 -2.58556 -1.82616 0.417959
000170 6d 3d 20 3c 71 c9 99 3e 2a 1d f4 3f 4e 7f b6 bf
       0.00978027 0.300365 1.90714 -1.42576
000180 8b c3 d1 3f ff 5b b5 3f c1 e2 d4 3f f2 d1 42 3f
       1.63878 1.41687 1.66317 0.761016
000190 56 d4 12 40 68 1f 33 3f 26 df 28 c0 ec 5f e3 3c
       2.29421 0.699698 -2.63862 0.0277557
0001a0 9e 42 52 bf 5f 41 72 bf 98 4c 05 40 e2 8f 1e 3f
       -0.821329 -0.94631 2.0828 0.619383
0001b0 e6 ae 05 c0 d9 79 0b be 82 39 14 c0 51 a5 f6 3e
       -2.0888 -0.136207 -2.31601 0.48173
0001c0 13 f9 89 bc 48 6a 41 3e 4a ee 60 bf a3 cc 96 3f
       -0.0168424 0.188882 -0.878636 1.17812
0001d0 64 75 a3 bf fa 0e 6e bf fc 8b 48 3f 54 ab 97 be
       -1.27702 -0.929916 0.783386 -0.296229
0001e0 b5 a6 a1 3f a8 c8 71 be b5 54 72 3f a6 9b 80 3f
       1.2629 -0.236117 0.946605 1.00475
0001f0 a8 6f f5 3f 46 25 85 3f 36 76 8d bf a0 32 02 40
       1.91747 1.0402 -1.10517 2.03434
000200 90 82 9f be f4 f9 38 be 2e 18 21 3d ab 95 1b 40
       -0.311543 -0.180641 0.0393297 2.43101
000210 a8 6f 73 40 fd 13 0c 3f 73 11 ef bf aa 48 b9 c0
       3.80369 0.54718 -1.86772 -5.79012
000220 da e5 5b 3d 07 ce 99 bf eb 00 a0 3e d0 26 23 bf
       0.053686 -1.2016 0.312507 -0.637311
000230 e4 0f d6 3e 88 80 29 40 0b e8 0a 3d a2 98 64 3f
       0.41809 2.64847 0.0339127 0.892954
000240 bf 0e dc 3f f3 e5 51 40 d0 9b 4e 40 a4 42 09 c1
       1.7192 3.27966 3.22826 -8.57877
000250 4e 0b be 3f 7f 32 02 3f 58 1d 89 be 03 ed be 3e
       1.48472 0.508583 -0.267802 0.372902
000260 68 ec 0b bf 65 1c e3 bc 68 08 3f 3f 68 97 23 3f
       -0.546576 -0.0277235 0.746222 0.639029
000270 40 4d d9 3f 6e 16 af bd f8 fc 20 40 6b 48 e8 3f
       1.69767 -0.085492 2.51544 1.81471
000280 65 1b 98 3e be 84 1e 3f 6a 5c 49 bc dd e9 5e be
       0.297084 0.619213 -0.0122901 -0.217689
000290 83 a6 b5 be a9 aa 2b 3c 27 da 01 40 98 34 20 c0
       -0.354786 0.0104777 2.02894 -2.50321
0002a0 d7 f6 72 3f ad 69 de bd 8c 14 1e 3f 27 da b5 bf
       0.949079 -0.1086 0.617501 -1.42072
0002b0 d4 60 82 bf 51 da 13 3f 42 b2 88 bf a2 ee ab 3f
       -1.01858 0.57755 -1.06794 1.34322
0002c0 8d 45 93 3f 9d f7 7f be a3 aa 9e bd be 85 4d bf
       1.15056 -0.249968 -0.0774739 -0.802822
0002d0 72 e0 55 3e 6c ec 9e bf 83 f9 db be f1 46 44 40
       0.208864 -1.24159 -0.429638 3.06683
0002e0 e2 cc eb bf 83 32 71 3f 5e 1f ac bd 1d 94 f8 bf
       -1.84219 0.942177 -0.0840442 -1.94202
0002f0 56 29 e5 3e 10 af 97 bf c9 76 9a 3f 75 3c 8c c0
       0.447581 -1.18503 1.20675 -4.38238
000300 31 a5 64 bc fd 69 03 be 3f a9 d2 3f 7e 1d b8 3f
       -0.0139554 -0.128334 1.64579 1.4384
000310 a8 1d 86 bf 9a 42 ff 3f 34 b9 74 bf c7 2d 26 3e
       -1.04778 1.99422 -0.955951 0.162284
000320 92 92 96 3e 1b 81 c8 3e 28 d5 02 c0 1a 8e 82 3c
       0.294087 0.39161 -2.04426 0.0159369
000330 20 42 5c bf d9 42 c0 bf 46 97 b7 3e c1 8f 16 3f
       -0.860384 -1.50204 0.358576 0.588131
000340 bb 61 19 40 05 a3 86 3f 8e e7 e3 be 39 62 2b 40
       2.39659 1.05185 -0.445126 2.67787
000350 10 ec d0 3e b9 c2 1f bf ff 09 9e 3e 5b 40 24 3f
       0.408051 -0.624065 0.30867 0.641607
000360 86 e6 24 40 bb f2 99 bf 71 ff f1 3e 53 5e 0b be
       2.57657 -1.20272 0.472652 -0.136102
000370 b6 4a 88 3f 86 55 88 3f a1 a7 8c 3d 9f 91 f0 be
       1.06478 1.06511 0.0686791 -0.469861
000380 d1 08 2e bf 1a 51 da bf 03 09 0a 3e 99 2a 20 3f
       -0.679822 -1.7056 0.1348 0.62565
000390 eb e5 0f 3f 1c d3 ab 3e 26 a7 ae be 8e 79 bd 3e
       0.562102 0.335595 -0.341119 0.370068
0003a0 de 8f a3 be b1 a2 44 40 c7 29 42 bf 99 64 8c bf
       -0.319457 3.07243 -0.75845 -1.09682
0003b0 d0 60 27 3f 17 9e 0b bf a1 25 b4 3c 5c 91 88 3e
       0.653821 -0.545381 0.0219906 0.266734
0003c0 1d 94 98 bf 1c 5e e0 3e 8b dc 18 3d 65 70 74 3e
       -1.19202 0.438218 0.0373197 0.23871
0003d0 2f 34 83 3f d3 f6 a3 bf 3a cc bf 3f d3 a4 02 40
       1.02503 -1.28097 1.49842 2.04131
0003e0 13 43 66 3f 94 4d 99 3f 90 6b a7 3f 80 0b ca be
       0.899461 1.19768 1.30797 -0.394619
0003f0 7f bc 8f 3f b4 6f d5 ba 54 3b 7f 3f 14 7b c0 3e
       1.12294 -0.00162839 0.996999 0.375939

Operation_4_Add_B f4 [50]
000000 33 f9 4a c0 ce dd 16 3f d7 34 b7 bf 6b 6b 1b bc
       -3.17146 0.589322 -1.4313 -0.00948606
000010 11 df 8d bf 41 0e de bf be dc 77 3e f4 8b 06 3f
       -1.10837 -1.73481 0.242053 0.525573
000020 3b e4 f6 bf 2d 3e 29 40 30 81 cf bf 78 29 9d be
       -1.92884 2.64442 -1.62113 -0.306957
000030 53 cb 83 c0 2f fa 92 bf 25 92 40 40 ee 5f 37 40
       -4.11857 -1.14826 3.00892 2.86523
000040 9f cb 84 3e ad c2 f6 3e 02 9b 07 3f f4 1a 27 3f
       0.259366 0.481954 0.529709 0.652755
000050 8a 8e c0 bf 6e de 68 3f fc 1d 0a 40 22 ab 4d 40
       -1.50435 0.909644 2.15808 3.21357
000060 29 78 5e bf e6 78 41 3f ac 39 44 40 86 ac be bf
       -0.869021 0.755751 3.06602 -1.48964
000070 ae 7e 6c 3f 85 ce ff 3f 58 75 9e 3e f2 b5 d7 bf
       0.923808 1.99849 0.309489 -1.68524
000080 ac 90 8a bf 22 6c c8 3f f4 86 93 3e 29 7a 2c bf
       -1.08254 1.5658 0.288139 -0.673739
000090 f2 b5 3d c0 7d 79 51 c0 90 f6 f7 3e a4 c1 e5 3e
       -2.96423 -3.27304 0.484303 0.448743
0000a0 22 ab af bf c7 68 99 3f a7 61 d3 bc b3 07 26 c0
       -1.37241 1.19851 -0.0258034 -2.59422
0000b0 17 f1 fd be 70 07 42 bf b1 87 7e bf a9 d9 df bf
       -0.49598 -0.757926 -0.994258 -1.74883
0000c0 5b 08 12 be a9 fb a0 bf
       -0.14261 -1.25768

Operation_5_MatMul_W f4 [50, 50]
000000 29 20 3d be 58 8d 65 3f 1e 8b 51 3f ca c1 dc be
       -0.184693 0.896688 0.818529 -0.431166
000010 fb af 23 3e bb 60 40 be 35 79 9a be 9e 0b 63 be
       0.159851 -0.187869 -0.301706 -0.221724
000020 d0 d0 3f 3f 9b 39 64 3e 24 38 43 bb cd 78 c6 3d
       0.74928 0.222876 -0.00297881 0.0969101
000030 d4 49 a6 be b9 a5 9d 3f 6d 3b 69 bf 0d 24 3d 3b
       -0.324782 1.23162 -0.911063 0.00288606
000040 25 07 18 3f e8 4a 14 3e e3 8b d6 bd 71 3d ae bf
       0.593859 0.144817 -0.104759 -1.36125
000050 af 95 d0 bd 7c d1 b3 bd 0b 2a 8a be 3c 4e 81 3e
       -0.101848 -0.0878019 -0.269852 0.25255
000060 b3 48 8e 3d 13 0d 22 be a7 b8 a0 bc f0 fc e2 bc
       0.0694746 -0.158253 -0.0196193 -0.0277085
000070 23 49 a0 bd 60 b1 1e 3f 60 87 bb bc 11 1c 33 bf
       -0.0782645 0.619894 -0.0228917 -0.699647
000080 ae 7e ac be b7 62 87 3e 62 a1 76 bf 70 22 1a 3e
       -0.336904 0.264425 -0.9634 0.150522
000090 c1 fe d3 3e 62 be 70 bf 50 5b be 3c 42 62 76 3d
       0.414053 -0.940405 0.0232369 0.0601523
0000a0 1b bb 58 bf c0 79 49 bf cb f3 08 3f 93 18 b0 3f
       -0.846605 -0.787014 0.53497 1.37575
0000b0 1b 7f 8a be a7 c9 d4 3e 76 c5 7c 3e 3c 2d d7 3e
       -0.270501 0.415601 0.246847 0.420267
0000c0 b9 8e 05 bf 9b e3 ec 3e 9c bf 89 3e d7 86 82 bf
       -0.521709 0.462674 0.26904 -1.01974
0000d0 37 54 8c bf cb d6 d6 bf 83 f9 eb 3d c5 e4 4d 3e
       -1.09632 -1.67843 0.115222 0.201068
0000e0 95 c6 b9 bc 6d 54 c7 be 34 0f 20 bf 32 c7 12 be
       -0.0226777 -0.389316 -0.625232 -0.143338
0000f0 47 aa f7 be dc d9 67 3e f4 52 c1 3d 3c 68 16 bf
       -0.483721 0.226417 0.0943965 -0.587528
000100 48 c5 1f bf 38 d8 4b 3e 02 ba 97 3e 99 bb 14 c0
       -0.624104 0.199067 0.296341 -2.32395
000110 c4 3b 65 bd 0d 6f 8e be 86 08 b3 3d 8c f4 02 3d
       -0.0559652 -0.278191 0.0874186 0.0319715
000120 d2 18 2d 3f fc a5 65 3e 9a 0c 62 3d 7f 2e e2 be
       0.67616 0.224266 0.0551878 -0.441761
000130 2f 88 58 be 23 49 80 bd 28 0b ff 3e 58 a4 ae 3d
       -0.211457 -0.0626395 0.498132 0.0852744
000140 ae 93 c4 bc dd 28 0e bf 6f f2 1b be 0e dc 09 bf
       -0.0239962 -0.555311 -0.152292 -0.538514
000150 32 04 80 be f9 14 80 bf a4 6c f9 be 30 65 20 be
       -0.250032 -1.00064 -0.487157 -0.156636
000160 bc af 4a be 2d 38 6d bd 08 ca 95 3e 48 c0 24 bf
       -0.197936 -0.0579149 0.292557 -0.643559
000170 b7 26 2d be 0a 9d cb bf 61 55 85 be b2 f6 ff be
       -0.169093 -1.59073 -0.260417 -0.499929
000180 d3 5b 11 3c c7 54 30 bc 5c 74 d2 3d a6 9a 19 3e
       0.00887199 -0.0107624 0.102761 0.150004
000190 36 77 a4 3e 56 6f 03 3d 0c 78 59 3e 6e 15 74 be
       0.321222 0.0320886 0.212372 -0.238363
0001a0 7b 67 54 be 90 0b 98 bd 58 51 07 3c 46 45 fc bd
       -0.207426 -0.0742408 0.00825914 -0.123179
0001b0 ff 5e 06 bf 23 b8 b6 3c 9f 6e 05 bd cb d9 5b be
       -0.524887 0.0223046 -0.0325762 -0.214698
0001c0 0f 27 60 3e 89 f0 1f 3e be de a9 3f 6f d4 82 be
       0.218899 0.156191 1.32711 -0.255527
0001d0 bb f2 0d bf f7 e4 31 be f4 42 0b bd e1 95 a4 be
       -0.554485 -0.173725 -0.0339994 -0.321456
0001e0 27 f8 e6 be c6 50 3e be 3f 8b 55 3e da d6 80 bd
       -0.451112 -0.185855 0.208539 -0.0629098
0001f0 c6 18 d8 3e 66 68 2c be e3 8d 6c 3e b0 8b 87 3d
       0.422064 -0.168367 0.23101 0.0661844
000200 a6 f1 9b 3d bd c8 14 3e 93 51 ca bc fa 31 9c bc
       0.0761445 0.145297 -0.0246971 -0.0190668
000210 4b ac 94 3e 9a 5f 2d be 29 24 b1 3e e3 6f db 3d
       0.290377 -0.16931 0.345979 0.107147
000220 cb 29 66 bd fb 37 74 bd 13 a8 34 bd d1 06 60 3c
       -0.0561922 -0.0596237 -0.0441056 0.0136735
000230 7d 3c 94 be bf f4 71 3d de 77 ac 3e a4 aa 9d bf
       -0.289524 0.0590713 0.336852 -1.23177
000240 95 9b c0 3e 27 68 9b 3e 6f c1 2d bd 87 c0 01 3e
       0.376187 0.303529 -0.0424208 0.126711
000250 f8 fc 00 3e 74 0b 8d 3e b7 e0 36 3d 29 4e 44 3d
       0.125965 0.275478 0.0446479 0.0479261
000260 d7 20 42 3d 5a 35 02 3c c1 cc 32 3d ca 6e 66 3c
       0.0473946 0.00794729 0.0436523 0.0140645
000270 72 b1 38 bd 49 7b 28 3c 5e 33 34 bd d3 f2 48 3d
       -0.0450911 0.0102833 -0.0439943 0.0490597
000280 ea 5d 1c bd 86 34 4f bb 91 18 10 bb 09 cd e4 3b
       -0.0381755 -0.0031617 -0.00219873 0.00698245
000290 79 12 47 3d 17 c3 2b bd eb 82 cd 3b ca 06 eb bb
       0.0486016 -0.0419341 0.00627171 -0.00717244
0002a0 67 c0 2f 3d c4 26 12 bd b7 d5 4c bd 62 76 05 bd
       0.0429081 -0.0356815 -0.0500085 -0.0325836
0002b0 80 66 30 bd 08 16 51 bc 76 dc 35 3d 93 74 e8 3c
       -0.0430665 -0.0127616 0.0443997 0.0283759
0002c0 82 97 2f 3d a2 13 fc 3b 75 05 5b bc ec 56 2a 3d
       0.0428691 0.00769277 -0.013368 0.0415868
0002d0 26 9f 68 3c 62 97 12 3d 3b 00 42 3d c6 5c 48 bd
       0.0141981 0.0357889 0.0473635 -0.0489166
0002e0 de 71 0a 3d d5 37 95 3c 0d 1c 2b bd 8f 05 1e 3c
       0.0338 0.0182151 -0.0417748 0.00964488
0002f0 06 d6 b1 bc ea 67 00 bd f8 4a 85 bc 27 fe 03 bd
       -0.0217085 -0.0313491 -0.0162711 -0.0322248
000300 a1 4f 31 3a 87 64 af ba 65 25 9c 3c 84 cb 74 bc
       0.000676388 -0.00133814 0.0190608 -0.0149411
000310 f1 5c 09 bd 44 c8 d4 bc f9 4f 92 bb 3b d7 83 bb
       -0.0335359 -0.0259744 -0.0044651 -0.00402346
000320 4f 22 12 bf e1 0b 05 c0 33 17 58 3e f8 8a 6e be
       -0.570836 -2.07885 0.211026 -0.232952
000330 6b b6 72 bf 22 3a 8f bd 74 7c 04 be 1a 87 8a 3e
       -0.948096 -0.0699351 -0.129381 0.270562
000340 ac c4 68 bf 9a 82 90 3d e6 57 83 bf ff cf 61 3e
       -0.909251 0.0705616 -1.02612 0.22052
000350 8f 56 e5 be 3b fc 95 3f 53 5d b8 be 08 22 8b be
       -0.447926 1.17176 -0.360087 -0.271744
000360 20 42 dc bd 9e 08 82 be 9c df d0 be 1f bf f7 bd
       -0.107548 -0.253972 -0.407956 -0.12097
000370 a2 b2 5d 3f 39 b4 8d 3d 4c 17 02 be b0 1b 66 be
       0.866007 0.0691914 -0.127042 -0.224715
000380 9b a9 30 bf 32 eb 01 bc 68 3f 5a bf fd 4a 07 3e
       -0.690088 -0.00792961 -0.85253 0.132122
000390 17 12 98 be 81 77 22 be cd ce fd bc d2 71 55 be
       -0.297013 -0.158659 -0.0309824 -0.208442
0003a0 63 2e 47 b9 33 7c 15 bd fe ba 83 be c3 6f 99 3d
       -0.000189954 -0.0364954 -0.257286 0.0749202
0003b0 4c fc 91 3e 6d 8f de 3d a9 4a 2b be 84 66 d7 bd
       0.285128 0.108672 -0.167277 -0.105176
0003c0 22 6c 18 3d 6a bf 69 bf 9a 79 2a 3f 1e 19 f3 be
       0.0372125 -0.913077 0.665918 -0.474801
0003d0 26 db 65 3d ff 91 59 3e a1 f7 06 bc 7b 4e fa be
       0.0561172 0.212471 -0.00823775 -0.48888
0003e0 3f c7 b7 be 14 b3 2e 3f 05 6a 31 3e e3 70 e6 bc
       -0.358942 0.68242 0.173256 -0.02813
0003f0 82 73 da 3f 9c a2 e3 bd e7 1c 84 3e 67 8b 7a 3d
       1.70665 -0.11115 0.258033 0.0611681

Operation_5_Add_B f4 [50]
000000 db 16 05 c0 38 31 40 bf d5 ca bb c0 6b d4 1b c0
       -2.07952 -0.750751 -5.86851 -2.43484
000010 c4 ce 9c bf 1a 8b 3a bf 15 74 97 3f 5a 81 bd 3f
       -1.22506 -0.728685 1.18323 1.48051
000020 8b 1a 58 c0 7d ae 8d c0 0d 35 6a bf 0d a6 7d bf
       -3.37662 -4.42755 -0.914872 -0.990815
000030 43 90 07 c0 16 87 cf bf 1c f0 4d c0 6a 6a f1 bf
       -2.11818 -1.62131 -3.21778 -1.88606
000040 72 fe b6 3f 32 5a bf bf 7b 4e 0c c0 80 2a 6e bf
       1.42964 -1.49494 -2.19229 -0.930336
000050 66 4e a3 bf 4f e5 b4 3e b8 b0 4e be b8 23 f4 bf
       -1.27583 0.353312 -0.201846 -1.90734
000060 04 ff b7 bf ae 49 77 be 33 fe 71 c0 ab 04 97 3f
       -1.43747 -0.241492 -3.78114 1.17983
000070 e0 a1 84 bf 56 d6 16 3e 61 aa 89 bd 39 d3 84 3e
       -1.03619 0.147302 -0.0672195 0.259424
000080 92 e8 53 c0 2c d4 be bf a0 fd 2a 40 89 07 98 bf
       -3.31107 -1.49085 2.67173 -1.18773
000090 49 4b 1b c0 cf 6a 49 3f e2 76 28 3d 2e 00 11 bf
       -2.42647 0.786786 0.041129 -0.566409
0000a0 3e 20 3c bf 6e 8b 1a 40 91 61 dd bf f0 a6 db bd
       -0.734867 2.41476 -1.72954 -0.107252
0000b0 a8 57 56 3f f4 fd 10 bf f1 80 2e bf 8c a1 32 c0
       0.837275 -0.566375 -0.681655 -2.79111
0000c0 64 cb 42 bf c1 e5 55 bf
       -0.760916 -0.835537

Operation_6_MatMul_W f4 [50, 50]
000000 2c 42 d6 3c 30 2a c5 bf 3c ba 17 3c 4d 66 3c 3c
       0.0261546 -1.54035 0.00926071 0.011499
000010 88 67 69 3e b1 16 d3 bf f4 32 50 c0 21 37 a8 bc
       0.227934 -1.64913 -3.25311 -0.0205341
000020 d5 5b 83 3f 5b eb 93 be 03 b1 2c bf 6e 89 1c bf
       1.02624 -0.288905 -0.674576 -0.611472
000030 0c 76 0d c0 81 96 86 3e d5 3e c5 3e da 00 6c 3c
       -2.21033 0.262867 0.385245 0.0144045
000040 44 19 76 3f 5c 8f 8a 3f dd 5b f1 3d 33 16 0d be
       0.961323 1.0825 0.117851 -0.13778
000050 98 30 0a 3e 09 c3 7c 3f 8b e8 ad bd d3 6b 83 3e
       0.134951 0.987351 -0.0849162 0.256682
000060 18 43 d5 bf fb e9 7f 3e bf 27 0e bf 4d f7 56 3f
       -1.66611 0.249916 -0.555294 0.839711
000070 bd 4b 83 3d 01 ef 2e 3c c5 a9 be 3e 78 b5 3c be
       0.0641093 0.0106771 0.372389 -0.184286
000080 58 73 d0 bf 96 26 95 3e 6b 27 56 bf 0a 81 4c bf
       -1.62852 0.29131 -0.836539 -0.798844
000090 4b ea 99 c0 18 43 b5 bf f8 e1 24 bf 97 73 f5 bf
       -4.80985 -1.41611 -0.644073 -1.91759
0000a0 a1 70 2c 3d fb c9 18 3e 89 41 f4 bf e2 58 bf 3e
       0.0420996 0.149208 -1.90825 0.373725
0000b0 2c 3b ed 3a bf 73 39 3d c8 07 ab c0 c6 18 1c bf
       0.00180993 0.0452764 -5.3447 -0.609753
0000c0 a7 79 9f 3f 97 05 51 3a 78 e0 2d bd f1 45 b3 3e
       1.2459 0.000797355 -0.0424504 0.350143
0000d0 c3 2e 0a be 39 8f 14 3d 14 22 e0 3c e0 db 90 bf
       -0.134944 0.0362694 0.02736 -1.13171
0000e0 ca 87 a8 be bf 3a 58 3c ab 5b 23 40 71 e8 4d bd
       -0.329161 0.0131976 2.55247 -0.0502705
0000f0 92 59 85 be 24 9b 5f bf 72 1a 32 be e8 f6 6a bf
       -0.260449 -0.873461 -0.173929 -0.91783
000100 6b 82 a0 3f da 6c d1 bc 1a 14 21 3f ac ca 14 c0
       1.25398 -0.0255646 0.629213 -2.32487
000110 b1 1a bb be d1 78 42 3e 4c 53 44 be 16 6a ed 3f
       -0.365438 0.189914 -0.191724 1.8548
000120 43 39 ed 3f 54 52 03 40 17 b9 5f bf 11 aa a4 3f
       1.85331 2.0519 -0.873918 1.28644
000130 1a 17 82 3f e2 02 d0 3d b0 59 86 be 5d df 07 3e
       1.01633 0.101568 -0.262403 0.132688
000140 a7 3f 73 bf 8e 9d 96 3d 6d 56 1b 40 55 34 5e 3f
       -0.95019 0.0735427 2.42715 0.867986
000150 74 0a f2 bd a6 46 28 3e 9e 28 e9 3d 55 c1 0a c0
       -0.118184 0.164332 0.113847 -2.16805
000160 15 1f 4b 3f 8e fe 3c bc e7 32 9a bd 63 fc ba bd
       0.793443 -0.0115353 -0.0752924 -0.0913017
000170 85 7b e5 bd 68 b2 1f be eb 01 f3 3d 65 fc eb be
       -0.112052 -0.155954 0.118656 -0.46091
000180 5b b0 74 bf 82 ad ca bf 79 3b d2 bf 95 2b bc bc
       -0.955816 -1.58342 -1.64244 -0.02297
000190 a7 97 f7 3a 11 52 d7 be 65 4c e6 bc d5 76 13 3d
       0.00188898 -0.420548 -0.0281126 0.036002
0001a0 ee b1 a0 bf 1e 89 77 be 26 8d 6f c0 e6 a5 8b bb
       -1.25543 -0.241734 -3.74299 -0.00426172
0001b0 24 d1 d3 bf 56 7f 00 bf 9c db 20 bf c0 22 63 3f
       -1.65482 -0.501943 -0.628351 0.887249
0001c0 ae 46 fe be c3 b7 90 bd a1 9d bb be 9d 6c 7b bb
       -0.496633 -0.070663 -0.366437 -0.00383643
0001d0 f9 48 1a 3e 46 94 92 bf 59 ee b6 bd c9 1e e1 bc
       0.150669 -1.14515 -0.0893218 -0.0274805
0001e0 02 2b 07 3e 8c f7 73 3e d9 3d ad 3f ba fe b8 bc
       0.132 0.238249 1.35345 -0.0225824
0001f0 26 36 9f be 38 c0 e4 3e 9f e5 25 bf 95 0d c3 be
       -0.31096 0.446779 -0.648035 -0.380963
000200 0f 8a 9c bd e5 9c 33 3d 44 f2 1d 3c df 51 bb 3e
       -0.0764352 0.0438508 0.00964028 0.365859
000210 b9 51 cc be 04 74 af be 04 cb 29 bf 8f df 8f bf
       -0.399061 -0.342682 -0.663254 -1.12401
000220 08 aa 9e 3e 59 6d 9e be 57 7c bb be 61 e0 f1 3f
       0.309891 -0.309428 -0.366183 1.88966
000230 00 88 81 bb cd 01 47 bd b1 a2 2e c0 0f d1 7e c0
       -0.00395298 -0.0485857 -2.72868 -3.98151
000240 5d 16 07 bf f1 f2 d4 bd 33 dd 37 3f 5f 46 b1 3e
       -0.527685 -0.103979 0.718219 0.34624
000250 ef 54 28 bf 91 e2 b1 bb 8b 9c 2e bb 84 64 0d 3f
       -0.657546 -0.00542862 -0.00266436 0.552315
000260 1b 6e f6 3c e0 9f b2 be cc 41 40 3e b4 e6 27 3e
       0.0300818 -0.348876 0.187751 0.163966
000270 40 c1 1d c0 90 dd a5 be a0 32 23 bd e5 6a aa 3d
       -2.46492 -0.323956 -0.0398432 0.0832117
000280 72 c4 46 bf 7a 00 db be 7f bc 2f c0 af 5f a8 3e
       -0.776435 -0.427738 -2.74588 0.328855
000290 f8 df 96 bf 97 2a a4 bb b7 7f 91 3f 73 11 b6 c0
       -1.17871 -0.00500996 1.13671 -5.68963
0002a0 13 64 04 3e 3d d6 3c be 22 3d 1e 3c 81 22 c6 3e
       0.129288 -0.184411 0.00965813 0.386982
0002b0 d0 61 a3 c0 84 c3 91 3d 44 6e 3e c0 ae 12 b0 3f
       -5.10569 0.0711737 -2.97548 1.37557
0002c0 b8 56 db bd f6 41 f6 bd d0 07 c0 3d f3 92 2f 3e
       -0.107099 -0.120243 0.0937649 0.171459
0002d0 26 38 85 3e 1e 16 4a 3e 6f d4 aa 3e c3 b6 e5 bf
       0.260194 0.19735 0.333652 -1.79464
0002e0 59 fa d8 bf 5f 26 12 bf ba 4e eb bf 9d 80 2e c0
       -1.69514 -0.570898 -1.83834 -2.7266
0002f0 3b a9 a7 3e 26 aa 4b c0 49 bd c8 3a 0b a0 83 bd
       0.327463 -3.18226 0.00153152 -0.0642701
000300 42 78 dc bf 2c 45 66 bf e6 75 58 3f a3 ce 00 bf
       -1.72242 -0.899493 0.845549 -0.503153
000310 39 7f df bf d2 71 35 3e 89 07 94 bf da 93 9f ba
       -1.74607 0.177192 -1.15648 -0.00121748
000320 39 01 17 3b 2e 56 cc be 39 b3 c2 bc f8 e1 20 3e
       0.00230415 -0.399095 -0.0237671 0.157112
000330 dc b8 dd 3e 51 4d 2d 3f c3 47 2c c0 6b e5 bf 3d
       0.433051 0.676961 -2.69188 0.0936993
000340 99 12 13 40 f4 e0 e6 bf 3e 93 d5 3e 88 2e 80 bf
       2.29801 -1.80374 0.417139 -1.00142
000350 ac 1c 4e c0 70 cf c3 be 6a 87 97 3f 7a 0e 16 3d
       -3.2205 -0.382442 1.18382 0.0366349
000360 6f d7 93 3e 50 55 41 be 1d 58 1e be 1a a7 21 3e
       0.288753 -0.188802 -0.154633 0.157864
000370 95 d2 43 be 8a 8e b0 bf 07 b4 50 3f ce df 68 3f
       -0.191233 -1.37935 0.815247 0.909665
000380 81 7c 71 3f 38 a1 40 bf cd 3b 7e 3e cf 81 bd 3e
       0.943306 -0.75246 0.248275 0.370131
000390 d4 d6 28 be c8 cd f0 bd 25 58 94 3f 95 9a c5 3f
       -0.164882 -0.11758 1.15894 1.54378
0003a0 5d fe ab 3f fd 2f 13 bf 46 ce ce bf 0f 50 b3 bb
       1.3437 -0.574951 -1.61567 -0.00547219
0003b0 82 2f 76 3d d7 c0 aa 3f 1a 88 55 3f ef c9 93 bf
       0.0601039 1.33401 0.834108 -1.1546
0003c0 e2 39 20 3d 19 92 e3 be a7 5c 99 c0 1f 11 d7 3f
       0.0391177 -0.444474 -4.79256 1.68021
0003d0 7b 83 33 40 a3 76 0f 3e 81 b2 e9 bd d4 2b f5 be
       2.8049 0.140101 -0.11411 -0.47885
0003e0 07 07 eb 3e 79 05 06 ba 48 a8 d9 bd d9 77 35 bf
       0.459038 -0.000511251 -0.106278 -0.70886
0003f0 ae fb 82 bd 8c bd 07 3e 89 09 aa 3c 07 42 ca bf
       -0.0639566 0.132559 0.0207565 -1.58014

Operation_6_Add_B f4 [50]
000000 d3 f7 3a 3d 61 54 8e bf 8b a6 9b 3f 99 0f 00 bf
       0.0456465 -1.11195 1.21602 -0.500238
000010 a9 d8 80 be b9 a7 73 bf ca c3 b5 40 79 24 f6 be
       -0.251653 -0.951778 5.68015 -0.480747
000020 94 fb e8 c0 22 c3 8a 3e e1 7f 43 c0 5e 9d 93 3f
       -7.28071 0.27102 -3.05468 1.15324
000030 d2 6f 41 40 37 a6 5f 40 eb 8b ba c0 07 0c d2 3e
       3.02245 3.49452 -5.82958 0.410248
000040 21 3c a9 c0 4b 3c 7e 40 3d 27 1d 40 8f 50 53 3e
       -5.28859 3.97243 2.45552 0.206362
000050 0f 9c ef bf 0c ea aa c0 27 14 c1 c0 ca fd a2 c0
       -1.87195 -5.34107 -6.03371 -5.09348
000060 c9 ab 1b c0 15 74 b6 c0 a8 e3 da c0 80 60 a2 c0
       -2.43236 -5.70167 -6.84029 -5.07428
000070 04 ca 92 3f c9 8f 34 bf 18 cf e4 bf 25 e9 13 c1
       1.14679 -0.705319 -1.78757 -9.24442
000080 b1 16 be c0 9b fe b0 c0 db f9 52 40 42 43 77 40
       -5.94027 -5.53108 3.2965 3.86348
000090 e4 49 ba 3f c6 f9 d6 c0 d8 f0 2a c0 01 2f 43 be
       1.45538 -6.71799 -2.67095 -0.190609
0000a0 96 25 0a 3e e8 13 19 c0 3a cc df 3f f8 c6 10 3f
       0.134909 -2.39184 1.74842 0.565536
0000b0 ce 08 08 c1 1c 08 b5 3f da 1e 35 3f 9c f9 f9 bf
       -8.50215 1.41431 0.707502 -1.95293
0000c0 20 46 d0 3f 3d c4 b5 bd
       1.62714 -0.0887532
