resources/onnx/acasxu/ACASXU_experimental_v2a_4_6.onnx (onnx, 55889 bytes, 15 tensors)

input_AvgImg f4 [1, 1, 1, 5]
00000000: 0000 0000 0000 0000 0000 0000 0000 0000
00000010: 0000 0000
0.0 0.0 0.0 0.0 0.0

Operation_1_MatMul_W f4 [5, 50]
00000000: 2d84 0bbc 22a3 07bc 91f8 80bd 3303 30bd
00000010: 09c8 133c 0f72 a8bd 618b bdbe 3b07 2a3c
00000020: 3ba6 d6be 13f2 113e 6e2b 923d acce c53c
00000030: 7bb6 b3bc 0f9c bfbf 8298 1d3b 9eba 0dbc
00000040: a697 7d3d 9ef9 8bbc 6536 d0bf 52c6 893d
00000050: bc5c 64bd c4cf 3fbe 2742 b4bc af7b eb3c
00000060: 1950 d43c 6074 79bc 9296 923e 56bb 063d
00000070: 056f 23bd 7086 eebb fcf8 10bd e453 9b3c
00000080: 5159 93bd 30dd ffbc 4553 4c3d 01c3 52bd
00000090: a59f 90be 4d48 ebbd cc2e ef3a fe48 1d3f
000000a0: 26c3 51be 2cc7 3a3d a912 153e 891b c1bc
000000b0: 1d03 a63f c100 223e 56b5 49bc 2eab d639
000000c0: 048b 68bc 1ff1 d0bb fb22 213e d5e5 f73b
000000d0: 603b 683e fb79 833f 8acd 273e cb2d 853f
000000e0: 4aed 15be ab96 04bf 5726 24c0 56d4 c43f
000000f0: a226 42bf 6efa bf3f 0648 083f 08e5 1d3e
00000100: 0012 b8bb 83c0 ba3f 0d71 bc3f 1e34 033f
00000110: 0666 05be d0d5 26be b801 933f 000a 433b
00000120: 6fb9 1dbc 0439 643f 7fa5 e3be 56bc ae3b
00000130: bbd0 5cbe 72e1 90bf e8fa 1a3f 6abd 23bf
00000140: ea23 40be f2d3 44bf 1cce a43f 8a09 b53d
00000150: 2251 6cbf 2a74 863f 45f0 af3f 4209 933f
00000160: 4ec4 cf3b ea21 d63f 7d3d 2b3f 2d5b abbf
00000170: 9413 a5bf 2c9d afbe 41f7 c03b faf2 b23f
00000180: 0090 93be 24b5 503c 1c7c b5bf ecd0 9bbb
00000190: 59be 0e3e ca48 a4ba 6474 90be 91ed b0bf
000001a0: 2e70 29be b1a4 f43e df97 893d 76a4 823e
000001b0: 705f 3f40 e0c9 9d3c a9bc 41bf 2f47 593d
000001c0: 6ade f5bf e4e4 94bd d1ee ad3b cc40 81bf
000001d0: c24c ffbf e6e6 db3d 0475 9a3d 165e c33d
000001e0: 40a1 263f bc7f c73c b335 123a d157 84bf
000001f0: 4a28 39bf 1f9c 163a f701 803f fbcd acbe
00000200: ce8c eebe f9bc 8abe 3ecc d63e 7d76 74bf
00000210: c347 ccbf 47f8 68bd 46eb 903f 0a2f 013f
00000220: 8b6c bbbf 5a47 81bf 1fa8 aa3b 957c 7cbe
00000230: 5a0f 03bf 7de8 a63f 412b b83e 58c5 833e
00000240: 0559 053c 014d f4bf b743 bb3e 331e 1dbb
00000250: 48fe f03f f0fc 4d3a 5ef4 95bf d3f7 eab9
00000260: 54a9 d9bd 5452 67be dd5f ddbd e63b c03e
00000270: 64a6 9f3b 0af7 5a3e da04 d8be 9d83 2f3f
00000280: 37c5 eb3e 50c3 773d 35d4 a83c b23b 6ebc
00000290: 6550 7b3a 01a2 803e 4785 fb3c 0c59 89bf
000002a0: 617d 303b c863 41bd d5e9 b83e f63a 933d
000002b0: 90bd 5ebb ad8a c0be 94a4 a3be 86dd 813c
000002c0: 71dc 733d 6422 bd3e 6342 6cbe 008f 38be
000002d0: bb7e 41bf e6ca 983e e9d7 96be 7993 7bbf
000002e0: 406b 9ebe 8848 bdbe 6e6a a83e 280f 3bbf
000002f0: c996 323a eece babe c0cc 17be 4040 8d3d
00000300: 1f81 533f e564 e23d 1da6 02bd 4fea db3e
00000310: ff6f 163d dac3 c53b df31 94be 19ab 4d3c
00000320: 2d79 2cbe dffc 063d e09f 723e 022c 223f
00000330: dcf6 79bf 1c2d c13b edf0 47be e15f 8cbe
00000340: b5a6 893f b5a4 17bf 1958 07be f2b6 12bf
00000350: a942 8d3c 2ab5 cd3b 8cd4 ff3a 2ba1 0fbf
00000360: 1a16 db3e 842a 953f 930f cd3a 05f9 c93e
00000370: 15fe 1cbe 9e0e e0ba dd8f 00bb 31ed eb3e
00000380: 7573 113e 38bf 213c f3ac 943e 42ed 07be
00000390: df1a f83e 809c f03d d862 4b3f 61e1 94bd
000003a0: 4242 483f de01 423f 7041 ce3e 6a17 bb3e
000003b0: c959 78be 6093 113f d17a f8bb 85ce c33e
000003c0: 40d9 e0bf 7701 b5bd 567d a2bf c16f 033f
000003d0: e4a3 853c de21 05bf ec17 b8bf 54f4 913c
000003e0: 86c8 2d3f 20f9 1cbb
-0.0085154 -0.00827864 -0.0629741 -0.0429718 0.00901986 -0.0822488 -0.370204 0.0103777
-0.419237 0.142525 0.0713719 0.0241464 -0.0219376 -1.49695 0.00240472 -0.00865045
0.0619122 -0.0170868 -1.62666 0.0672728 -0.0557525 -0.187316 -0.0220042 0.0287455
0.0259171 -0.0152255 0.286305 0.0328935 -0.0399008 -0.00727921 -0.0353937 0.0189609
-0.0719477 -0.0312334 0.0498841 -0.0514555 -0.282468 -0.114884 0.00182482 0.614395
-0.204846 0.0456001 0.145579 -0.0235727 1.29697 0.158206 -0.0123113 0.000409448
-0.0141933 -0.0063764 0.15736 0.00756524 0.226789 1.02716 0.16387 1.04046
-0.146413 -0.517924 -2.56484 1.53773 -0.758402 1.49983 0.532349 0.154194
-0.00561738 1.459 1.4722 0.512514 -0.130272 -0.162925 1.14849 0.00297606
-0.00962673 0.891495 -0.444622 0.00533251 -0.21564 -1.13188 0.605391 -0.639609
-0.187637 -0.768859 1.28754 0.0883971 -0.923113 1.05042 1.37452 1.14872
0.00634054 1.67291 0.668907 -1.33872 -1.28966 -0.342996 0.00588885 1.39804
-0.288208 0.0127385 -1.41785 -0.00475513 0.139398 -0.00125339 -0.282138 -1.38225
-0.165467 0.477819 0.0671842 0.255161 2.9902 0.0192613 -0.756785 0.0530464
-1.92085 -0.0727022 0.00530801 -1.00979 -1.99453 0.107374 0.0754185 0.0953943
0.650898 0.0243529 0.000557746 -1.03393 -0.723271 0.000574531 1.00006 -0.337509
-0.465918 -0.270973 0.419527 -0.954933 -1.59594 -0.0568774 1.13218 0.504624
-1.46425 -1.00999 0.00520803 -0.246569 -0.511953 1.30397 0.359705 0.257365
0.0081389 -1.9086 0.365751 -0.00239743 1.88276 0.000785782 -1.17152 -0.000448166
-0.10628 -0.2259 -0.108093 0.375457 0.00487213 0.213833 -0.421912 0.685602
0.460489 0.060489 0.020609 -0.0145406 0.000958687 0.251236 0.0307032 -1.07303
0.00269302 -0.0472143 0.361159 0.0718898 -0.00339875 -0.376058 -0.319615 0.0158527
0.0595364 0.369403 -0.230722 -0.180233 -0.75584 0.298423 -0.294616 -0.982719
-0.309412 -0.369694 0.328937 -0.7307 0.000681263 -0.36486 -0.148242 0.0689702
0.826189 0.110544 -0.0318967 0.429522 0.0367279 0.00603531 -0.289443 0.012553
-0.168431 0.032956 0.236938 0.633484 -0.976423 0.00589527 -0.195255 -0.274169
1.0754 -0.592357 -0.132172 -0.573104 0.0172437 0.0062777 0.00195183 -0.561053
0.427903 1.16536 0.00156449 0.394478 -0.153313 -0.00170942 -0.0019617 0.460794
0.142042 0.00987225 0.290382 -0.132741 0.48458 0.117486 0.794477 -0.0726955
0.782261 0.757841 0.402843 0.365413 -0.24253 0.568655 -0.007583 0.382435
-1.75663 -0.0883817 -1.26945 0.513424 0.0163135 -0.520048 -1.43823 0.0178167
0.678841 -0.00239522

Operation_1_Add_B f4 [50]
00000000: c0d0 9bbe 4d6a c3bc 9a26 2c3e 37c6 f6be
00000010: 7024 e8be 67b7 663e ab79 4ebd 6143 96bd
00000020: df8c dabe e906 af3d c8ce 1bbe 78ed 42be
00000030: 08e4 223e 9d4c 7cbe 42c6 88bc 6d3d aebd
00000040: 0477 fb3c 3184 923d 5ebc 87be d5ce d03d
00000050: 045d 86bd f825 d13c c5f6 a4bc 1135 11bf
00000060: a0d6 1e3d 531e c2bc 80d3 1b3d c26c 123e
00000070: eed1 4b3e 9696 113e e3e9 6b3d 6be8 303d
00000080: edd4 a4be f67f 0ebe 931a 02bf c783 7d3e
00000090: ae9d 08be f5a2 02bf 51ef 73bc 0265 bb3e
000000a0: b9a5 c5be c26a b4be 1860 5fbe a253 b1bd
000000b0: 5166 b33e 40f7 d5be bc3e 1fbf 4e26 aebc
000000c0: 92b0 17bf 4890 a5bc
-0.304327 -0.0238544 0.168116 -0.481981 -0.453403 0.225309 -0.050409 -0.0733707
-0.426856 0.0854624 -0.152156 -0.190359 0.159073 -0.246386 -0.0166961 -0.0850781
0.0306964 0.0715412 -0.265109 0.101957 -0.0656071 0.0255308 -0.0201372 -0.567216
0.0387789 -0.0236961 0.0380435 0.142993 0.199043 0.142176 0.0575961 0.0431904
-0.321937 -0.13916 -0.508218 0.247573 -0.133414 -0.510299 -0.0148886 0.366005
-0.38603 -0.352377 -0.21814 -0.0865853 0.35039 -0.417902 -0.622051 -0.0212585
-0.592538 -0.0202104

Operation_2_MatMul_W f4 [50, 50]
00000000: 79c9 1fbd ddcd 93bf 16fa 00be 82ff 4d3e
00000010: 8d97 82bf a60f 953f 28ba 86be a24a e83c
00000020: b948 6bbc 44f9 42be a9ad 67bd c3f4 e53e
00000030: 494b 953f 8449 153f 4738 a93f 69ab 623e
00000040: c6f6 7f3c 53cb 46be ac39 e03f 5a9e 9b3f
00000050: 6f9f dd3e 274e fabf 5f46 153f 5ef2 ef3e
00000060: f6b4 d3bf c021 5c3f 8466 dfbe c5ee 04ba
00000070: 6aa1 e4bd 9300 3dbf ba65 6b3f bbc0 5d3b
00000080: 7901 263e 49f2 dcbd a834 a23d 0401 2ebf
00000090: a257 4d3c 2a71 f5be 7408 84be 8120 e0be
000000a0: bed7 143b e1d4 9f3e d025 21bd 5cad f33d
000000b0: 42af 2f3e cedf c03f 3a13 49bd fa7e 823e
000000c0: c106 5fbd 2aa9 db3e c2bb 603b 96be 86bc
000000d0: 1f73 d43c b69c f0bc 55a2 2cbd a52f c4bc
000000e0: a59f 303d 3d5f d4bb 489f bb3c 3c75 9bbb
000000f0: e030 4cbd 8228 8e3c 5100 e03c 8e17 1cbd
00000100: 7d41 c93b d3ff 8dbc e958 af3c f343 40bd
00000110: 445e 20bd b2ea 47ba 12d3 2fbd 2808 23bd
00000120: adff 8e3c 5183 8ebc 6d3d 1e3d 6f59 0fbd
00000130: b0c3 1dbd 05d6 963c 2eba 0bbd 4ee7 2fbd
00000140: 0f54 97bc b218 eb3c 4548 bcbb ea6b 273c
00000150: 7764 d13c c738 553d ef22 a73b 93c9 29bd
00000160: 63df 64bd bfb8 963b 18ff 23bd 99a6 3e3d
00000170: 1a4b 1d3d 2ce4 db3c 20bf f1bb 39f0 4a3d
00000180: c2ef 10bd 1ab4 80bb 4ba6 af3c 4ef8 9bbc
00000190: ad7b e7b9 2847 a13e 618d 633e b761 343e
000001a0: 8bfe e03e e697 9cbc 11ab cfbe c62c a0bc
000001b0: 75cc b7bb dbc3 0a3f 6b9b 6a3f 5871 6a3e
000001c0: 93e3 7ebe 5fee db3e 971c 8bbf 7347 273f
000001d0: 828c 40bd f5a1 5b3e e63d 423f 03ea 71bf
000001e0: 09c4 cbbf 6f10 0dbf 2b35 933f e47a c5bd
000001f0: b28f b4bd 1ea7 083f 7897 fbbf 2ae2 743c
00000200: 412c 6f3f 3673 98be 5e0c aa3d 2d47 833d
00000210: ac1f 7b3d f31f 12be 6b0d 053e f92f 183f
00000220: 2dc6 69bb 9084 45bf 1498 023f ddb5 d8bf
00000230: be89 a13c 27a0 19be f055 66bd cf4e 1cc0
00000240: 5bd0 8bbe 25b9 923d 4226 d9bc dfe0 b3be
00000250: f09a c23a fd31 2dbc 9357 c23b 242a a4be
00000260: b75f eebe 0c7f 9cbd e5d0 cabf 05a4 1dbe
00000270: 01da 8e3e 8041 f7bc d774 33bd dd5b 1d3f
00000280: b1a2 023f 4512 b9bf 931a 26bf 85b1 bdbf
00000290: 41d8 693f b8e4 98be f855 39bc 001d 923f
000002a0: 8929 d13f 66dc 04bf 0803 af3f c66d d4bf
000002b0: 8ee6 08bf 5dfd 50bf 8482 c23e 0326 d0bf
000002c0: 7c81 343d a862 d7bb 30a4 debc 999e f83f
000002d0: d366 7cbf f9f7 79be aec4 323d 6c93 4abe
000002e0: b08c 853e 4486 013f 8590 98bc 7496 d93e
000002f0: 9702 023e e01d 4fbc 3491 04bc 2844 74bf
00000300: 799b 2dbd b73f 96b9 9a0a d1bd 153a 87bf
00000310: e5a4 a63c c13a 9ebe f160 303c b45a 4c3f
00000320: 45e5 1038 8a8e 26c0 57b2 19c0 01c1 54bf
00000330: 8e3f b1be 8f6e 503f 80b6 253e 4fdb 50bc
00000340: 1786 23bd aa60 a8bf 2fa8 8b3f 6b7d 853f
00000350: 749a 713f 37aa 733f d157 b03f d87d 5fbf
00000360: f5af 973b 813e 1b40 6b9a 6340 97c5 8cbf
00000370: 86ac 0640 42b2 76c0 5c03 cb3e 9fc7 283d
00000380: b1fa 53bf 2fc0 9ac0 9869 4940 3889 1c3d
00000390: b01b 09c1 0074 14c0 4d14 3d3f bfb9 dfbd
000003a0: 04af b6be 4f3d 46bf 46dd 1d3d 55d9 a3bf
000003b0: 682c 503c fdc1 3840 08aa 263e 44de d23e
000003c0: ca8c b73c ffb2 1bc0 0b8c 863c 3563 73c0
000003d0: 789c 823f 425b a7c0 dd29 f8bc 7cd5 9a3e
000003e0: 3554 d6bc bbd0 5440 aefc 483d 9564 4d3f
000003f0: b29d 03bf f8df 9abf 323b 4bbf 707a e7be
-0.0390105 -1.15472 -0.125954 0.20117 -1.02025 1.16454 -0.263139 0.0283559
-0.0143606 -0.190404 -0.0565621 0.449133 1.16636 0.583153 1.32203 0.221357
0.0156228 -0.194135 1.75176 1.21577 0.432857 -1.95551 0.583105 0.468646
-1.65396 0.85989 -0.436329 -0.000507098 -0.111636 -0.73829 0.919521 0.00338368
0.162115 -0.107884 0.079202 -0.679703 0.0125331 -0.479379 -0.257877 -0.437748
0.00227116 0.312171 -0.0393427 0.118983 0.171567 1.50683 -0.0490906 0.254875
-0.0544498 0.429025 0.00342916 -0.0164483 0.0259338 -0.0293716 -0.042147 -0.0239485
0.043121 -0.00648108 0.0229031 -0.0047442 -0.0498513 0.0173533 0.0273439 -0.0381084
0.00614184 -0.0173339 0.0214047 -0.0469398 -0.0391524 -0.000762622 -0.0429259 -0.0398027
0.0174559 -0.0173966 0.0386328 -0.0349974 -0.0385167 0.0184126 -0.0341131 -0.0429452
-0.0184727 0.0286983 -0.00574592 0.0102186 0.0255606 0.0520561 0.0051006 -0.041452
-0.0558771 0.00459966 -0.0400382 0.0465456 0.0384017 0.0268422 -0.00737752 0.0495455
-0.0353849 -0.00392772 0.0214416 -0.0190393 -0.000441519 0.314996 0.222219 0.176154
0.439442 -0.0191154 -0.405602 -0.0195526 -0.00560909 0.542051 0.916434 0.228948
-0.248915 0.429553 -1.08681 0.653434 -0.047009 0.214485 0.758757 -0.944977
-1.59192 -0.551032 1.15006 -0.0964258 -0.0881647 0.5338 -1.96556 0.0149465
0.934269 -0.297754 0.0830314 0.0641006 0.0613095 -0.1427 0.129934 0.594482
-0.00356711 -0.771554 0.510133 -1.69305 0.019719 -0.150025 -0.0562343 -2.44231
-0.273074 0.0716422 -0.0265075 -0.351325 0.00148472 -0.010571 0.00593085 -0.320634
-0.465574 -0.0764142 -1.5845 -0.153946 0.279007 -0.0301826 -0.0438126 0.614683
0.510295 -1.44587 -0.648843 -1.48198 0.913456 -0.29862 -0.011312 1.14151
1.63408 -0.518988 1.36728 -1.6596 -0.534768 -0.816366 0.379902 -1.62616
0.0440688 -0.00657304 -0.0271779 1.94234 -0.985944 -0.24411 0.0436446 -0.197828
0.260839 0.505955 -0.0186236 0.424976 0.126963 -0.0126414 -0.00809126 -0.954165
-0.0423846 -0.000286577 -0.102071 -1.05646 0.0203423 -0.309042 0.0107653 0.798259
3.45458e-05 -2.60245 -2.40151 -0.83107 -0.346188 0.814187 0.161829 -0.0127476
-0.0399228 -1.31545 1.09107 1.04289 0.943763 0.951816 1.37768 -0.873014
0.00462913 2.42569 3.5563 -1.09978 2.10428 -3.85463 0.39651 0.041206
-0.828044 -4.83596 3.14707 0.0382168 -8.56926 -2.31958 0.738591 -0.109241
-0.356804 -0.774373 0.0385411 -1.28007 0.0127059 2.88684 0.162758 0.411852
0.022406 -2.4328 0.0164242 -3.80293 1.0204 -5.22989 -0.0302934 0.30241
-0.0261632 3.32524 0.0490691 0.802316 -0.514125 -1.20996 -0.793872 -0.452106

Operation_2_Add_B f4 [50]
00000000: 1077 f5bc c03d e73e b762 5fbe a46e e73d
00000010: 9b70 433f 0857 08bf f86f de3d 0954 7fbc
00000020: 7340 dcbc ebad 51be cec2 063f 2d78 213f
00000030: ca6c 10bf 29eb 073e 529e 29be 1409 36be
00000040: a71f b9bc 7f12 b7be 747b 893f 72a7 54be
00000050: 3be4 a2bf 54e1 873e babf 763f 68b3 823f
00000060: 069f 1abf fe26 543e 9a97 9b3e 45d4 a9bc
00000070: b458 1a3e feb9 34bf 732f 80be 0a67 173f
00000080: e6b0 17bf 40de 873f bc07 d0be 368f c33c
00000090: 4167 52bc fd83 303f 1d00 a1be 5e81 2cbf
000000a0: 776a 89bc 1765 f6bd 95d8 55bd b37a 2bbf
000000b0: 4f24 383e d42b 0d3f eb7f 4abc 1827 523f
000000c0: 31c5 a6bc 9f8f d23d
-0.029964 0.451643 -0.21815 0.113004 0.763437 -0.532578 0.108612 -0.015584
-0.0268862 -0.204765 0.52641 0.63074 -0.56416 0.132733 -0.165643 -0.177769
-0.0225981 -0.357563 1.07408 -0.20767 -1.27259 0.265391 0.963863 1.0211
-0.603989 0.20718 0.303891 -0.0207311 0.150729 -0.705963 -0.250362 0.591416
-0.592543 1.06147 -0.406309 0.023872 -0.012842 0.689514 -0.314454 -0.673849
-0.0167744 -0.12031 -0.0522085 -0.669841 0.179826 0.55145 -0.0123596 0.820909
-0.0203577 0.102813

Operation_3_MatMul_W f4 [50, 50]
00000000: 2704 e13c 29ba 44bd 2926 0a3d 49de 943c
00000010: 7302 29bd c224 06bd a948 0a3d beab 39bd
00000020: df42 cd3c a648 593d 3702 4cbd 17b3 4a3c
00000030: b41b a23b 31cd d9bc 46c5 293d 2a3a 12bd
00000040: d828 ab3c b811 25bd 1ea3 613c 8504 31bc
00000050: d84e efbc b2b1 9cbc 738c 9eba 50e9 bbbc
00000060: 4322 063c 6cfa fdbc 9199 8b3c 2f7b 86ba
00000070: 96eb 2dbd 5736 3d3c 40b1 5f3c 2f9b ca3c
00000080: 2726 593d a31d 5c3c a4dd 2d3d 471a 41bd
00000090: 5a22 413d 0821 e03c 2acd 413d 7da5 1d3d
000000a0: e6bd bbbc 1d88 b63c 948c 773c 6dec 0c3c
000000b0: 782f f33b 48c7 103d e46d 603d 66e6 38bc
000000c0: 7848 0e3c c04b dfbc faa2 b8bd 1896 1bbf
000000d0: 0f0a 1a3e 3869 263f 1971 51be 6fbc 473f
000000e0: 24ed 9e3e 7dea 10bf 64bb 11bd eae7 c5bf
000000f0: cac4 753f e75a 4f3d 5352 71bc b9d8 b93d
00000100: 4cff f23d 79af 5e3f b77f 253f 7c48 d03e
00000110: ad4d 63bc c58d 933e ccb7 3e3e 2fa6 413f
00000120: 3b19 5cbe 0dc4 6a3f d4f1 90bf c572 a7bf
00000130: 45d7 21bf 7e1a 433f 898c 1a3c 431a 15be
00000140: bb2b db3d 001a 71bf 72c4 923e 2507 04bf
00000150: 5fb2 313f bed9 363f 9753 e23e fd82 c53e
00000160: 344a 77be 529e 99be ea40 5a3f 1217 20be
00000170: cec6 46bf eb39 b53f b8e8 94bd c349 5a3f
00000180: 88f1 da3d 772c 8ebe 9f3a 26be ed64 f0bd
00000190: 658d 28c0 f180 de3f 1233 db3e fa25 9a3e
000001a0: ef74 133f 04ad b43f b2f6 6bbf cec7 7d3f
000001b0: 8ac8 10be 7784 4b3f e40f 223f 1c5d 153e
000001c0: d382 bc3b 745c 31bf 11e4 a4bf 27c2 023f
000001d0: d34b ac3e 14ed b23f 282d 843e a0fa 7bbf
000001e0: 696d 1f3d fc17 703f 8120 e0bd 535c a13f
000001f0: fc35 d93f b91c babd 92b2 513f 0457 c1be
00000200: 1855 2bbc 7c47 f5be eb58 403d cc7a 2d3f
00000210: 1a31 abbe c086 96bd 5890 963f 8fde 00be
00000220: 986b 0dbf 6d20 0d3e 86ff 303f 87c4 953f
00000230: fb96 8d3f 12f9 263f f4f8 99bf 0264 50bf
00000240: 44de 9abe 9d68 ab3f 3faa 013e 006f c5bf
00000250: fd30 523e 1d59 813e 5969 b740 bea4 d13e
00000260: 75ac 3e3f 1bd8 e23f cb9c 9a3f 75e5 a33f
00000270: d3bd 4e3e 9964 8c3f 1c44 07bf cea5 b83f
00000280: 4cfe efbe 4bfb 4b3d 68b1 183f 7eba abbd
00000290: d9ed 7b3f e98c 7ebd d0f2 903f 12bc 493f
000002a0: a775 f33e 3b89 203f ac53 553f 3541 8c3f
000002b0: 1d02 af3e c2a3 a13f 596c fb3e 406c 093f
000002c0: 32c4 563d d83a a2bd d55a 683f 861e 99be
000002d0: 7253 033e 5873 e43f 83c0 ee3f 2a8e 333f
000002e0: f706 c73f 724f a7bd b742 28be a8e2 623f
000002f0: 1809 d1bf 9f1c 7d3f 2fc3 ef3e 6471 24bc
00000300: f65e ac3e 77a1 553f 603b 703f 6f12 eb3f
00000310: 3081 93bf 6459 d03e 3cc0 633e 3dbb 703f
00000320: d730 f3be b8f8 04bc b8cc 193e b7ee 9abf
00000330: f033 2e3e 14d1 1f3f ba6b d1be 2428 00c0
00000340: 404f e33d 9676 b2be 1cef de3e 1ff3 11be
00000350: 26fc 823e f88f 60bb 5839 a83f ab05 2e3f
00000360: 36b0 8dbe 0f46 0cbd 126b 81be c7d9 143e
00000370: be4d 3f3e 3509 1e3e 3bc3 a43d cd78 f3be
00000380: 183f 1dbe 3bfb 7a3e daac 3abf 2893 7fbd
00000390: c04d 10bd 77b4 3b3c dfc5 1bbe d976 6ebf
000003a0: 5b3f 8dbe c920 0fbf d448 93be 917b 76bf
000003b0: 601e 2ebf ea41 99be 8352 04be 309d 76be
000003c0: 2d95 47be a950 853e 3081 8b3e 28f3 bf3e
000003d0: 5fb7 08be f870 c13e f8c5 853d 263e 52bd
000003e0: 2638 d5bd 4b77 afbe 77be 6d40 e90b 093f
000003f0: 0c3a 71bf 7db2 c23e 4018 2c40 efe6 f13f
0.0274678 -0.0480291 0.0337278 0.0181724 -0.0412621 -0.0327499 0.0337607 -0.0453298
0.0250563 0.0530478 -0.0498068 0.0123718 0.00494715 -0.0265871 0.0414479 -0.0357
0.0208935 -0.0403001 0.0137718 -0.0108043 -0.0292124 -0.0191277 -0.00120963 -0.0229384
0.00818688 -0.0310032 0.017041 -0.00102601 -0.042461 0.0115486 0.0136531 0.0247322
0.0530149 0.0134348 0.0424477 -0.0471442 0.0471519 0.0273595 0.0473148 0.0384879
-0.0229177 0.0222817 0.0151092 0.00860129 0.00742143 0.0353463 0.0547923 -0.0112854
0.00868427 -0.0272578 -0.0901546 -0.607759 0.150429 0.650043 -0.204533 0.780219
0.310403 -0.566078 -0.0355791 -1.54614 0.960034 0.0506238 -0.0147291 0.0907454
0.118651 0.869865 0.64648 0.406803 -0.0138735 0.288191 0.186248 0.756442
-0.21494 0.917054 -1.13238 -1.30819 -0.632191 0.762123 0.00943292 -0.145608
0.107017 -0.941803 0.286655 -0.515734 0.694128 0.71426 0.442044 0.385765
-0.241494 -0.300036 0.852553 -0.156338 -0.776471 1.41583 -0.0727095 0.852688
0.106906 -0.277683 -0.162333 -0.11738 -2.63363 1.73831 0.428124 0.301071
0.576003 1.41153 -0.921733 0.99133 -0.14139 0.79499 0.633055 0.145863
0.0057529 -0.692817 -1.28821 0.510775 0.336516 1.39786 0.258157 -0.984293
0.0389227 0.937866 -0.109437 1.26063 1.69696 -0.0908751 0.819131 -0.377617
-0.0104573 -0.479061 0.0469598 0.677655 -0.334359 -0.0734992 1.17628 -0.125849
-0.552423 0.137819 0.691399 1.17006 1.10617 0.652238 -1.20291 -0.814026
-0.302477 1.33913 0.126626 -1.54245 0.205265 0.252633 5.73161 0.40946
0.744819 1.77222 1.20791 1.28044 0.201896 1.09682 -0.528383 1.44256
-0.468737 0.0498002 0.596457 -0.0838518 0.984098 -0.0621461 1.13241 0.788026
0.475507 0.627094 0.833308 1.09574 0.341813 1.26281 0.491061 0.536808
0.0524332 -0.0792138 0.907636 -0.299061 0.128248 1.78477 1.86525 0.701388
1.5549 -0.0816945 -0.164317 0.886271 -1.63309 0.988718 0.468286 -0.0100368
0.336662 0.834495 0.938406 1.8365 -1.15238 0.406932 0.222413 0.940357
-0.474982 -0.00811594 0.150195 -1.21041 0.17012 0.624284 -0.409025 -2.00245
0.110991 -0.348561 0.435418 -0.142529 0.25583 -0.00342655 1.31425 0.679774
-0.276735 -0.0342465 -0.25277 0.145362 0.18682 0.154332 0.0804505 -0.475531
-0.153561 0.245099 -0.7292 -0.0623962 -0.0352304 0.0114566 -0.152122 -0.931501
-0.275874 -0.559094 -0.287665 -0.962823 -0.680151 -0.299331 -0.129221 -0.240834
-0.194905 0.260381 0.27247 0.374902 -0.133512 0.377815 0.065319 -0.0513288
-0.104111 -0.342707 3.71475 0.535338 -0.942292 0.380268 2.68898 1.88986

Operation_3_Add_B f4 [50]
00000000: a94d a03f b532 e9bf ecf7 343f 8c6a 2d3f
00000010: 38fd 513b 9cc4 b4bf bbf2 39be 5b42 04c0
00000020: ed44 11bf 6e52 71be f17f bfbe 83d9 09bd
00000030: 2a1f 1a3f dbe0 64bf 8239 c2bf e7de b8bd
00000040: b054 d7be 6a84 6ebf 2ca1 86bd efac adbe
00000050: 29b0 40bf a4a5 8ebf 0dc7 13bf 55de b63e
00000060: ecdd f3bf a3e5 e03d ceaa 0f40 2a74 34c0
00000070: 0115 4ebe 9d80 9ebf 6c22 133e 548b e83d
00000080: f436 12bf 0a14 09bf b1f9 90bf e882 663f
00000090: d637 103f dd09 66be e140 90bf 9eb6 6ebf
000000a0: 9352 b8bf bf47 3dbf 71c9 55bf 8f36 c63e
000000b0: 35d2 b6bf b2a1 3fbf 3a02 98be 77f3 bcbf
000000c0: 3f90 b43e 300f 153f
1.25237 -1.82186 0.706908 0.677407 0.00320418 -1.41225 -0.18159 -2.06655
-0.567458 -0.235666 -0.374023 -0.0336547 0.602038 -0.894056 -1.51738 -0.0902689
-0.420568 -0.931708 -0.0657371 -0.33921 -0.752688 -1.11443 -0.577256 0.357165
-1.90521 0.109813 2.2448 -2.81959 -0.201252 -1.2383 0.143686 0.113547
-0.571151 -0.535462 -1.13262 0.900435 0.563352 -0.224647 -1.12698 -0.932474
-1.44002 -0.739376 -0.835105 0.387135 -1.42829 -0.748561 -0.296892 -1.47618
0.352663 0.582263

Operation_4_MatMul_W f4 [50, 50]
00000000: 8a05 02bf 137e 093e 2e44 5dbd a1bb e4bd
00000010: 3d0a 0b3f 245f 893e 0b1c 5a3d 506e db3d
00000020: 70ee 5fbe 8533 09bd d69c 4d3c efcb 943d
00000030: 44c1 ccbe 8e76 ac3e c42a f93c 2b31 bfbe
00000040: 4a7b 8bbf 3be4 a63e e6b0 1b3e 7724 07bb
00000050: 7fbc 27be 887f b0be 7c7b 073e 02af a2bb
00000060: 7973 a0be ca53 c6be 295f 303f 0eaa 68bc
00000070: 7363 4a3e 4c38 543d 1af9 dcbd e410 61be
00000080: 4b23 163e 41d8 e9bd 17f4 7e3e bea2 2bbf
00000090: 3517 8e3d b38a c83d 6029 a13d 9231 683d
000000a0: bcfb a9bb bed8 8bbe 4469 2fbe 71a9 2a3f
000000b0: e19a 2bbe db99 133d 25c8 6dbd f052 85bd
000000c0: ba2d 15bf 1e1b 21be ce71 e6be 59a3 e6bf
000000d0: dd39 bdbb c66f 023f 9790 873f c9c8 95bf
000000e0: 1685 413f dbc1 18bf cced c6be a4aa bd3f
000000f0: e319 a4bf c1e2 b4bf fe43 1640 3928 8140
00000100: 61a6 2d3e 1171 ebbe a59f f0be e8a4 efbe
00000110: 0820 bec0 f4c2 61bf eaeb 81be 30d8 b9bf
00000120: c991 26bf 2619 2bc0 c572 8f3f 2595 013f
00000130: 4a7c be3d a12c 3cbe 323d 03c0 55fb 383f
00000140: fef2 913e 43e2 fe3f 0000 84bf 56b7 96bf
00000150: 7190 d0be 325a 3140 350c 43bf 9eec 6e3f
00000160: 8ba4 11bf 0680 3abf ca16 693e 6ccb 34bf
00000170: 5261 e43f 7d05 b1bf 36c8 00c0 8e69 173d
00000180: da55 d4bf 2523 2940 64e9 b3bf 821b 29be
00000190: 58c5 dbbf 5ab8 24bf 75c5 313c ff41 b4be
000001a0: 96b1 61bf 272f 3ebf 707b 0a3f 43e2 fe3d
000001b0: 3204 d0be 5039 46bf d8d6 433f 7fa3 95be
000001c0: 1787 bebd 7a1a 603f f7c9 213e 4fcd 75bf
000001d0: 87dc 1c3f ac91 6dbe 601d 773e d21d f43e
000001e0: dff8 3a3d 003a e8bf 1345 38be bd18 82bf
000001f0: bed8 3bbe 00c9 243f 460b 103e 5fef be3f
00000200: 3b8f 3ebf 2444 7dbf f643 2cbf ccd1 e3be
00000210: 16f6 8cbf b02d cdbc daa8 5e3e 53e8 0c3f
00000220: 1091 22bf 1e54 923e d07e acbf 7a1c cebe
00000230: ed31 ac3c cc7e 4d3e 4cdd 25be 60e5 0e40
00000240: c976 8abf 61a7 083e d332 f2be 96d0 193f
00000250: ecbd a0be 9c8a acbf 21b0 92bf 48c2 4a3f
00000260: ac3b f13c b5c2 343e 2272 0abe fcc2 2bbe
00000270: 6501 37bf 713a 79be 9ecd 4fbd 47c7 1dbf
00000280: f67c 1dbf 2315 d6be 4331 bebd 25ca 3a3f
00000290: f661 fdbd fcfc d73e 0c05 fcbe 109f ea3c
000002a0: 6fd0 933d 2429 e1be 8b31 a53d fb5b 723e
000002b0: 7a89 b1be 986b b1bd 5a2d 903e cec4 943e
000002c0: cf09 ebbc ff58 14bf 27a0 9dbf 679a 643f
000002d0: be88 ce3e 6329 ba3e 2008 a83e ea58 f53e
000002e0: 26fb e7bd 255d 37bf 4d67 9fbf 57b1 103f
000002f0: 156f 84be 267e bbbc e763 08bd f889 a33e
00000300: 9aee 653e 35d2 92bf 8d46 123f d9b3 27be
00000310: 7fa4 783e 1c7c e9be 0b63 6b3e 6b10 463e
00000320: 21e7 4dbe 31d3 26c0 95b6 88bd 0664 b7be
00000330: 200d 373e 43ca c3bf 68cb 0d3f 7ff8 993e
00000340: 1f80 84be 05e0 5b3f 4a96 f3bd 0055 4cbf
00000350: 9cdb 543e f20c ca3e 5725 89be 0edc 2dbf
00000360: 1ee1 c43e 3aca 893e 98f9 b63e 29d0 bbbf
00000370: 34a0 5e3e 8d24 45bf 0074 a8be 2fc4 7a3e
00000380: 9756 3b3f 5fec fd3e 82a8 2bbe 5760 b0bf
00000390: 5dfa 4fbf e125 383f b16a 303e dd9a 20bf
000003a0: ff3f eebd 4b06 e0be 3351 283f ac36 bf3e
000003b0: 5f24 98bf 9945 9dbd 2ee5 18bf ef55 03bf
000003c0: f6d4 eabe c638 5abd b03d b73f c5fe c2bf
000003d0: 9a99 9dbf 98db f5be 0edb 6ebf dba2 04bf
000003e0: f38e 8bbf 19ff 2ebe fe43 de3f 6b27 3ebf
000003f0: 1cfa 3cbb 5fcf 2b3f 6b65 1240 08c8 23bf
-0.507897 0.13427 -0.0540201 -0.111686 0.543125 0.268304 0.0532494 0.107144
-0.218683 -0.0334964 0.0125496 0.0726546 -0.399912 0.336842 0.0304159 -0.373422
-1.0897 0.32596 0.152042 -0.00206211 -0.163805 -0.344723 0.132307 -0.00496471
-0.313381 -0.387358 0.688952 -0.0142007 0.197645 0.0518115 -0.107897 -0.219791
0.146619 -0.114182 0.248978 -0.670452 0.0693802 0.0979208 0.0786922 0.0566879
-0.00518748 -0.273138 -0.1713 0.666648 -0.167583 0.0360354 -0.0580522 -0.0650996
-0.582729 -0.15733 -0.450087 -1.80186 -0.00577472 0.509518 1.0591 -1.17019
0.755937 -0.596708 -0.388533 1.48177 -1.28204 -1.41317 2.3479 4.03616
0.16958 -0.459847 -0.469968 -0.468055 -5.94141 -0.881881 -0.253753 -1.45191
-0.650662 -2.67341 1.12069 0.506182 0.0930105 -0.183764 -2.05061 0.722585
0.285057 1.99128 -1.03125 -1.17747 -0.407352 2.77113 -0.761905 0.933298
-0.568917 -0.728516 0.227626 -0.706229 1.78422 -1.38298 -2.01222 0.0369659
-1.65887 2.64277 -1.40556 -0.165144 -1.71696 -0.643438 0.0108503 -0.352066
-0.881616 -0.742907 0.540946 0.124455 -0.406282 -0.774312 0.764997 -0.292263
-0.0930311 0.875404 0.157997 -0.960164 0.61274 -0.232001 0.241323 0.47679
0.0456475 -1.81427 -0.179951 -1.01638 -0.183444 0.643692 0.140668 1.49168
-0.744373 -0.989321 -0.672912 -0.44496 -1.10126 -0.0250462 0.217441 0.55042
-0.635026 0.285798 -1.34762 -0.402561 0.0210199 0.200679 -0.161977 2.23275
-1.08175 0.133451 -0.473044 0.600839 -0.313949 -1.34798 -1.146 0.792027
0.0294474 0.176524 -0.135201 -0.167736 -0.714865 -0.243387 -0.0507332 -0.616322
-0.615188 -0.41813 -0.0928674 0.729647 -0.123722 0.421852 -0.492226 0.0286403
0.0721749 -0.439767 0.0806609 0.236679 -0.346752 -0.086631 0.281596 0.290564
-0.0286912 -0.579483 -1.23145 0.892981 0.403387 0.363597 0.328187 0.479194
-0.113272 -0.716265 -1.24534 0.565206 -0.25866 -0.0228873 -0.0332984 0.319412
0.224543 -1.14704 0.571389 -0.163772 0.242815 -0.456025 0.22987 0.193422
-0.201077 -2.60664 -0.0667545 -0.358185 0.178761 -1.52961 0.553885 0.300724
-0.25879 0.858887 -0.118939 -0.798172 0.207869 0.39463 -0.267863 -0.679139
0.38453 0.269121 0.357373 -1.46729 0.217408 -0.770089 -0.32901 0.244889
0.73179 0.495944 -0.167635 -1.37794 -0.812414 0.719328 0.172282 -0.627363
-0.116333 -0.437548 0.657489 0.373464 -1.18861 -0.0767929 -0.597247 -0.51303
-0.458656 -0.0532768 1.43157 -1.5234 -1.23125 -0.480191 -0.93303 -0.51811
-1.0903 -0.170895 1.73645 -0.742789 -0.00288356 0.671133 2.28744 -0.639771

Operation_4_Add_B f4 [50]
00000000: bb61 55c0 8a1e 44bf 9bb1 43bd 7ea9 fb3f
00000010: e44e c1bf 1687 1bc0 93c6 d0bf 2237 bb3e
00000020: 0343 d63f 3b6e a8be 2428 3640 be67 2cbf
00000030: 658d 1ebf 11aa 20c0 b839 cabd ab04 49c0
00000040: 0f80 803e 2880 7e3f 618e 86bf 1e8a 86bf
00000050: af0b dfbd 04e2 3bc0 02d3 19be a6b8 3cc0
00000060: 7468 b73d f14b a13f cc97 0940 e564 0e3f
00000070: 7906 b5bf 7025 09c0 82b3 aa3d 36c9 e7be
00000080: 05f8 3a3f 82c9 c53e 207e 6e3e 59a3 8ebf
00000090: 2575 94c0 c230 883e b661 193d 376e 59bf
000000a0: 8e40 a73d 457f d0be 0534 8dbf 2f14 44bf
000000b0: 6132 893f 2366 1e3f 6501 8bbf bcab 833d
000000c0: ac38 853e 1e16 81c0
-3.33409 -0.766091 -0.0477768 1.96611 -1.51022 -2.43012 -1.63106 0.365655
1.67392 -0.328966 2.8462 -0.673458 -0.619345 -2.51038 -0.0987429 -3.14091
0.250977 0.994143 -1.05122 -1.05109 -0.108909 -2.93567 -0.150219 -2.94877
0.0895547 1.26013 2.14989 0.556227 -1.41426 -2.14291 0.0833502 -0.452707
0.730347 0.386303 0.232903 -1.11436 -4.6393 0.265997 0.0374467 -0.849338
0.0816661 -0.407221 -1.10315 -0.765933 1.07185 0.618746 -1.08598 0.0642924
0.260198 -4.03395

Operation_5_MatMul_W f4 [50, 50]
00000000: 058b e7bf 0806 20bf 2f98 09bd ad88 9abe
00000010: 8bfa bcbe e064 dbbe b54f 17be f6ed e43d
00000020: 9694 1a3b 2c9a 3ebe c2bd 32be 62b9 ca3c
00000030: a5a2 51be 6006 a3bd b0c7 fcbe 931a 42bf
00000040: f6b5 06bf 94bc 82bf 6c0a ecbe bc02 61bf
00000050: 0e16 6abf 2041 41bf 7520 9bbe 8ba4 2dbf
00000060: 0c57 97be 81eb 2abf 2861 1ebf c93c 12be
00000070: 7977 e4be 28fd 93bd b610 9c3e 6761 8b3f
00000080: 67c7 97bc 7ec9 063e bc3d e8bd 4791 75be
00000090: 5a89 84bd b681 7bbe 5c03 2740 8b4b aa3d
000000a0: 1c5f 9fbf de92 48bf d13e f6be f793 09bf
000000b0: e5ef 86be 4e4a 5ebb bf46 063f 4836 0bbf
000000c0: b7e6 b33c ce19 a13e 9df4 96bf dee6 6dbf
000000d0: 87f9 82be 5487 213d ef74 e7bb 98c2 03be
000000e0: 3c2e 023f 293f 393e 882d fd3e 5062 a13c
000000f0: 15c6 1abf 2f31 1ebf 74d3 f6be acad d8bd
00000100: 8597 a03e 14b2 033f 5d51 8a3e 7de9 cdbd
00000110: db38 3dbd 6728 323f 118e 493e 3d2a 6e3e
00000120: 5bea 88be 77bf 7abe eeb3 cabd 809a b2be
00000130: 4a9b b2be 3b71 113f 9c15 41bf 3bb1 b23d
00000140: bda9 6cbf 7104 793f 81ea 3f3e a404 883d
00000150: f129 883e 889d 2dbb babb c6be d7db 0a3f
00000160: 88ba a73f cf31 e03e 0210 1b3f d080 12bf
00000170: 0b5d e9bd 2481 063f 06da dd3e 1ff7 2d3e
00000180: 5e49 9abe 4e9b 71bc e04c 083f 1900 5a3e
00000190: 7fcf d93c 8389 7fbd 81e9 14bd 4d18 283c
000001a0: 4093 b33c 4496 1bbd 9c14 0bbd 1813 91bc
000001b0: 60ef d93c 9604 0dbd 69aa 27bc 6c8d b13b
000001c0: 0edc 01bd 453d ce3c 8de1 1b3d 7664 503a
000001d0: 1650 053c 5529 a23c 193b 61bb 9ece 153d
000001e0: dba8 a9bc a734 4c3d 8fd0 053d 44c9 1f3d
000001f0: 107d 52bc c470 ffbc 7446 af3c 86c6 133d
00000200: d0ac 363c 2332 273d 1443 0dbc d40d b53b
00000210: 3caa 153d f297 33ba 0177 8f3c 1595 e83c
00000220: f518 c0bc bb3c 42bc c01b 173d ed3e 8d3a
00000230: 8db9 c6bb dcda 80bb aa00 e93c 01eb 273c
00000240: 371e 87bc 709d 3a3d b3d6 0b3d 9225 ce3c
00000250: 1595 e8bc 1f85 2b3d 4df3 f63f 4e97 d1bf
00000260: 8c09 3b3d 8a07 6f3d 7bbd 4f3f 38f8 aabf
00000270: f2b5 133f 059c 9fbd c24d 063e 0f60 f13d
00000280: 9837 423d 0534 453f 7f4b 383f 52ef b13e
00000290: 0664 93bf f552 47bd d2ff 22be 126c a4be
000002a0: 1c7e 5b3f 622d f23f 9296 aa3f 1cb1 d63e
000002b0: 7171 283f 554d a83f 276b 24be ea07 113f
000002c0: 26c8 c83e 1093 b03d 26fb 3f3f b588 803e
000002d0: ff5b c13f 3142 90bf 62c0 a23d 3ae9 a53e
000002e0: f7f0 3b3d f642 c1be d098 75bf 7ced c9bd
000002f0: eeb1 d0bf ee7c 173f b7cf 36bf abb4 1d3f
00000300: b24b e4be 2ba4 803f aef5 c9bf 274c b8be
00000310: e526 5abe 6ff0 953f a6d4 9d3e 0a65 b1bd
00000320: 7a09 643d 0b46 ad3f 2a91 34be 0470 f3bd
00000330: 0630 a03d 8e1e 0f3e 8a00 073e b888 b93d
00000340: ea78 0ec0 535e bb3e 15e4 efbe b01d 143f
00000350: d0f2 e43e dc63 013f 7845 903f 27d8 a73e
00000360: 59df 48bf 4e9d 0fbf 39f0 ea3d 800c 553f
00000370: 4581 3ebf 19fe c33e 3971 833c 31eb 253e
00000380: 98c1 d83d f530 343c 0fed 67bf 4b93 9abe
00000390: b709 d73e c7c7 1dbd 2497 73c0 3aaf 2bc0
000003a0: 7490 913d 6364 39bf 724d 013e 5bd3 98bf
000003b0: 1d59 b93e f0fa 24bf a48c f83d 2c65 a5bf
000003c0: 6556 973e f2b0 a0be b6f3 45bf 82ca a8bf
000003d0: 7d40 04bf 95fb a33d d28c 0dc0 17d5 ca3e
000003e0: a86f 293e 3ee9 f43e dba2 0cc0 a12d 83bf
000003f0: 497f d4bc 0edd 94be b94c 52bd 9159 62bd
-1.80893 -0.625092 -0.0335924 -0.301824 -0.369099 -0.428504 -0.147765 0.111782
0.00235871 -0.186135 -0.174552 0.0247466 -0.204722 -0.079602 -0.493711 -0.758218
-0.526214 -1.02138 -0.461017 -0.878948 -0.914399 -0.7549 -0.302982 -0.678292
-0.295586 -0.667656 -0.61867 -0.14281 -0.446224 -0.0722602 0.304815 1.08891
-0.0185277 0.131628 -0.113399 -0.239812 -0.0647151 -0.245612 2.60958 0.0831519
-1.24509 -0.783491 -0.480948 -0.537414 -0.263549 -0.00339188 0.524517 -0.543797
0.0219606 0.31465 -1.17934 -0.929304 -0.25581 0.0394357 -0.0070635 -0.128672
0.508518 0.180905 0.494488 0.0197002 -0.604585 -0.617938 -0.482082 -0.1058
0.313656 0.514436 0.270152 -0.100543 -0.0461968 0.695929 0.196831 0.232583
-0.267413 -0.244871 -0.098976 -0.348835 -0.348841 0.568134 -0.754236 0.0872521
-0.924465 0.972724 0.187418 0.0664151 0.265945 -0.00264916 -0.388151 0.542417
1.31038 0.43788 0.605713 -0.572278 -0.113947 0.525408 0.433304 0.169888
-0.301341 -0.0147465 0.532423 0.212891 0.0265882 -0.062387 -0.0363555 0.0102597
0.0219208 -0.0379851 -0.0339552 -0.0177093 0.0266034 -0.0344282 -0.0102335 0.00541847
-0.031704 0.0251757 0.0380569 0.000794954 0.00813677 0.0197951 -0.00343675 0.036574
-0.0207104 0.0498549 0.0326696 0.0390103 -0.0128472 -0.0311817 0.0213959 0.036078
0.0111496 0.0408193 -0.00862195 0.00552533 0.0365393 -0.000685095 0.0175128 0.0283914
-0.0234494 -0.0118553 0.0368917 0.00107762 -0.0060646 -0.00393234 0.0284427 0.0102489
-0.0164939 0.0455603 0.0341403 0.0251644 -0.0283914 0.041875 1.9293 -1.63743
0.0456634 0.0583568 0.811485 -1.3357 0.576995 -0.0779343 0.131156 0.117859
0.0474163 0.770325 0.719902 0.347529 -1.15149 -0.0486631 -0.159179 -0.321137
0.857393 1.89201 1.33272 0.41932 0.657981 1.31486 -0.160565 0.566527
0.392152 0.086218 0.749926 0.251043 1.51062 -1.12702 0.0794685 0.324045
0.0458841 -0.377464 -0.959363 -0.0985975 -1.63043 0.59175 -0.714107 0.616038
-0.44589 1.00501 -1.57781 -0.359956 -0.213039 1.1714 0.308263 -0.0866185
0.0556731 1.3537 -0.176335 -0.118866 0.0782166 0.139765 0.131838 0.0905928
-2.22613 0.365954 -0.468537 0.578578 0.447165 0.50543 1.12712 0.327821
-0.784658 -0.560994 0.114716 0.832222 -0.74416 0.382798 0.0160452 0.16203
0.105838 0.010998 -0.905961 -0.301905 0.419996 -0.0385206 -3.8061 -2.68257
0.0710763 -0.724188 0.126272 -1.19395 0.362008 -0.644454 0.121362 -1.29215
0.295581 -0.31385 -0.77325 -1.31868 -0.516609 0.0800697 -2.21172 0.396157
0.165465 0.478342 -2.19744 -1.02483 -0.0259396 -0.290749 -0.0513427 -0.0552612

Operation_5_Add_B f4 [50]
00000000: 9d85 e940 9335 1840 4f58 863f 6c5d 4a3d
00000010: 2998 a13e b7b4 02c0 44fa b93f 968c 8d3d
00000020: 1361 8fbf a356 14bf dc63 9dbf e414 b93f
00000030: a65e 3b3f b60f c1be 4816 bcbf 9335 e2bf
00000040: c85d 74be ed9e 1440 05c0 76c0 f1d7 3ec0
00000050: e8c1 dd3f bb28 2abf 9ce1 a23f 4ad2 bd3f
00000060: 6c95 1ac0 965d 103f acc8 1cbf 0fd6 7fc0
00000070: ffb3 243b f44f 603f 791e 5e40 f701 7e40
00000080: 944f 0f3f 09e1 e5bf 4c4f 883d fab8 06c0
00000090: 9739 d9bf 020e cd3f 7fbc 0fc0 6154 bebf
000000a0: 1344 41c0 7042 0dc0 29cb 8c3f fed4 30c0
000000b0: 0053 e6bd 34a0 f63e fc54 293f b664 1dbf
000000c0: c1a8 c4bf 1d77 e63f
7.29756 2.37827 1.04957 0.0494055 0.315614 -2.04228 1.45295 0.0691158
-1.12015 -0.579447 -1.22961 1.44595 0.731913 -0.377073 -1.46943 -1.76726
-0.238639 2.3222 -3.85547 -2.98193 1.73248 -0.664684 1.27251 1.48298
-2.41537 0.563928 -0.612437 -3.99744 0.00251317 0.87622 3.47061 3.96887
0.559808 -1.79593 0.0665575 -2.10504 -1.69707 1.60199 -2.24588 -1.48695
-3.01978 -2.20718 1.09995 -2.763 -0.112463 0.481691 0.661453 -0.614818
-1.5364 1.80051

Operation_6_MatMul_W f4 [50, 50]
00000000: c6dc adbe c45f 43be 20f5 b23c 2ee5 2cbe
00000010: bd1d 85bf 030a 353e d3fb 21bc a84a 21bc
00000020: 6d3e 493d 958a 5cbd 425d 44be 7d59 ba3e
00000030: 5484 e5bb 94a2 55be b62f e83e 4582 a93c
00000040: efca 3ebe b1a2 063e cc62 02bd 67fc 81bd
00000050: 52dd 923c 9eb6 86be 4ff6 603d 9d12 a0be
00000060: f0f8 56bd b686 52bc d3dd 41bf cf87 62bd
00000070: 0e66 13bd 5819 323c 6e1f 983d c8ec 10bf
00000080: efb0 a4bc 512b b3bb d36f 7abd 412e d1bd
00000090: 3df7 19bd 8043 4dbc c39f 35bf 249f 72bd
000000a0: b24c d7be c068 873b 0074 88bf 9b1e d4be
000000b0: ce4c f6ba 1be6 15bd 72e9 10bb 4242 24bf
000000c0: 53cf 22be b54f 97bd 9643 833f fab4 eabd
000000d0: 6421 babc 98ff ab3d 0402 1dbe ef1b 7fbe
000000e0: 57b7 f6bb 97c1 bd3c f4f2 053d 144a 953c
000000f0: 8028 98be 3204 103e 366a 8f3c 40be 643e
00000100: 87dc c4be edfa bb3c 3793 8abc 6000 113f
00000110: 1129 97bc 2fe0 b5bd b6f4 aa3b 616f 62bc
00000120: 24c4 0b3d 8bc5 97be cdf5 c7bd 19f5 5abd
00000130: 09ff 06bf a375 04be a327 82bb 6183 6a3d
00000140: 9529 563f 9a95 cdbd 089f 9cbb 0b99 48bb
00000150: 9337 103e 92be 7f3c 992a 74bf 1505 35bd
00000160: 0f81 fbbe f5b2 373c cb5e 903d ff97 963d
00000170: c05b 2cbf 1574 ab3e 286a 533a a106 ddbc
00000180: 55cc 373d a395 37bf a419 0b3e 59da c93d
00000190: 9049 3a3f 3884 0bc1 d28e 9bbb c72b 103e
000001a0: 43aa 183e ffce 06be d306 86bd a08f f0bb
000001b0: 85cf 463e b493 1d3f 1ea8 e33e 355e 32c0
000001c0: c68a 2a3e af77 bf3f 7cb8 00c0 350b f43d
000001d0: f0bf c13f 6bf1 0f40 8e87 c63a aa9a 983f
000001e0: 0b3c 7c3d 1e1b ad3f be78 d0bb 146c 6d3c
000001f0: 86c9 c2c0 77e5 e9bc 374f dd3f ca89 fe3f
00000200: 91c0 17bc 84f1 173f 59dd c63f f7c7 8940
00000210: 33dc 803c 00d4 43bc 8b6c 2940 e3df 0d40
00000220: 7025 4740 a9a4 ee3d c993 d03f 9975 19ba
00000230: 60b0 1d40 3e5b 9f3e 488a 6c40 38a1 3640
00000240: 8b43 c73d 87c5 f03e 55f7 183f 03b2 933f
00000250: a307 7a3f a395 5b3e a451 f93e d6ad 0e3e
00000260: e0e6 833d ffaf 9a3e c555 19c0 4f74 413f
00000270: 199e cdbc 180c a9bd a76b 773d cb86 ad3e
00000280: 1b81 68be 5ea2 86bf fe0f 503d b8af b73f
00000290: fe81 023f 3f0c 433d 1f85 dbbf 164d 4dc0
000002a0: 39fb b9bc e756 a8be 9324 3e3b 2635 1c3f
000002b0: 0602 53bd b4b0 973f e99a 09bf 069c 05bd
000002c0: bd01 b63e c364 5abe d6a7 fcbd c93e 283e
000002d0: e926 a53f 5f99 af3e d7ff 74bd 5281 33bd
000002e0: aab7 aa3f d712 fe3f 7c7e 183f a8fe 15bf
000002f0: 448b 24c0 b92f 0ebc 5188 2ac0 f662 383e
00000300: 00e3 8f40 d50b 593d 795a 7ebc 5e3f 9e3d
00000310: cc44 113e 34ba 0540 5eec c73d 21ad d13e
00000320: d80d c33f c347 843f f584 05be 6726 10bf
00000330: f5f4 d13e 72bf c7bf 45e3 bf3c a511 333c
00000340: aed8 5fbe e944 12be 64e9 873f 5c04 763f
00000350: 5efb dd3c 0246 7f3f 516b da3f 62f2 2bbd
00000360: bcb3 4c40 96cf 6ec0 17d4 773d 478f 3bbf
00000370: ec4c 843b 7c9b aa3f 2c07 7f3d 4356 8f3e
00000380: 3bdf 35c0 6d7b 31bd 6e14 793f f5db ff3f
00000390: 9818 0b3e 6d01 013d 30b8 46bf 4a07 1940
000003a0: 29fe 39bc 4896 82bc bf82 14c0 72f9 973f
000003b0: 0e35 a73b cf4d 3bbe 5457 b6c0 6d74 8ebc
000003c0: b728 3140 f53f 2a3d 7d22 d7c0 2481 56be
000003d0: 001d c53b 3194 333e a60f adbe 22fd 3e40
000003e0: c156 e93e d28f ae3e d66e 3bc0 1214 2fbf
000003f0: 6423 703d 258f 8cbc 070a 6c3f 8391 0dbd
-0.339575 -0.190795 0.0218454 -0.168843 -1.03997 0.176796 -0.0098867 -0.00984446
0.0491318 -0.0538431 -0.191762 0.363964 -0.0070043 -0.208628 0.453489 0.020692
-0.186321 0.13148 -0.0318325 -0.0634697 0.0179278 -0.263112 0.0549224 -0.312642
-0.0524835 -0.0128495 -0.757291 -0.0553053 -0.035986 0.0108703 0.0742787 -0.566113
-0.0201039 -0.00546781 -0.0611418 -0.102139 -0.0375893 -0.0125283 -0.709469 -0.0592338
-0.420507 0.00413236 -1.06604 -0.414296 -0.00187912 -0.0365964 -0.00221118 -0.641636
-0.158994 -0.0738825 1.0255 -0.114603 -0.022721 0.0839836 -0.153328 -0.24913
-0.00752918 0.0231636 0.0327024 0.0182238 -0.297184 0.140641 0.0175067 0.223382
-0.384495 0.0229468 -0.0169159 0.566412 -0.0184522 -0.0888065 0.00521716 -0.0138205
0.0341226 -0.296429 -0.0976368 -0.0534564 -0.527329 -0.129355 -0.00397201 0.0572542
0.836572 -0.100383 -0.0047797 -0.00306088 0.140837 0.0156094 -0.953775 -0.0441943
-0.491219 0.0112121 0.0704933 0.0735321 -0.673275 0.33487 0.000806483 -0.0269807
0.0448726 -0.717127 0.13584 0.098561 0.727685 -8.71978 -0.00474725 0.140792
0.149087 -0.131649 -0.0654427 -0.00734134 0.194151 0.615535 0.444642 -2.787
0.166545 1.49584 -2.01126 0.119162 1.51367 2.24911 0.00151466 1.19222
0.0615807 1.35239 -0.00636205 0.0144911 -6.0871 -0.0285518 1.72898 1.98858
-0.00926222 0.593529 1.55363 4.30566 0.01573 -0.0119524 2.64725 2.21679
3.11166 0.116525 1.62951 -0.000585401 2.46389 0.311243 3.69594 2.85359
0.0972968 0.470257 0.597524 1.15387 0.976679 0.214438 0.486951 0.139335
0.0644052 0.302124 -2.39586 0.755681 -0.0250998 -0.0825426 0.0604054 0.338919
-0.227055 -1.05183 0.0507965 1.43505 0.509796 0.0476191 -1.715 -3.20783
-0.0227028 -0.328788 0.00290135 0.610186 -0.0515156 1.18508 -0.53752 -0.0326195
0.355482 -0.213275 -0.123367 0.164302 1.29025 0.342967 -0.0598143 -0.0438245
1.33373 1.98495 0.59568 -0.585917 -2.571 -0.00867837 -2.66457 0.180065
4.49646 0.0529898 -0.0155245 0.0772693 0.141864 2.08949 0.0976188 0.409524
1.52386 1.03344 -0.13039 -0.563086 0.410072 -1.56053 0.0234238 0.0109295
-0.2186 -0.142841 1.06181 0.961004 0.0270974 0.997162 1.7064 -0.0419792
3.19847 -3.73142 0.060505 -0.732655 0.00403749 1.33287 0.0622627 0.279955
-2.84175 -0.0433306 0.972968 1.9989 0.135836 0.0314955 -0.776248 2.39107
-0.0113521 -0.0159408 -2.32048 1.1873 0.00510276 -0.182914 -5.69816 -0.0173895
2.76811 0.0415649 -6.72296 -0.209477 0.00601542 0.17537 -0.33801 2.9842
0.45574 0.340941 -2.92864 -0.6839 0.0586275 -0.0171581 0.922028 -0.0345626

Operation_6_Add_B f4 [50]
00000000: 33f9 a1c0 9eb5 83c0 6614 2b3e 97e2 c2be
00000010: bccb bbc0 f4a6 2640 4678 073f 11e4 a83e
00000020: 5664 543e 3316 f9bf 4a0c 56c0 d673 4440
00000030: 139e e83e 5d52 213f 3fc6 a03f 876d bfbf
00000040: fe65 bdc0 d460 3640 3848 703f 0326 d0bf
00000050: 707d f83e 247f 93c0 53b3 3b3f ecdd b6c0
00000060: 7bbd 0940 057b 02bd c442 5dc0 b150 c4c0
00000070: f94e 343f 2d0b 76bf 1288 dac0 db50 92c0
00000080: 2ead fe3e 8d49 1abd c6e1 72c0 e09c b1bf
00000090: 2783 9ac0 0c76 1fbf 97e2 b23f b78a 0fbd
000000a0: 76c3 9ac0 abec 5fbf bed9 5cc0 f298 2bc0
000000b0: a241 f23e feef 98be 1895 94bf d044 8ac0
000000c0: 1153 4ac0 cdaf cabf
-5.06167 -4.11592 0.16707 -0.380635 -5.86862 2.60394 0.529179 0.329865
0.207414 -1.94599 -3.3445 3.06957 0.454331 0.630163 1.25605 -1.49553
-5.9187 2.84966 0.938602 -1.62616 0.485332 -4.60927 0.733205 -5.71459
2.15219 -0.0318556 -3.4572 -6.13485 0.70433 -0.961108 -6.82911 -4.57237
0.497415 -0.0376678 -3.79503 -1.3876 -4.82851 -0.622895 1.39754 -0.0350444
-4.83636 -0.874705 -3.45079 -2.68121 0.473157 -0.298706 -1.1608 -4.3209
-3.16132 -1.58349

linear_7_MatMul_W f4 [50, 5]
00000000: 7922 c63b 5a70 b3ba 034a 28ba d194 1d3b
00000010: 74d0 54ba c7e7 5f3c 0ef7 d8b9 cfc0 83b7
00000020: bc61 f939 7d2a b6b9 3a96 523b 61f2 38ba
00000030: 3b88 bebb 5295 5b3c 3cb3 b0bb f2a7 573c
00000040: e8cf 81b9 64ea 593a af78 a3b9 5443 c739
00000050: 6723 9d3b 4931 0cb9 9829 3f3a 625e e238
00000060: 5326 4d39 c223 dcbb 3a12 9039 eed6 d9b8
00000070: 5c1e 4e3a 8255 a9b9 4722 30bb 6383 013c
00000080: deb9 45bb 6cc6 b33c 784c 55bb bd55 57bc
00000090: d88d 0c3c 6d12 cdbb f5c9 803c 06f9 93bb
000000a0: be81 0f3c 8c34 8eba f452 acb9 d7c6 463a
000000b0: 6fa6 cfb8 61ce 03bc 8285 dd3b 96a0 b3bb
000000c0: 6ed7 703c 9b53 6ebc a58c b03b d76d ed38
000000d0: 0d44 22ba f1ce 0db9 0974 c33a 8edf 04bc
000000e0: 7cbb a13a ed88 233a e81a a5b9 36b0 e3b9
000000f0: 6ca8 c13b 31d5 273c 694f cd3b 2616 3e3b
00000100: 34de b13b 473b 6e3c 23e4 09ba be17 143a
00000110: d900 1a3a da87 a33a 370b 45bc 3845 2a3a
00000120: d016 843a c9f1 32ba 0f7c 903a ea1c 283c
00000130: 577c 833c e519 a8ba e972 143b 02e3 8dba
00000140: 7e79 d83b 3939 59ba d4ba 84b9 f4b2 9e37
00000150: 9c0b 8638 7b0d e6bb 6331 dd39 7988 1c38
00000160: 0a6a de36 c9d3 0739 c59b ad3b 5f00 2b3c
00000170: 2c1c 14bb 39a3 1ebc 21f4 3fba 6a56 2eba
00000180: 9371 0ebc 017a 8ebb e3c2 85bb 8186 6dbb
00000190: 01a5 423b 9a83 b53b b742 583c 4060 2f3c
000001a0: 6abd 5f3c f0df 5d3b 49eb 98ba 62cf 1cba
000001b0: 2f47 633a 165c ffb9 9ee3 ad3c 4f76 46ba
000001c0: ef5c 6a39 aace 813a fe01 34b7 6ae0 a23b
000001d0: 96f3 8db9 0857 073a 2d3b 96b8 6438 853a
000001e0: 369c 68bb fb7c 6db8 df41 a739 baad 1739
000001f0: fd39 2cb9 1fc0 bd3c 6e8b f2bc d9a1 503c
00000200: 8777 ef3c cb77 3a3c 21b7 153c ff1f 94b9
00000210: 4a5b 193a a195 a4b9 497a 3d3a 7868 123c
00000220: 4c89 f438 bed9 7dba eb69 8f3a 1e96 9b3a
00000230: d7af c7bb 6527 6eba 0add c2ba 672e aaba
00000240: 4acf f4ba 5386 1c3c a33c 523b 424d 843b
00000250: e696 563c 1b0f 783b 5091 fd3b 2114 e7ba
00000260: aa9b 813a 1704 9938 b771 933a 1d67 c73b
00000270: 8fab b7b9 3e3f b739 5998 a939 ed7b 033a
00000280: 74d9 e5b9 275e 2f3c d6cf d53b 61cf ec3b
00000290: 6a64 1f3c c48d c03c 3d02 49bc c38b 13bc
000002a0: f9ee debb 8539 66bc ba5f 2a3c a0ab 41ba
000002b0: 13ab d43a 97fd 353a 9b8e 043b 1fd6 003c
000002c0: 079c 84ba 6dd2 7d3a 7240 fcb8 08ac a03a
000002d0: 2bd5 aa3b 1c54 c4b9 18f6 8b3a c034 6eba
000002e0: 0af7 f539 4f52 2a3c c091 653c 69a5 353c
000002f0: 5d3c 723c a2d9 503c 32f5 c6bb 2b68 7f39
00000300: 14e0 22b9 cf06 55b9 2254 24b9 1c4d 643c
00000310: 00b2 0b3d ccd0 f8bc f5db b2bc 050b b33a
00000320: cc4e 543b 03a3 0bba 3804 3038 5034 343a
00000330: bf26 2d3a 81e8 0c34 ac26 21bb e6eb b23c
00000340: 495a f9ba c787 b43c 6517 b13b e167 5db9
00000350: 9fb1 ed39 252d 423a 1999 c439 4cd8 063c
00000360: c01e 3d39 1e17 933a 53cf 0239 c890 583a
00000370: cccd bb3a b4fd 50bb d351 a93c 4f3d b5bb
00000380: 6e0e bc3c ba41 3c3b 1d7d 823c 7919 6a3c
00000390: c03d 4f3c df20 353c 800a 6c3c 3adb 6d3c
000003a0: a821 853c 52a2 213b 7d3b 0d3c 545a bd3b
000003b0: 93be f7b9 5341 d839 4233 563a cfa5 2b39
000003c0: e65f 643b 8ac8 0f3c a2b4 e6b9 e3db 1e3c
000003d0: 08c8 fa3a 1699 8a3c 7f74 c13b bdf1 ff3b
000003e0: 288e 0d3c d360 3f3c
0.00604659 -0.00136901 -0.000641972 0.0024045 -0.000811822 0.0136661 -0.000413828 -1.57062e-05
0.000475658 -0.000347454 0.0032133 -0.000705516 -0.00581458 0.0134023 -0.00539246 0.0131626
-0.000247597 0.000831282 -0.000311797 0.000380064 0.00479548 -0.000133698 0.000729227 0.000107941
0.000195646 -0.00671813 0.000274794 -0.000103874 0.00078628 -0.000322979 -0.00268759 0.00790486
-0.00301706 0.0219452 -0.00325468 -0.013143 0.00857874 -0.0062583 0.0157213 -0.00451577
0.00875896 -0.00108494 -0.000328682 0.000758273 -9.90153e-05 -0.00804481 0.0067603 -0.00548179
0.0146998 -0.0145463 0.00538786 0.000113215 -0.000618995 -0.000135239 0.00149119 -0.00810994
0.00123392 0.000623836 -0.000314913 -0.000434281 0.00590997 0.0102437 0.00626557 0.00290049
0.0054281 0.0145405 -0.000526013 0.000564929 0.000587476 0.00124764 -0.0120266 0.00064953
0.00100776 -0.000682619 0.00110233 0.0102608 0.0160505 -0.00128251 0.00226515 -0.00108251
0.00660628 -0.000828642 -0.000253162 1.89184e-05 6.39178e-05 -0.00702065 0.000421892 3.73204e-05
6.62846e-06 0.000129535 0.00529811 0.0104371 -0.00225998 -0.00968247 -0.000732245 -0.000665045
-0.00869407 -0.00434804 -0.00408207 -0.00362435 0.00297004 0.00553937 0.0131995 0.0107041
0.013656 0.00338554 -0.00116668 -0.000598183 0.000866997 -0.00048706 0.0212267 -0.000757073
0.000223506 0.000990351 -1.07293e-05 0.0049706 -0.000270751 0.000516281 -7.16358e-05 0.00101639
-0.00354935 -5.66216e-05 0.000319018 0.000144652 -0.000164248 0.0231629 -0.0296075 0.0127339
0.0292318 0.0113811 0.0091379 -0.000282526 0.000585009 -0.00031392 0.0007228 0.00893604
0.000116604 -0.000968363 0.00109416 0.00118703 -0.00609396 -0.000908485 -0.00148669 -0.00129838
-0.00186775 0.00955351 0.00320796 0.00403753 0.0130975 0.00378508 0.00773827 -0.00176299
0.000988831 7.29637e-05 0.00112491 0.00608529 -0.000350323 0.000349516 0.000323477 0.000501572
-0.000438403 0.0107036 0.00652502 0.00722687 0.00972853 0.0235051 -0.0122686 -0.00900549
-0.00680339 -0.0140518 0.0103988 -0.000738794 0.00162253 0.000694239 0.00202266 0.00786355
-0.00101173 0.000968254 -0.000120283 0.00122583 0.0052134 -0.000374467 0.00106782 -0.000908684
0.000469141 0.0103956 0.0140118 0.0110868 0.0147849 0.0127472 -0.00607171 0.000243575
-0.00015533 -0.000203158 -0.000156716 0.0139344 0.0341053 -0.030373 -0.0218334 0.00136599
0.00323956 -0.000532672 4.19656e-05 0.000687425 0.00066052 1.31231e-07 -0.00245897 0.021841
-0.00190241 0.0220374 0.0054044 -0.000211149 0.000453365 0.000740724 0.000374981 0.00823028
0.000180359 0.00112221 0.00012475 0.000826132 0.00143283 -0.00318895 0.0206689 -0.00553099
0.0229561 0.00287257 0.0159288 0.0142883 0.012649 0.0110552 0.0144068 0.0145176
0.0162514 0.00246634 0.00862014 0.00577859 -0.000472535 0.000412474 0.000817109 0.000163696
0.00348472 0.00877584 -0.000440036 0.00969598 0.00191331 0.0169187 0.00590378 0.0078108
0.00863985 0.0116808

linear_7_Add_B f4 [5]
00000000: 1978 89bc e36e 90bc 5183 a93c 3cf8 89bc
00000010: 9302 a63c
-0.0167809 -0.017631 0.0206925 -0.016842 0.0202649
