resources/onnx/certificate_and_controller_mandal.onnx (onnx, 11751 bytes, 13 tensors)

model_A.linear_relu_stack.1.weight f4 [20, 4]
0.8606022 -1.4546665 -0.2704241 -0.1569046 -0.28326 0.28388986 -0.80092883 -0.13178906
0.22604144 0.12574211 -0.73059344 -0.3871521 0.38499907 -0.10850612 0.8217245 -0.457379
0.689592 0.9946243 -0.017205931 0.25235894 -0.62811273 -1.1003445 0.05325531 -0.30688617
0.3823836 -0.1155147 -0.31044507 -0.82231265 -0.49586585 0.05295453 1.2830268 0.74247074
-0.026633952 0.7601019 -1.0638113 -0.3069335 -0.079450905 1.2525861 -0.046961322 0.3474657
-0.21142915 0.2873038 -0.7207501 0.8430241 1.3972855 0.04720845 0.013497244 -0.093595326
0.43600878 -0.5873687 -0.38218844 0.9004914 -0.15404014 -0.4521414 -0.86057824 -0.4405356
0.3812906 -0.29688805 0.3825398 1.1632234 0.18351287 0.2948297 0.79394275 -0.7229565
0.76405126 0.73956895 0.08226403 -0.64730847 -0.77840465 0.8016179 0.75976944 -0.6397824
0.50062424 -0.9134056 -0.9257792 -0.32361177 -1.4290599 -0.20807141 -0.13199857 0.19379729
00000000: 6d50 5c3f 8332 babf 0775 8abe 99ab 20be
00000010: 7407 91be 035a 913e ac09 4dbf b6f3 06be
00000020: 6877 673e 8ac2 003e 2c08 3bbf cd38 c6be
00000030: 991e c53e 7538 debd 895c 523f 952d eabe
00000040: 1a89 303f b39f 7e3f 74f3 8cbc 3135 813e
00000050: ffcb 20bf 17d8 8cbf 3d22 5a3d 2f20 9dbe
00000060: c9c7 c33e f992 ecbd a8f2 9ebe 1583 52bf
00000070: 21e2 fdbe d9e6 583d 393a a43f 9012 3e3f
00000080: 722f dabc 0a96 423f f82a 88bf 6326 9dbe
00000090: 28b7 a2bd be54 a03f 845a 40bd 06e7 b13e
000000a0: e280 58be 7c19 933e 1483 38bf 6dd0 573f
000000b0: 40da b23f a65d 413d 8b23 5d3c e8ae bfbd
000000c0: 8b3c df3e cc5d 16bf 34ae c3be 9b86 663f
000000d0: b3bc 1dbe 147f e7be db4e 5cbf e28d e1be
000000e0: 8638 c33e b601 98be 42dc c33e 81e4 943f
000000f0: ccea 3b3e ebf3 963e d53f 4b3f ad13 39bf
00000100: dd98 433f 6454 3d3f 0b7a a83d 02b6 25bf
00000110: 8745 47bf d536 4d3f 4080 423f c8c8 23bf
00000120: e928 003f f3d4 69bf deff 6cbf 71b0 a5be
00000130: 6feb b6bf ac10 55be a22a 07be cc72 463e

model_A.linear_relu_stack.1.bias f4 [20]
0.2493609 0.31095165 0.14889362 0.36349788 0.17513928 0.052941926 0.22037546 -0.10492852
-0.039355952 0.06441463 0.40342635 0.24285164 -0.28182945 -0.006443575 0.19651411 0.28245485
-0.11350652 0.2408218 0.03979779 0.19372559
00000000: 7758 7f3e 0e35 9f3e 9277 183e 651c ba3e
00000010: b657 333e a2d9 583d 1baa 613e c4e4 d6bd
00000020: b533 21bd d1eb 833d e68d ce3e 1aae 783e
00000030: f34b 90be a024 d3bb ff3a 493e ec9d 903e
00000040: 1b76 e8bd fd99 763e 0203 233d 0060 463e

model_A.linear_relu_stack.3.weight f4 [20, 20]
-0.45923597 0.52386236 0.024033308 -0.097162746 -0.29684037 0.18880388 0.0011083643 -0.5668601
0.070229426 -0.32883108 0.051839694 -0.91817814 0.1103868 0.59995246 0.27249283 -0.1054613
-0.4008743 0.42393762 -0.48214558 0.2532088 0.31345204 -0.32192734 -0.2107796 0.17586665
0.5712025 -0.12716767 -0.019320574 0.49772835 -0.4673058 0.059960663 0.31456444 0.49654993
0.07848527 -0.31440687 0.18485276 0.17220806 -0.3308958 0.26293507 -0.18142049 -0.14849755
0.066949934 -0.24905963 0.09779575 0.040774323 0.40022084 -0.10557613 0.23871723 0.40207136
-0.32327855 0.25954086 0.0040903655 0.04855256 0.36563495 -0.46606863 0.3661118 -0.5279204
0.058979843 -0.195142 -0.07270876 0.069953226 -0.34778515 0.34368733 0.39446145 0.14986892
0.08402722 -0.4256255 0.2215963 -0.032585356 0.060406514 0.08363009 0.5565725 -0.1670935
-0.22469711 -0.17351086 0.015019815 -0.2175382 0.013809664 0.18325956 0.04219835 0.36892697
0.43489167 -0.17445995 -0.072021544 0.7164927 -0.2083451 0.37672776 0.2660768 -0.17529029
0.089497715 -0.39304215 -0.03902862 0.13258886 -0.12623475 -0.014934652 0.13964355 0.25599492
-0.114277646 0.105086364 0.25099194 -0.045251917 0.32446542 0.51784897 0.049084134 0.14563517
0.28370067 -0.3423719 -0.2730816 -0.09154847 -0.18540531 0.22009018 0.42688534 -0.056837697
0.05501638 0.07404952 0.03851671 -0.3724618 0.013525787 0.20368014 -0.06382713 0.7339362
0.49709755 0.0014017104 -0.049443483 0.0145408455 -0.2366166 -0.04134769 0.113141544 0.08066923
0.56747997 0.090706356 -0.2321 -0.32780218 -0.1046994 0.11184832 0.080149435 -0.059438437
0.41981554 0.431641 0.21836077 -0.06421796 -0.12955011 -0.011181613 0.41360483 0.042947024
-0.14557648 -0.082876064 -0.11708803 0.12650852 0.321432 0.24691336 0.47921807 -0.21478342
0.5317375 0.089881055 -0.07427427 -0.35708863 0.03157756 -0.20394045 -0.21732295 0.1199056
-0.23344213 0.43851018 0.19119471 -0.22243834 0.3141183 -0.21944128 0.14172556 -0.35335517
-0.43174556 0.05744515 0.12593004 0.15710072 -0.18861108 -0.17054527 -0.11088621 0.47975722
-0.08292694 -0.036811695 -0.11089531 -0.8131221 0.33903518 0.54162556 0.18207714 -0.025511136
0.1615112 0.53018886 0.05605541 -0.35726973 -0.058235187 0.08865337 0.5669822 0.0017682893
0.302929 0.4353631 -0.28706706 0.12505317 -0.18158938 0.2657864 -0.034991425 0.39055258
-0.16854803 0.45267677 -0.14071073 -0.008717231 0.2267074 -0.3587677 0.23494425 -0.49132124
0.05651427 0.1321919 -0.112493135 -0.06925645 -0.057825875 -0.21824943 -0.024445223 0.17890896
-0.42642143 0.07137859 -0.25490186 -0.5492691 0.41304168 0.22572649 0.16095182 0.53459996
0.06735525 0.32959342 0.18646249 -0.016388804 -0.0102755735 -0.6899824 -0.19832362 0.19713293
0.032295585 -0.21409138 -0.025206571 0.14807141 0.3498783 -0.23889244 0.26550263 -0.12100659
0.011380755 -0.11399115 -0.118879296 -0.19503626 0.32615855 -0.028850576 0.16382772 0.038712822
0.0030624378 0.65027404 0.8792595 -0.18607685 0.38204908 0.36621368 0.28518626 -0.14305463
00000000: fa20 ebbe d81b 063f 80e1 c43c 43fd c6bd
00000010: 76fb 97be ce55 413e 8946 913a be1d 11bf
00000020: 72d4 8f3d 8c5c a8be dc55 543d b90d 6bbf
00000030: 7912 e23d 7c96 193f 2e84 8b3e 18fc d7bd
00000040: 653f cdbe 5a0e d93e c9db f6be 95a4 813e
00000050: c97c a03e a9d3 a4be 9cd6 57be 6316 343e
00000060: 543a 123f 3e38 02be 2e46 9ebc 40d6 fe3e
00000070: b542 efbe 5099 753d 970e a13e cb3b fe3e
00000080: e3bc a03d f0f9 a0be 0b4a 3d3e 4f57 303e
00000090: 2d6b a9be 6d9f 863e 4bc6 39be be0f 18be
000000a0: 0c1d 893d 7d09 7fbe 2349 c83d fa02 273d
000000b0: bfe9 cc3e 4c38 d8bd 4a72 743e 4cdc cd3e
000000c0: c484 a5be 8ae2 843e 7908 863b 0ddf 463d
000000d0: 8134 bb3e 8ca0 eebe 0173 bb3e cb25 07bf
000000e0: d994 713d 4ed3 47be 55e8 94bd a343 8f3d
000000f0: e510 b2be c9f7 af3e daf6 c93e 3d77 193e
00000100: 7716 ac3d 96eb d9be 24ea 623e 3978 05bd
00000110: d26c 773d 4146 ab3d 897b 0e3f 8f1a 2bbe
00000120: 0017 66be d5ac 31be ac15 763c 55c2 5ebe
00000130: ee41 623c 65a8 3b3e 2dd8 2c3d ffe3 bc3e
00000140: 1faa de3e a1a5 32be 0880 93bd 116c 373f
00000150: 6b58 55be 76e2 c03e 383b 883e 4c7f 33be
00000160: 944a b73d d23c c9be 79dc 1fbd 60c5 073e
00000170: af43 01be 78b0 74bc b8fe 0e3e c411 833e
00000180: 660a eabd 8537 d73d 0482 803e 135a 39bd
00000190: 5520 a63e c091 043f 720c 493d 6321 153e
000001a0: 3741 913e 5f4b afbe 5ad1 8bbe c47d bbbd
000001b0: e4da 3dbe 525f 613e b790 da3e a5ce 68bd
000001c0: db58 613d 46a7 973d b3c3 1d3d 50b3 bebe
000001d0: 439b 5d3c 8791 503e ccb7 82bd 3ee3 3b3f
000001e0: 9283 fe3e 99b9 b73a 4085 4abd ba3c 6e3c
000001f0: 9f4b 72be 325c 29bd c1b6 e73d e935 a53d
00000200: 5e46 113f 41c4 b93d 9fab 6dbe b0d5 a7be
00000210: a46c d6bd bb10 e53d 6325 a43d b875 73bd
00000220: 10f2 d63e 0d00 dd3e f799 5f3e b584 83bd
00000230: c9a8 04be 1633 37bc 03c4 d33e 38e9 2f3d
00000240: 0012 15be edba a9bd d9cb efbd 738b 013e
00000250: bc92 a43e dbd6 7c3e 125c f53e 2ff0 5bbe
00000260: f31f 083f 8f13 b83d 1c1d 98bd 52d4 b6be
00000270: 7957 013d c4d5 50be e889 5ebe 1191 f53d
00000280: 740b 6fbe 6884 e03e 8cc8 433e e0c6 63be
00000290: 1dd4 a03e 37b5 60be 8120 113e f8ea b4be
000002a0: c10d ddbe 9b4b 6b3d cef3 003e 03df 203e
000002b0: 4323 41be 6ba3 2ebe 4f18 e3bd bda2 f53e
000002c0: 99d5 a9bd dcc7 16bd 151d e3bd c528 50bf
000002d0: 0596 ad3e f9a7 0a3f 6e72 3a3e bbfc d0bc
000002e0: 3163 253e 75ba 073f 5c9a 653d 0fec b6be
000002f0: 0588 6ebd e68f b53d bf25 113f f1c5 e73a
00000300: 8319 9b3e eae7 de3e 74fa 92be f00d 003e
00000310: 91f2 39be 2815 883e 2b53 0fbd 82f6 c73e
00000320: db97 2cbe 40c5 e73e 7916 10be b8d2 0ebc
00000330: fc25 683e 66b0 b7be 3a95 703e 758e fbbe
00000340: 827b 673d 505d 073e cd62 e6bd 53d6 8dbd
00000350: d3da 6cbd c77c 5fbe 5941 c8bc e933 373e
00000360: e953 dabe f02e 923d 7f82 82be e69c 0cbf
00000370: 337a d33e d824 673e 8ed0 243e 8bdb 083f
00000380: 8df1 893d 78c0 a83e 06f0 3e3e d041 86bc
00000390: e15a 28bc b0a2 30bf 5915 4bbe 37dd 493e
000003a0: 6048 043d c53a 5bbe 037e cebc 08a0 173e
000003b0: 4023 b33e 38a0 74be f6ef 873e 4ed2 f7bd
000003c0: 5976 3a3c 3174 e9bd fd76 f3bd 96b7 47be
000003d0: 41fe a63e 0b58 ecbc 74c2 273e 5691 1e3d
000003e0: 2eb3 483b 5c78 263f 2717 613f ee8a 3ebe
000003f0: f09b c33e 5c80 bb3e ef03 923e ea7c 12be

model_A.linear_relu_stack.3.bias f4 [20]
0.27760422 0.29751763 0.24866463 0.09545609 0.24746735 0.15804128 0.22671832 0.14173768
0.08697791 0.11468216 0.06942079 0.20575118 0.18746506 0.18203455 0.17213832 0.09320976
0.27099875 0.1957713 0.16770533 0.2616456
00000000: 2422 8e3e 3b54 983e f1a1 7e3e 7c7e c33d
00000010: 1568 7d3e 93d5 213e d928 683e af23 113e
00000020: 7921 b23d 7bde ea3d 7d2c 8e3d 70b0 523e
00000030: d7f6 3f3e 4467 3a3e 0745 303e c2e4 be3d
00000040: 59c0 8a3e 4678 483e f2ba 2b3e 69f6 853e

model_A.linear_relu_stack.5.weight f4 [4, 20]
0.6323278 -0.1969079 -0.12857404 0.12259869 -0.051038556 0.16113895 0.015036396 0.12407986
-0.10256513 0.15417181 0.030033924 -0.10465836 0.13826437 0.11746409 0.21189438 0.13580647
-0.2426644 -0.03619128 0.0050239125 -0.081181005 0.18055671 -0.14568277 -0.13116738 -0.0100004
-0.112274006 -0.040027343 -0.14302592 -0.002063143 -0.07774386 -0.058239043 -0.085938886 -0.1220875
-0.08454421 -0.06497526 -0.10983834 -0.04520691 -0.16084869 -0.0883182 -0.14490665 -0.17770259
0.31096655 -0.13556539 -0.16928045 -0.067536555 0.1608909 -0.107976206 0.13624977 -0.13646658
-0.10998937 0.002135809 -0.081482604 0.15360919 -0.16149046 0.09845709 0.20718472 -0.053537905
-0.061081167 0.19021185 0.15965213 -0.069049135 0.0856623 -0.21803154 -0.13436991 -0.00528069
-0.17578945 -0.15371127 -0.13777927 -0.1041536 -0.049088094 -0.09644069 -0.10820256 -0.12849377
-0.15492816 -0.032947082 -0.12816109 -0.0068781916 -0.3206679 -0.15104832 -0.14085129 -0.24923134
00000000: 3ce0 213f 39a2 49be eaa8 03be 0615 fb3d
00000010: ce0d 51bd 9c01 253e 375b 763c 951d fe3d
00000020: ab0d d2bd 37df 1d3e b409 f63c 1f57 d6bd
00000030: 2d95 0d3e 0391 f03d d7fa 583e da10 0b3e
00000040: 047d 78be 4f3d 14bd a29f a43b 3a42 a6bd
00000050: dce3 383e dd2d 15be be50 06be b8d8 23bc
00000060: eaef e5bd b6f3 23bd 6375 12be cc35 07bb
00000070: 2c38 9fbd 108c 6ebd ba00 b0bd 0309 fabd
00000080: 8425 adbd c011 85bd ecf2 e0bd e22a 39bd
00000090: 85b5 24be 2ce0 b4bd 6962 14be abf7 35be
000000a0: 0237 9f3e a7d1 0abe db57 2dbe 9b50 8abd
000000b0: 96c0 243e a122 ddbd 0f85 0b3e e5bd 0bbe
000000c0: 1b42 e1bd eef8 0b3b 5ae0 a6bd ba4b 1d3e
000000d0: c15d 25be dfa3 c93d 3b28 543e 904a 5bbd
000000e0: 3f30 7abd e5c6 423e d97b 233e a269 8dbd
000000f0: b76f af3d a943 5fbe 4498 09be a309 adbb
00000100: 2602 34be 7d66 1dbe 0216 0dbe 7c4e d5bd
00000110: 9910 49bd b282 c5bd 4e99 ddbd df93 03be
00000120: 7da5 1ebe 85f3 06bd a93c 03be 7462 e1bb
00000130: 952e a4be 69ac 1abe 523b 10be 8036 7fbe

model_A.linear_relu_stack.5.bias f4 [4]
-0.12289676 -0.12233019 -0.03753259 -0.25626528
00000000: 4cb1 fbbd 4088 fabd c6bb 19bd 3435 83be

model_B1.linear_relu_stack.0.weight f4 [30, 4]
0.39499745 0.37735838 0.5261102 1.1553329 0.006886944 0.09346773 0.63572556 -0.88155055
0.4559818 0.44436255 0.05192506 -0.62468 -0.320946 0.30352843 -0.0844175 -0.30029494
0.24384606 -0.3303578 0.5076073 0.1067806 -0.051773008 0.11274032 -0.93338305 0.579039
-0.3209039 0.19812247 0.86771125 0.3891468 -0.16038656 0.13902576 0.6616614 0.74892026
0.20541777 -0.46556967 -1.0612997 -0.24058 0.115685545 -0.40304074 -0.06870133 0.1819388
-0.030766604 -0.26030716 0.6190947 0.75130826 0.21727373 0.24426012 -0.18243475 -0.695078
-0.24735342 -0.31396142 -0.07477174 -0.872039 0.302518 0.1988015 1.0441291 0.99247456
-0.07460575 0.05474576 -0.18713874 0.69786763 -0.2589896 0.36232957 -1.0118369 0.24083585
-0.138256 0.43140364 0.53285533 -0.20706178 -0.3698024 -0.18317552 0.5388018 0.20528176
-0.11218989 0.15211329 -0.18817617 -0.58370554 0.072078094 0.23369998 0.052968208 0.5279164
-0.12258371 0.32566828 0.27688748 -0.19062212 -0.2067536 -0.18196903 0.13775651 -0.21042356
0.40230384 0.20178065 -0.59271824 0.14970583 -0.12144245 -0.13433966 0.24642341 0.078694604
-0.0670986 0.04538314 -1.2528508 -0.23925 -0.11955644 -0.07152485 -0.9887737 -0.36394358
0.16936696 -0.1187292 0.96469927 -0.65206563 -0.38747376 -0.14362392 -0.6729634 -0.0028210012
-0.29857197 0.026167046 -0.91224355 0.25124392 0.17821151 -0.1850338 0.45039928 0.5421598
00000000: 1b3d ca3e 1e35 c13e 28af 063f f3e1 933f
00000010: e0ab e13b 026c bf3d e9be 223f 4cad 61bf
00000020: 7276 e93e 7d83 e33e 5faf 543d 07eb 1fbf
00000030: 0953 a4be 1468 9b3e 15e3 acbd 42c0 99be
00000040: c8b2 793e a824 a9be 8df2 013f caaf da3d
00000050: ef0f 54bd 66e4 e63d 31f2 6ebf e63b 143f
00000060: 844d a4be 9ee0 4a3e 5322 5e3f 403e c73e
00000070: 603c 24be c55c 0e3e a462 293f 3db9 3f3f
00000080: 0959 523e 265f eebe abd8 87bf 9b5a 76be
00000090: 8bec ec3d 5b5b cebe 48b3 8cbd 2a4e 3a3e
000000a0: 3f0a fcbc fb46 85be fe7c 1e3f bd55 403f
000000b0: 017d 5e3e 531f 7a3e 2dd0 3abe a2f0 31bf
000000c0: 374a 7dbe 8dbf a0be ed21 99bd f33d 5fbf
000000d0: a4e3 9a3e 9f92 4b3e 06a6 853f d012 7e3f
000000e0: e6ca 98bd 173d 603d 4ca1 3fbe 74a7 323f
000000f0: 499a 84be 4383 b93e df83 81bf ac9d 763e
00000100: fb92 0dbe f0e0 dc3e 3569 083f 0108 54be
00000110: bd56 bdbe 5d92 3bbe eaee 093f 6235 523e
00000120: d0c3 e5bd 96c3 1b3e 41b1 40be ba6d 15bf
00000130: ae9d 933d 0c4f 6f3e 31f5 583d 8725 073f
00000140: 2b0d fbbd febd a63e 32c4 8d3e 7232 43be
00000150: 37b7 53be 1756 3abe 0b10 0d3e 4679 57be
00000160: c5fa cd3e 969f 4e3e 62bc 17bf 7c4c 193e
00000170: d2b6 f8bd 5690 09be 6b56 7c3e a32a a13d
00000180: fe6a 89bd ace3 393d 6a5d a0bf f4fd 74be
00000190: 02da f4bd 9f7b 92bd 4620 7dbf d056 babe
000001a0: 886e 2d3e 4b28 f3bd 88f6 763f c6ed 26bf
000001b0: f662 c6be 2612 13be 5447 2cbf 8ce0 38bb
000001c0: 6dde 98be 465c d63c cb88 69bf 0ba3 803e
000001d0: 147d 363e 8079 3dbe bc9a e63e fcca 0a3f

model_B1.linear_relu_stack.0.bias f4 [30]
0.09676223 0.4276135 -0.041792884 -0.5946707 0.43498635 0.41597682 0.39814165 0.16569138
-0.21520299 -0.35162893 -0.36917764 -0.42624003 0.32845214 0.4144067 0.46809712 0.46884695
0.22223583 -0.30849224 0.22576514 -0.15786353 -0.32184488 -0.44050708 0.31625298 -0.28130615
-0.054096445 0.50414896 0.38200885 -0.21666782 0.018587641 0.08904641
00000000: 472b c63d 28f0 da3e 042f 2bbd 573c 18bf
00000010: 88b6 de3e eafa d43e 39d9 cb3e 00ab 293e
00000020: 2c5e 5cbe b508 b4be da04 bdbe 223c dabe
00000030: e12a a83e 1d2d d43e 6daa ef3e b50c f03e
00000040: ca91 633e b2f2 9dbe fa2e 673e faa6 21be
00000050: dac8 a4be 258a e1be e9eb a13e 5c07 90be
00000060: 3c94 5dbd e80f 013f aa96 c33e 2bde 5dbe
00000070: 1c45 983c f75d b63d

model_B1.linear_relu_stack.2.weight f4 [30, 30]
-0.11988008 0.11714699 -0.046474285 -0.16306661 -0.029304978 0.09352707 -0.011140297 0.1278277
0.052333575 -0.22858542 -0.21838616 -0.08378526 0.066364445 0.13615662 0.061183292 0.11733712
-0.17204359 0.0005704349 0.006861719 -0.15491137 -0.14314486 -0.071825124 0.046546653 -0.027081858
0.2918275 0.12224817 0.10227295 -0.016957022 -0.07868151 -0.12817478 0.034134913 0.020833751
0.08298513 -0.121436104 0.05807708 0.17722963 -0.07595421 0.21917683 0.20914483 0.059185855
-0.018100908 0.1918348 0.011155926 0.020513404 0.059596274 -0.0050378945 -0.07753718 -0.109557964
0.05150199 0.21327236 0.07481541 0.13727632 0.03203552 -0.032059383 0.16613744 0.041871782
0.021587834 -0.1551934 -0.16140208 -0.1062357 0.11212781 0.1192208 0.027365828 0.07688202
0.029541228 -0.052447326 0.09023233 0.13113905 -0.113335125 -0.15097307 0.051838875 0.16658898
0.053294923 -0.042970035 0.11709279 0.16116114 -0.048603836 -0.09118332 0.22189236 0.12451514
0.15156175 -0.10151539 0.1418442 0.1347005 0.19595851 0.06718438 0.069823496 -0.14829558
0.06931959 0.09978647 0.1482101 -0.0253258 -0.13530482 -0.15186258 -0.12938853 0.06615776
-0.090822056 0.10292965 -0.15878186 0.00557987 0.0037019122 0.09725127 -0.10017771 -0.13455239
-0.026726939 -0.017958028 0.08041718 -0.054774504 -0.11716646 0.015335422 0.1516707 0.06330311
-0.16748817 0.023386236 -0.03693217 0.09155679 -0.15562786 0.09573836 -0.00068736624 0.06590974
0.0049508894 -0.19601957 -0.023774656 -0.09177962 -0.075526945 -0.07429697 -0.0521425 0.07391972
-0.15223621 -0.07733934 0.11019032 0.12961157 0.057544544 -0.076080255 -0.15699548 0.008305548
0.1462368 -0.09213308 -0.06167359 0.029849652 -0.010838858 -0.12271383 -0.05607401 0.04521287
-0.15957963 0.019994102 -0.10031454 -0.08465953 0.13737755 -0.14694008 -0.12739761 -0.20751302
-0.017041976 0.04243423 -0.071078815 -0.069460355 -0.0873926 0.083526574 0.058601186 0.048996992
0.09300048 -0.30314246 -0.016388819 -0.035523 -0.0766959 -0.10146667 0.08512301 0.012729233
-0.16375755 -0.056392428 0.08320398 0.07805852 -0.102055915 0.12026536 -0.25956514 0.024526168
0.032790177 -0.005583652 0.015103171 0.14756288 -0.1039191 0.032355227 -0.14807539 -0.1550375
-0.14510505 -0.0057998793 -0.152411 0.09706605 -0.119258896 -0.13931346 0.09235164 -0.074521326
-0.11904001 0.115481295 0.13615784 0.00583812 0.007888688 -0.040791728 0.029126415 0.028750934
-0.122294374 -0.072735325 0.025689686 -0.0129383 -0.13195333 -0.13482851 0.1466532 -0.032821056
0.12389079 -0.05221598 0.037117418 -0.00094770076 0.101586945 0.18060741 0.07904085 -0.0877773
-0.1036689 -0.15268876 0.20059799 0.18121764 -0.10995464 -0.10412547 0.077674225 -0.0423082
0.02876407 0.03736024 -0.11832574 -0.009325957 -0.02482589 -0.12299391 -0.18357407 0.14774676
0.024060275 -0.053613346 0.48387152 0.15371135 -0.0037947989 0.12266935 0.09815184 0.023108412
0.054621696 0.121675245 0.07710125 -0.014119146 -0.11432987 -0.049790837 -0.056309856 -0.17995305
0.17296053 0.19880952 -0.097776 0.051391833 0.1738547 -0.1847515 -0.26395842 0.12349091
00000000: b083 f5bd c3ea ef3d d25b 3ebd effa 26be
00000010: fe10 f0bc 1f8b bf3d cb85 36bc 44e5 023e
00000020: bb5b 563d 4c12 6abe 9fa0 5fbe 9b97 abbd
00000030: 15ea 873d a46c 0b3e 559b 7a3d 724e f03d
00000040: 322c 30be 3d89 153a 45d8 e03b 16a1 1ebe
00000050: 9194 12be 0d19 93bd b4a7 3e3d c6da ddbc
00000060: 6a6a 953e 405d fa3d 7b74 d13d 74e9 8abc
00000070: c623 a1bd 4040 03be 0dd1 0b3d 8bab aa3c
00000080: 1cf4 a93d 7eb3 f8bd 3be2 6d3d af7b 353e
00000090: e18d 9bbd e46f 603e 102a 563e de6c 723d
000000a0: 5b48 94bc 5870 443e 58c7 363c ba0b a83c
000000b0: 391b 743d ec14 a5bb d0cb 9ebd ed5f e0bd
000000c0: c0f3 523d 1264 5a3e d238 993d 2a92 0c3e
000000d0: ad37 033d b350 03bd ef1f 2a3e bf81 2b3d
000000e0: f8d8 b03c 05eb 1ebe 9646 25be 1a92 d9bd
000000f0: 44a3 e53d 092a f43d 4d2e e03c 5274 9d3d
00000100: 7200 f23c 02d3 56bd bacb b83d 5149 063e
00000110: 3f1c e8bd af98 1abe 0055 543d 4d96 2a3e
00000120: c74b 5a3d 5901 30bd 58ce ef3d 6d07 253e
00000130: d114 47bd 52be babd c037 633e cb01 ff3d
00000140: 0133 1b3e 4de7 cfbd 9b3f 113e eeee 093e
00000150: 59a9 483e f797 893d 9fff 8e3d ccda 17be
00000160: 6ef7 8d3d d95c cc3d 63c4 173e 0d78 cfbc
00000170: 598d 0abe dd81 1bbe 6d7e 04be b87d 873d
00000180: ea00 babd c8cc d23d b697 22be 58d7 b63b
00000190: c89b 723b ad2b c73d f929 cdbd 1ac8 09be
000001a0: 74f2 dabc b71c 93bc c3b1 a43d 3b5b 60bd
000001b0: f8f4 efbd 6c41 7b3c 904f 1b3e 10a5 813d
000001c0: 0582 2bbe 7e94 bf3c 3046 17bd 2082 bb3d
000001d0: e95c 1fbe 7912 c43d 5e30 34ba b0fb 863d
000001e0: 123b a23b 5bb9 48be 11c3 c2bc f4f6 bbbd
000001f0: dfad 9abd 0329 98bd 6093 55bd 3963 973d
00000200: cfe3 1bbe 1664 9ebd 76ab e13d e5b8 043e
00000210: d4b3 6b3d f7cf 9bbd 6cc3 20be fe13 083c
00000220: 1abf 153e 45b0 bcbd 729d 7cbd 4287 f43c
00000230: 7795 31bc 6351 fbbd dcad 65bd 2131 393d
00000240: d868 23be acca a33c b671 cdbd fa61 adbd
00000250: b3ac 0c3e 7677 16be 8574 02be 4b7e 54be
00000260: 9d9b 8bbc 84cf 2d3d c591 91bd 3b41 8ebd
00000270: e4fa b2bd fb0f ab3d cc07 703d 12b1 483d
00000280: 0977 be3d 7d35 9bbe d841 86bc 9180 11bd
00000290: bd12 9dbd c2cd cfbd f954 ae3d 468e 503c
000002a0: 0fb0 27be bffb 66bd d966 aa3d 25dd 9f3d
000002b0: b102 d1bd af4d f63d b9e5 84be 1aeb c83c
000002c0: fe4e 063d 11f7 b6bb 4a73 773c b91a 173e
000002d0: 89d3 d4bd ea86 043d 13a1 17be 27c2 1ebe
000002e0: 6b96 14be ea0c bebb a111 1cbe 91ca c63d
000002f0: 023e f4bd 30a8 0ebe db22 bd3d a39e 98bd
00000300: 40cb f3bd 7581 ec3d f66c 0b3e b34d bf3b
00000310: 8e3f 013c 3a15 27bd 859a ee3c 1487 eb3c
00000320: 7975 fabd 42f6 94bd 2d73 d23c 2afb 53bc
00000330: c61e 07be 7c10 0abe 422c 163e 5f6f 06bd
00000340: 74ba fd3d 6ce0 55bd 6f08 183d 1f6f 78ba
00000350: d10c d03d 26f1 383e 2be0 a13d 96c4 b3bd
00000360: 5c50 d4bd 715a 1cbe 8f69 4d3e 1e91 393e
00000370: e62f e1bd bc3f d5bd aa13 9f3d 5d4b 2dbd
00000380: a0a2 eb3c 0d07 193d c454 f2bd e6cb 18bc
00000390: aa5f cbbc 3be4 fbbd d7fa 3bbe ed4a 173e
000003a0: 0e1a c53c ab99 5bbd 02be f73e 8266 1d3e
000003b0: 29b2 78bb 113a fb3d d503 c93d da4d bd3c
000003c0: 00bb 5f3d df30 f93d 43e7 9d3d fe53 67bc
000003d0: c725 eabd 7af1 4bbd 2aa5 66bd 9d45 38be
000003e0: 911c 313e b994 4b3e c93e c8bd 3e80 523d
000003f0: f706 323e 7f2f 3dbe 8f25 87be cde8 fc3d

model_B1.linear_relu_stack.2.bias f4 [30]
0.17644894 0.08656132 0.0017856645 -0.09693938 -0.08355202 0.0516149 -0.12838592 0.16261318
0.015635429 -0.11572215 0.16041858 -0.080546 -0.09199062 -0.18043481 0.032218132 -0.17321351
0.09104881 -0.12291215 0.038007442 0.10362399 -0.006324016 -0.11123887 0.1293701 0.008209369
0.13404615 -0.15359825 -0.06955802 -0.16229992 -0.15495853 0.1408598
00000000: 08af 343e 1047 b13d f50c ea3a 2788 c6bd
00000010: 521d abbd 256a 533d 9977 03be 1284 263e
00000020: df15 803c bcff ecbd c544 243e 4df5 a4bd
00000030: 9465 bcbd e7c3 38be 29f7 033d e25e 31be
00000040: cc77 ba3d 5eb9 fbbd b1ad 1b3d d138 d43d
00000050: b139 cfbb 34d1 e3bd 9879 043e 9780 063c
00000060: 6543 093e dc48 1dbe 6f74 8ebd f331 26be
00000070: 73ad 1ebe 8d3d 103e

model_B1.linear_relu_stack.4.weight f4 [1, 30]
0.13689454 0.12868401 0.036962934 -0.030666878 -0.14950232 -0.09364241 0.13111489 0.18650484
0.16520317 0.09621326 0.03464946 0.35714334 0.2885224 0.07746555 0.021090731 -0.096362986
0.09079342 0.21115267 0.12611441 0.12144405 0.16568184 0.40221322 0.012636056 -0.06387888
0.024565024 0.32010877 -0.031640857 -0.1177523 -0.14026456 0.041536305
00000000: 152e 0c3e bec5 033e 7266 173d 1b39 fbbc
00000010: 2317 19be 98c7 bfbd fb42 063e 20fb 3e3e
00000020: 052b 293e 750b c53d 98ec 0d3d 7edb b63e
00000030: 35b9 933e 42a6 9e3d 78c6 ac3c f559 c5bd
00000040: e7f1 b93d 6838 583e 2324 013e a8b7 f83d
00000050: 80a8 293e e4ee cd3e 7607 4f3c eed2 82bd
00000060: 973c c93c 4ce5 a33e d899 01bd 1e28 f1bd
00000070: 83a1 0fbe f921 2a3d

onnx::MatMul_35 f4 [4, 4]
0.0764404 -0.0120280385 -0.00082493055 0.033557426 -0.08282411 0.08433119 0.09297449 0.048484396
0.12409892 -0.011683315 2.118439 -0.01689057 0.10704539 0.04706752 -0.14164792 2.0306609
00000000: c98c 9c3d 4011 45bc 2740 58ba 8373 093d
00000010: b09f a9bd d5b5 ac3d 6969 be3d 9397 463d
00000020: 9327 fe3d 606b 3fbc 8194 0740 185e 8abc
00000030: 9d3a db3d dfc9 403d 270c 11be 59f6 0140

onnx::MatMul_36 f4 [4, 2]
0.8040338 0.032495867 0.007294325 0.0017684668 -0.010146603 0.8891139 0.012716104 0.0015749381
00000000: 29d5 4d3f 631a 053d 3c05 ef3b e6cb e73a
00000010: f03d 26bc f89c 633f 3557 503c 276e ce3a
