resources/onnx/cnn_max_mninst3.onnx (onnx, 85356 bytes, 8 tensors)

dense_2_1/kernel:0 f4 [32, 10]
00000000: 9a7f 92be d2df 6f3e 3cfc 5f3e 9376 27be
00000010: f016 99be ea0f bf3d ef87 ff3e 2606 933e
00000020: 33b4 9dbe 4db2 4bbf 913c 0dbd e050 cc3c
00000030: c1f5 413e 104e 49be bffd 983c c052 583e
00000040: 88b6 ef3e b84e e2bc 6354 863e 21ca 33bf
00000050: 04f3 3f3e cb69 31bf aa3d c83d b34d 923d
00000060: c476 09bf 23de 9e3d 4a76 96be 73de afbe
00000070: b1da 6cbe bcb7 c73e d9dc 173f d307 373f
00000080: 4800 1c3e be4d 87be 1bfe 19bf 38e3 10be
00000090: 05a3 c23e 3a1e 303e 64af 20bf 8b75 2d3e
000000a0: 8c06 533e dcd0 c4be 1435 c9be fca2 4abf
000000b0: 6d4a 8c3e cf91 a13e 8788 6c3e dcce 833e
000000c0: c355 7a3e e4cf 9e3c a52e 343e 903d d13e
000000d0: bb96 4dbd 0e88 933e b770 56be a34a 38bd
000000e0: 258d 013f bbcd 2abf 1659 dcbc b63f 34bf
000000f0: 9882 b63e e932 703e 82ee 0b3e 438d f73e
00000100: d02e da3e 5b89 33bd 0ff6 2fbd c492 b53d
00000110: 2c35 293e b9ce fcbe 42ec a9be 4aa4 bd3e
00000120: 77c2 90bd 69d9 5abf f387 213f b019 adbd
00000130: 0f41 3b3e bf24 a8be 2b7a e5be 9c75 53be
00000140: 695c 033f 0a2f 4dbe 24e5 e73e ff8d 80be
00000150: fcfe 9b3d 03a6 70bd 6b6c f43e 84d9 24bf
00000160: c827 053b 9aa4 d73c 4fe6 09bf dfc0 ab3e
00000170: 783c 903e e68e 2abf c70e bc3e dcc1 67be
00000180: ae9e cebe 5980 bd3d 6772 ed3e 83b6 83be
00000190: 8bfe 04bf c184 893e 2101 cb3e 498e 483e
000001a0: 7349 ca3e fe43 f4be 1382 37bf 40db 743e
000001b0: a131 353d 561f d13e 50f8 37bf b4a2 91be
000001c0: ee27 22bf 0caf d83e 5cf0 1dbf 4768 003f
000001d0: 3a0f e1bd a670 c7be 34e8 7e3d 23d8 03be
000001e0: e00f 873e ea93 32bf d3f9 6bbe e0db 05be
000001f0: 8687 433e 6ccf e6bd 567d b4be 6b88 59bf
00000200: 8540 2bbe 27d5 17be b8c2 b5be 05a2 e3be
00000210: eb76 b23e dec1 213e afd2 243e e49e 3a3e
00000220: 471d 0b3e b985 19bf 7194 0a3f b010 cb3e
00000230: ddc8 fa3d 16ca 933e 4f5c 05bf a3af 2a3d
00000240: 7cf0 55bf de96 ad3e ac23 183e 3ead 34bf
00000250: 9fa1 013d c5dd 22be eb61 46be 7361 923d
00000260: 146d 23be eeef 56be 87bf b2be 020d dcbd
00000270: 9133 88bf bccc 1c3e 1c25 9cbe bb58 e53e
00000280: 2b50 713e 42c5 1fbe f173 e13e 319d 02bf
00000290: cfd6 d03d e0ec bcbe 70d0 2abf 0e18 2dbe
000002a0: e20c 62be bdc9 75be 0757 b03e e118 20bf
000002b0: 2833 4c3e 4265 cc3d 9e1d 8fbe 2980 9cbe
000002c0: 72f7 693e d1e2 1bbf 2d21 3fbe b9ea 063d
000002d0: 02c6 d7bd c1be 02be 1470 81bf 7db8 dd3e
000002e0: 81d4 c8bc e82a 953e 3694 bf3c e007 e43d
000002f0: eef0 d0be 5bb3 3b3e d655 673c 0833 9f3d
00000300: d733 5dbe d6eb edbe 8117 06bf 9615 2dbe
00000310: 3d63 45bf 1bd3 d93e 601a b43d b8b6 e83c
00000320: 7f1a ddbd 23ca 37be 5c1d f33c 90eb 063c
00000330: 1129 193e 3b02 a93e 7e62 cebe b7ae df3e
00000340: 6136 4bbf f027 293e e29f 713e 5e3e fa3e
00000350: fdca 6bbf 44e8 b2be a5c5 a1be 1a64 913e
00000360: 5025 ee3e 2ba6 d6be 5ab2 9a3e e75d a03d
00000370: 270c 913e 046d f2be 4187 913e 2eab 053f
00000380: b595 213e 5c53 97be 9e84 88be abcb a53d
00000390: de10 87be 77f8 82bf 4819 6fbf 4166 6b3e
000003a0: fea3 4d3e f817 c4bc fd47 64be 5c0e 853e
000003b0: 4d7f 9dbe 4598 4a3e f437 8f3c 01ff ebbe
000003c0: 4f32 aabe 8151 263e 2998 dc3d 75a1 553e
000003d0: 9c57 b6bd cb4f 35bf fb4e e9be 29e4 6e3e
000003e0: 5ee8 0ebf d653 06be 1c14 513e ea1e ebbc
000003f0: 761c 10bf 6895 c23e 1f42 18bd 7ae7 07bf
-0.28612977 0.23425224 0.21873564 -0.16353826 -0.29900312 0.09329207 0.49908397 0.28715628
-0.30801544 -0.7956894 -0.03448159 0.024940908 0.18941404 -0.19658685 0.018675683 0.21125317
0.46818948 -0.027625427 0.26236257 -0.702303 0.18745047 -0.6930205 0.097773865 0.07143726
-0.53696847 0.07757213 -0.29387122 -0.34349403 -0.23130299 0.39007366 0.5932136 0.71496314
0.15234482 -0.264265 -0.6015336 -0.14149177 0.38015 0.1719903 -0.62767625 0.1693937
0.20607966 -0.38440597 -0.39298308 -0.79154944 0.27400532 0.31556556 0.23098956 0.2574376
0.24446778 0.01938624 0.17595918 0.4086728 -0.050192576 0.2881474 -0.20941435 -0.044993054
0.50605994 -0.6672017 -0.026897948 -0.70409715 0.3564651 0.2345692 0.13665202 0.48349962
0.4261384 -0.043832164 -0.04295927 0.08865884 0.1652419 -0.49376467 -0.33188063 0.37039405
-0.07068341 -0.8548799 0.6309807 -0.08452165 0.18286537 -0.32840535 -0.4481977 -0.20650333
0.5131288 -0.20037475 0.45292008 -0.25108334 0.07616994 -0.05875207 0.47738966 -0.643944
0.00203179 0.026323605 -0.5386705 0.33545586 0.28171134 -0.66624296 0.36730024 -0.22632545
-0.40355438 0.09252996 0.46376345 -0.25725183 -0.519509 0.26859096 0.396493 0.19585527
0.39509162 -0.47708124 -0.7168285 0.23911762 0.044236783 0.4084422 -0.7186327 -0.28444445
-0.6334218 0.4232105 -0.61694884 0.50159115 -0.10989232 -0.3895313 0.062233165 -0.12875418
0.263793 -0.6975695 -0.23044519 -0.13072157 0.19094667 -0.11270031 -0.35251874 -0.8497378
-0.16723831 -0.14827405 -0.3550012 -0.4445955 0.34856352 0.1579661 0.16095994 0.18224674
0.13585387 -0.5996967 0.54132754 0.3966117 0.12245343 0.28865117 -0.52093977 0.041671406
-0.83570075 0.33904165 0.14857358 -0.70576847 0.031648275 -0.15904911 -0.1937329 0.07147493
-0.15959579 -0.20989963 -0.3491175 -0.107446685 -1.0640737 0.15312475 -0.30497062 0.44794258
0.23565738 -0.15602592 0.4403377 -0.51021105 0.101972215 -0.3689947 -0.667243 -0.16903707
-0.22075227 -0.24002738 0.34441397 -0.6253796 0.1994139 0.09980251 -0.27952284 -0.30566528
0.22848299 -0.6089297 -0.18665 0.032938693 -0.10535814 -0.1276808 -1.0112329 0.43304816
-0.024515392 0.29134297 0.023386102 0.111343145 -0.40808815 0.18330137 0.014119586 0.07773405
-0.21601807 -0.4646899 -0.52379614 -0.16902766 -0.7710455 0.42543873 0.08794093 0.02840744
-0.10796069 -0.17948203 0.029677086 0.008234873 0.14957072 0.33009514 -0.4030952 0.43687984
-0.7937985 0.16519141 0.23596147 0.48875707 -0.9210661 -0.3494283 -0.31596103 0.28396684
0.46512842 -0.4192365 0.30214196 0.078304105 0.28329584 -0.47348797 0.28423503 0.52214324
0.15779765 -0.29555786 -0.2666368 0.08095487 -0.26380056 -1.0232075 -0.9339795 0.22988226
0.2008209 -0.02393721 -0.22293086 0.25987518 -0.30761185 0.19784649 0.017482735 -0.4609299
-0.33241507 0.16242029 0.1077121 0.20862372 -0.08903429 -0.7082488 -0.4556807 0.23329224
-0.55823314 -0.13117918 0.20417827 -0.028701264 -0.5629343 0.38004613 -0.037172433 -0.5308758

dense_2_1/bias:0 f4 [10]
00000000: 3c5a 17be 47de 2ebd e6c1 af3d 7b2d 7cbe
00000010: 16e8 4fbd ef15 843e ced8 2bbe 53c1 da3c
00000020: f14a 2a3e 7785 423b
-0.14780515 -0.04269245 0.08581905 -0.24626724 -0.050758444 0.25797984 -0.16781923 0.026703512
0.1663015 0.0029681602

dense_1_1/kernel:0 f4 [64, 32]
00000000: db65 283d 7932 84bd ed3e 8a3e d565 a1be
00000010: d4e2 973e 863c 3ebd 2049 cf3e cf8c c8be
00000020: 8c56 0abe 75d1 31bd 79c6 123e af8b 9c3e
00000030: 50ce 343e bdd2 49bd 7b0b 5d3e 1d27 b33d
00000040: 1922 40be 9b2a 423e 94f8 f33d 7ac7 79be
00000050: e70b 713e b75f 16bf a66c 89be ad1f a93d
00000060: 0f4a 1bbc ba4b 673e 8f7b 683e 373f c83e
00000070: ce3f 8bbc 6a98 4dbe e58b 15be a0ef 70be
00000080: 1894 b8be c728 46bd f476 363e d725 97be
00000090: 2fd2 283e 0772 0e3e e9bd 723e daa7 273e
000000a0: 9ea4 8c3d ac21 50be 04be bcbd 121b b4be
000000b0: ef7a 843e 1813 753d e807 c43e 4372 563e
000000c0: 83ea ebbd 8e5a f5bc e072 00bf 0335 94bd
000000d0: a4b5 223e 8440 8cbe 55ff 753e fe9f 9a3e
000000e0: 316a b7be a464 e33d ae60 93be 7be6 7c3e
000000f0: d701 4a3e f27c 61be 31ae 3dbe 7abd f13d
00000100: ec0e 04be 0b21 bfbe 0dac 613e a538 dcbd
00000110: f010 0abf 5c43 943e e289 1f3d 2472 0c3f
00000120: 51df 22bf b620 58be ca2b 6abd f4f1 09bc
00000130: af79 1ebe 4f6a 413e 034a 4d3d 03d6 dd3e
00000140: 1409 83be 8d98 04bf a746 653e f5e7 b13e
00000150: 57a0 3d3e 8894 773d e9b8 b23d 0245 1ebe
00000160: e912 98be 139d 04bd ea7c 093f e110 9c3e
00000170: 75f8 bfbe 6081 a03e 0ea7 6bbe bdc6 d8bd
00000180: 1e1e 0a3f 6800 323f 7749 19bf 7709 4f3e
00000190: aa54 4d3e 4a7d 433d 06f4 a1bc c3d2 243e
000001a0: f138 dc3d dd01 8aba 3b69 dcbd dfd8 ed3e
000001b0: 28c6 763b c368 cebd b75d ea3d b30b b5be
000001c0: beb5 c3be ed78 f03d 684f 30bd e4cc 0dbe
000001d0: fdd0 b5bd 6755 bebd 91ed 863c f281 113f
000001e0: 1e42 f9bd 7048 df3d 4192 d2be 965f 943d
000001f0: 7201 ef3d 7edd 42bd 78cb 0cbe 10c1 ff3d
00000200: 7250 0d3e 1f59 7cbd 0bf0 b7bd d21e 303d
00000210: 06dc 92be 7295 b03d 4def 803e 1597 8f3e
00000220: 6f97 93bc 3fcf 15bd e817 4d3e 6797 07be
00000230: 8086 353e 0df9 7abd da51 a2bb 3ab7 2fbe
00000240: e2aa 23bd 3d90 253e 94a9 41be f863 6b3e
00000250: 5644 06be 418a 8abe 2e8d 4e3e 8cb7 2e3e
00000260: 1d05 983e a108 853e bc3b 17bf 7b06 c5be
00000270: be21 afbd 8a4f 0b3e 53ea 4a3e c356 863e
00000280: ae48 0e3f 06d1 193e 4847 a7be 728c 09be
00000290: e3d2 eebe 5177 213e ad84 f83e 3148 a0be
000002a0: 3ba8 833d bc49 3e3e 67f7 18be 5520 403e
000002b0: 8f23 04bf 24e2 f3bd 1276 4ebc 629a 6abe
000002c0: 7072 d43e e428 183e c977 bf3e e3a0 2c3e
000002d0: 2aab 553e 59fe 433e 9e40 883e e2a4 593e
000002e0: c7ce 773e d6be 5a3e bd22 f13d a466 e83e
000002f0: f017 fa3e a480 f4be 3b6d 673e e4ad 23be
00000300: f955 3f3e 9c04 183e c706 af3e 2f4a 1ebf
00000310: 8bb8 57be d9ba e73e e536 20be 0d19 bebe
00000320: 38ff 4f3e 040d 0d3e 38e4 57bd ee77 243e
00000330: bb2a ab3e 6ea9 3e3e f0b2 2bbc 3dd2 1f3e
00000340: c63c 033e 789d cc3e afe2 80be aa38 6d3e
00000350: f2ed ca3d 6912 513e fabe b7be ce14 43be
00000360: d231 213e 8002 9c3e 0995 4abe c543 9b3d
00000370: b979 14bd 22cf 503e a78a 533e a4cf 6a3e
00000380: 5b2a 8b3e a1b9 3dbf c3c5 c63e a1ff 88bd
00000390: 9d81 69be f23a afbe 5f0b b53d 5e02 a53d
000003a0: 3ba7 a0be 4572 16bf 5b6c fb3d 4950 083f
000003b0: 2d25 9abe f102 1dbe ee87 1d3e 6ec8 5b3d
000003c0: 7465 3e3e 840b c9bd 79d7 293f 5ff8 c03d
000003d0: f415 233f eb3f acbe 995a c43d 62e2 ab3e
000003e0: 70fe 0d3f f646 c93c d730 893e 93c4 2c3e
000003f0: 669b 5cbe f9b0 503e 941c 903b 89d3 11be
0.041112762 -0.064549394 0.27001134 -0.31523004 0.29665244 -0.04644444 0.40485477 -0.39169928
-0.13509578 -0.043412644 0.14333524 0.3057532 0.17656827 -0.04927324 0.2158641 0.08747695
-0.18763007 0.18961565 0.11912647 -0.243925 0.23539697 -0.587398 -0.26840705 0.08257995
-0.009478106 0.22587481 0.22703384 0.3911073 -0.016998198 -0.20077673 -0.14604147 -0.2352891
-0.36050487 -0.048378732 0.17818815 -0.29521057 0.16486429 0.13910685 0.23705257 0.16372624
0.06867336 -0.20325345 -0.0921593 -0.35176903 0.2587504 0.059832662 0.38287282 0.20942025
-0.11519339 -0.029950406 -0.50175285 -0.07236674 0.15889603 -0.27392972 0.24023183 0.3020019
-0.35823205 0.1110318 -0.28784698 0.24697296 0.19727264 -0.22020319 -0.1852348 0.11803718
-0.12896317 -0.37329897 0.22038288 -0.107529916 -0.53932095 0.2895764 0.038949855 0.54861665
-0.63622004 -0.21106228 -0.057170667 -0.0084195025 -0.15476106 0.1888821 0.05011941 0.4332734
-0.25592864 -0.51795274 0.22390233 0.34747282 0.18518196 0.060444385 0.08726675 -0.15456012
-0.29701927 -0.03237636 0.5370623 0.30481628 -0.37494245 0.31348705 -0.23012945 -0.10584781
0.53952205 0.6953187 -0.59877723 0.20218454 0.20051828 0.047726907 -0.01976968 0.16096024
0.10753048 -0.001052912 -0.107622586 0.46454522 0.0037654731 -0.100785755 0.11443656 -0.35360488
-0.38224596 0.11741815 -0.043044478 -0.13847691 -0.08877752 -0.09293633 0.016470702 0.56838906
-0.12170814 0.10902488 -0.41127208 0.07244794 0.116701975 -0.047574513 -0.13749492 0.124879956
0.13800219 -0.06160843 -0.089813314 0.042998143 -0.2868349 0.086222544 0.25182572 0.28044954
-0.018016545 -0.0365746 0.20028651 -0.13241349 0.17727089 -0.06127267 -0.004953605 -0.17159739
-0.03995789 0.16168304 -0.18912345 0.22987354 -0.13112006 -0.27058604 0.20171043 0.17062205
0.296914 0.25983146 -0.5907552 -0.38481507 -0.08551358 0.1360456 0.1981595 0.2623807
0.5557965 0.15021142 -0.3267157 -0.13432482 -0.4664527 0.15768172 0.48538724 -0.31305078
0.06428572 0.18582815 -0.14938127 0.18762334 -0.5161676 -0.11908367 -0.012601392 -0.22910455
0.4149356 0.14859349 0.37396076 0.16858248 0.20866075 0.19139995 0.266118 0.21254304
0.24199973 0.2136186 0.11774204 0.4539081 0.48846388 -0.47754395 0.22600262 -0.15984303
0.1868514 0.14845508 0.34184858 -0.61831945 -0.21066491 0.4525974 -0.1564594 -0.37128487
0.20312202 0.13774496 -0.05270788 0.16061375 0.33431038 0.1861932 -0.010479674 0.15607543
0.12816152 0.3996389 -0.25172946 0.23166147 0.09908666 0.20417179 -0.3588789 -0.19050905
0.15741661 0.30470657 -0.19783415 0.075812854 -0.036248896 0.20391515 0.2065836 0.22930771
0.27180752 -0.7411137 0.38822755 -0.06689382 -0.2280335 -0.3422466 0.088400595 0.08057092
-0.31377587 -0.5876811 0.122765265 0.53247505 -0.30106488 -0.15333153 0.15383884 0.05365794
0.18593389 -0.098166496 0.6634441 0.09422373 0.6370537 -0.33642516 0.09587593 0.33571154
0.55466366 0.02456997 0.26795074 0.16871862 -0.21543655 0.2038001 0.004397938 -0.1424085

dense_1_1/bias:0 f4 [32]
00000000: 2e1a 15bd 197d 5e3e 979d ed3d 4eea f1bd
00000010: b7e8 413e dc2d acbd 9f71 08bd 280e b13d
00000020: dfa7 d83d af7f 623c e0e3 babc 1b61 ad3d
00000030: 99d8 003e f74a 11bc 099f b83c 0e5f dc3d
00000040: 3f47 88bd b516 23bd 3c90 51be 886a 953d
00000050: 5e81 b73d 3e73 533d d561 e1bd f42c 323e
00000060: a23a aabd 0eaa c2bd 983e ef3c 035e 7abd
00000070: 8458 51bc 40c8 2d3d 2a0c 48bd 0e34 a43c
-0.03640192 0.21727408 0.116023235 -0.11812268 0.1893643 -0.084071845 -0.033311483 0.08645278
0.10578894 0.013824387 -0.022813737 0.08465787 0.12582625 -0.008867971 0.022536771 0.10760318
-0.06654214 -0.039816577 -0.20465177 0.0729571 0.08960222 0.051623575 -0.11004988 0.17399961
-0.083119646 -0.095050916 0.029204652 -0.061124813 -0.012777451 0.0424273 -0.048839726 0.020044353

dense_3/kernel:0 f4 [288, 64]
00000000: a0fa fe3c 2172 0d3e 4470 ed3d 8995 16bd
00000010: ef92 3ebe 0f0a a4bd 4604 a2bc f687 9e3d
00000020: 64c7 a1bd 1d3c f13c 3f98 803c 03b9 2cbe
00000030: 9b61 f4bc 3094 d23d 240c 113e c495 90bb
00000040: c4b1 a33e 47a7 183e 0470 03be d05f d3bc
00000050: 38de 83bd 0566 5c3e d7b1 9b3d 945b c8bd
00000060: d415 da3d f2fd c93c 2a39 9c3d 3544 4d3d
00000070: 52ce 743d c9c2 77bd a4df 37bd c527 3b3c
00000080: 4139 53be 083d 04bd 7401 f4bd bc78 293e
00000090: 4cf1 e2bd 2eb2 9e3d 5ad0 c73d 372c 3f3e
000000a0: dc95 48bd 3b41 183e 14c6 023d a6c9 b5bd
000000b0: 61d4 7e3d a64f 443c 7fe2 123c e604 18be
000000c0: 4fd3 cd3c 66a6 713e c675 633c dd14 1ebe
000000d0: 2312 44b8 a385 153e ea96 91bd 8e09 a9bd
000000e0: 49f1 c3bd b8a2 ef3c 7f57 23be 7f09 b13d
000000f0: 42cd 6fbd 0dde 91bd bc4f 00be 02e4 613c
00000100: 8966 9b3d 9fc2 a9be c280 f63d 8d4c 993e
00000110: 15cf 88be 010d e1bc fa81 ae3e dfa8 63bd
00000120: f481 3f3e 9b74 3cbe efb4 903d 9c0d c2bd
00000130: aaef 023d c67a 11be e696 7dbc d248 273d
00000140: c26b b13d f5fa 913d 0ffb f13c 2785 0bbd
00000150: ecc5 c43c 6966 1bbe dc94 e33d e945 7a3e
00000160: 1982 1a3d 0883 0cbd 7fdc b1bc 4502 42bd
00000170: 9c48 e33d 3a5c b03c 6255 a83e c2f7 c43d
00000180: 0310 0a3e efbd 80bd 776a 06bd 222f 043c
00000190: 3341 7fbe ec18 1fbe ece6 093d 82df 9f3d
000001a0: 47c4 93bd 9061 a73e 77ab 4ebd 6e09 8bbb
000001b0: a03f 083e 10fc 86be 2505 f9bd 3453 033e
000001c0: 1555 613e 318d 95bc 8e93 b33e e538 c83d
000001d0: 05d3 213d 5141 bcbd 0899 4b3e ea37 1cbd
000001e0: 4101 3e3e c35d 143d 565f 93bd 52bd 7b3b
000001f0: a480 d6bc 5d5e 12be 959f 35be 59a1 483c
00000200: e732 01be 9e2f a8be d65d 35be 1e49 acbb
00000210: 1edb e13e a27a af3e de26 d13e 6882 b4bd
00000220: 0032 b13d b616 1fbf 736b be3e 2b09 9b3e
00000230: fe23 a73e ccd8 663e 8693 403e 001e f03d
00000240: 193f 5bbe 5b28 343d 3e7d 4a3e 7a76 b63e
00000250: dc86 f6bd 00a1 a03e ba10 95be b461 553e
00000260: de10 1ebe e444 013f 7a04 c6bd be97 87be
00000270: 22e3 7f3e 7824 46be 930e ee3d a958 92bc
00000280: ef34 afbe 41a0 0ebb 2755 843d f6ea 193e
00000290: 0217 a93d 5db8 14bd 8743 a73d d235 7f3d
000002a0: 49d1 d83e 3474 853e 507f aabd 8a56 b63d
000002b0: 48e4 2abe b438 a5bd 2f13 88be d1e2 99bd
000002c0: e9da 9dbe 3518 3ebd ba48 143d 29b1 b73e
000002d0: 032e a23e 3ae8 c3bd a378 963e b5f0 09bd
000002e0: 8b3a 243e 671c 3ebd c59f 4f3e 5472 e43c
000002f0: 8690 c43e 836f aebe 5e66 15be 14de 923c
00000300: a2e0 e0be 6d18 29be cb37 bfbe 6e2d b53d
00000310: 9af6 1d3e 84fd 2a3e ffd5 fd3e 3ee4 9f3c
00000320: 24ed a7bd 58c6 0dbf e95b 0e3f 9e9c 973e
00000330: 8833 c03e d3b2 38bd aaf8 4c3e 7c0c 7cbc
00000340: 4f53 c4be 59b6 54bb 9a93 b9bd e498 ef3e
00000350: bc96 98bd 5ea7 a93e 8a1f 52be 0ccc 6e3e
00000360: 66a3 1cbd 6065 be3e c819 37bd eca3 abbe
00000370: 9263 713e 41e5 e2be 882a f13e 656d 5c3d
00000380: d8d0 a0be f58e 8f3c 9c1f a83e 0b8c 093e
00000390: dbdc 1f3e a56b 603e f294 68be b370 633c
000003a0: 3d4a b03e dc1c 973e 4962 063e 3080 bb3d
000003b0: 4c07 5dbd 227a c2bc dbba b3be e32a 1fbd
000003c0: d60b a7be 02d0 9e3e aa25 db3d 5333 063f
000003d0: ef6f 173e 8165 223e 64c6 133f fcda 96be
000003e0: 572c 54bc a755 783d 8638 733e 2963 0dbc
000003f0: 89ce 483f 968e efbd cc31 4abc 21a3 03be
0.031125367 0.13813068 0.115936786 -0.0367637 -0.18610738 -0.08009731 -0.019777428 0.07740776
-0.07899359 0.02944761 0.015697597 -0.16867451 -0.029831698 0.10282171 0.14164788 -0.0044123847
0.31971562 0.14907561 -0.128357 -0.025802523 -0.06438869 0.21523292 0.0760228 -0.09783092
0.10648695 0.024657223 0.07628091 0.050113875 0.059767075 -0.060488496 -0.044891015 0.011423056
-0.2062731 -0.032284766 -0.1191434 0.16549963 -0.1108118 0.07748829 0.09756537 0.1866921
-0.048971042 0.14868633 0.031927183 -0.08876352 0.06221426 0.01198188 0.008965134 -0.14845619
0.025125174 0.23598632 0.01388306 -0.15437646 -4.6746933e-05 0.1460176 -0.07108863 -0.082537755
-0.09567506 0.029252395 -0.15951346 0.08644389 -0.05854536 -0.07122431 -0.12530416 0.013787271
0.075879164 -0.33156297 0.12036277 0.29941216 -0.2672049 -0.027472021 0.3408354 -0.05558097
0.18701917 -0.18403856 0.0706576 -0.09475252 0.031966843 -0.1420699 -0.0154778715 0.04084093
0.08663131 0.071279444 0.02953866 -0.03406253 0.024020158 -0.15175785 0.11112377 0.24440731
0.037721727 -0.03430465 -0.021711586 -0.047365446 0.110978335 0.021528352 0.32877642 0.096175686
0.1348267 -0.06286227 -0.032816377 0.008067878 -0.24927215 -0.1553685 0.03366749 0.078063026
-0.07215171 0.32691622 -0.05045649 -0.0042430675 0.13305521 -0.26364183 -0.12159184 0.12824708
0.22005112 -0.018255802 0.35073513 0.09776477 0.039507885 -0.091921456 0.19882596 -0.03813926
0.18555166 0.03622223 -0.07195918 0.0038412404 -0.026184388 -0.14293809 -0.17736657 0.0122454995
-0.12617074 -0.3284883 -0.17711577 -0.0052577397 0.44112486 0.3427325 0.40849966 -0.088139355
0.08652115 -0.6214403 0.37191352 0.30280432 0.32644647 0.22543639 0.18806276 0.11724472
-0.21410789 0.0439838 0.19774339 0.35637265 -0.12037441 0.31372833 -0.29114324 0.20838052
-0.15436122 0.50495744 -0.096688226 -0.26482958 0.24988988 -0.19349849 0.116238736 -0.017864542
-0.34220073 -0.0021763 0.06461554 0.15031037 0.082563415 -0.036308635 0.08167177 0.062307186
0.42347172 0.26065218 -0.08325064 0.08903225 -0.16688645 -0.08067456 -0.26577136 -0.07513965
-0.30831078 -0.046409804 0.03620217 0.3587735 0.3167573 -0.09565778 0.29388914 -0.03367682
0.16037957 -0.046413805 0.20275791 0.027886547 0.38391513 -0.34069452 -0.14589831 0.01792816
-0.4392138 -0.16513224 -0.37347254 0.08846556 0.15426102 0.16698271 0.4957733 0.019518014
-0.08199528 -0.55380774 0.55608994 0.29611677 0.37539315 -0.045092415 0.20016733 -0.015383836
-0.3834481 -0.003245732 -0.09061356 0.46796334 -0.07450625 0.33135504 -0.20519844 0.23320025
-0.038241766 0.37186718 -0.04470232 -0.335235 0.2357314 -0.44315532 0.4710276 0.053815264
-0.31409335 0.017524222 0.32836616 0.13432328 0.15611593 0.21916063 -0.22713068 0.01388185
0.3443164 0.29514205 0.1312343 0.09155309 -0.053962037 -0.023739878 -0.35103497 -0.03885926
-0.32626218 0.31018072 0.10700543 0.52422065 0.14788793 0.15859033 0.57724595 -0.29463947
-0.012950025 0.06062856 0.2375203 -0.008629599 0.7844015 -0.11697118 -0.012340974 -0.12855197

dense_3/bias:0 f4 [64]
00000000: c10c c43d bed8 c63c b050 b03d 4a6f 073e
00000010: 0be8 46bd fa65 35be de58 1abe 84fb c0bd
00000020: db03 a53d e51e de3d de85 f23b 4af0 0e3e
00000030: d2ac f33d 1abe 6fbe d79b 513e cf61 34bd
00000040: 56db a03d 5bbc 1b3e c77b cb3d ef16 78bd
00000050: cf73 eb3d 7e43 29be 52f8 f53c d5a1 9f3e
00000060: 91d3 5a3d 9c48 6cbe e3c6 8bbe 33b6 81bd
00000070: be85 5dbe 3e6f 30bc 63a1 743d dc77 08bd
00000080: eacd c13d cc97 b03d 4709 31be 89ff 4dbe
00000090: a46a 063e 5d23 053e 2047 17be 0a32 bc3d
000000a0: 6473 8a3d 7c9a 3e3d d659 3dbd 69b4 f1bd
000000b0: 470c 763e d521 d0bd 7969 cd3c d2a4 bf3d
000000c0: c6c3 253c efb0 263d c392 f4bd d622 363e
000000d0: 1edd 123e 47d8 98be d689 f9bc 2bc6 30be
000000e0: c31a c73d f850 ec3d 73b5 cabd 818a debc
000000f0: 56e4 adbd 3c49 abbc 5810 3d3e d2ac e9bd
0.09572745 0.024273273 0.0860914 0.13226047 -0.048561137 -0.17714682 -0.15072963 -0.09422973
0.08057376 0.108457364 0.007401212 0.1395885 0.11898197 -0.23412362 0.20469604 -0.04403859
0.07854335 0.1520857 0.09935718 -0.060568746 0.11496698 -0.16529652 0.030025635 0.31178156
0.05342442 -0.23074573 -0.27300176 -0.0633358 -0.2163305 -0.01076871 0.059724223 -0.03331743
0.09463103 0.08622703 -0.17288695 -0.2011701 0.13126618 0.13001771 -0.14773226 0.09189232
0.0676029 0.046534047 -0.046228252 -0.11801989 0.24028121 -0.10162703 0.025074707 0.09357609
0.010117477 0.04069608 -0.11942055 0.17786726 0.14342162 -0.29852507 -0.030461233 -0.17263095
0.09721901 0.11538881 -0.0989789 -0.027165653 -0.08490817 -0.020908944 0.18463266 -0.11409916

conv2d_1/kernel:0 f4 [2, 1, 4, 4]
00000000: eefc 3dbe 85ea bbbe dc46 a33e 10f9 e93e
00000010: ffeb e5be 3db5 cebe 1987 b23e c052 363f
00000020: 0363 c9be 27de 233e 6419 0d3f 44c4 d03e
00000030: 50cd 073e 489f 183e 5320 0c3f 4f31 43be
00000040: a91e d53e faad c13e 38a7 823e 6071 38be
00000050: 72e3 873e 5b13 493f cb09 3a3f bcc7 623e
00000060: fb7c 3dbf 243c c7be 84f2 913e 0d45 2d3f
00000070: 0c27 02bf bd6f 2cbf 5b60 20bf 8156 433e
-0.18553516 -0.36702362 0.3189 0.45697832 -0.44906613 -0.4037265 0.34868696 0.71220016
-0.39333352 0.16002713 0.5511687 0.4077474 0.13261914 0.14904511 0.5473682 -0.19061778
0.41624954 0.37828046 0.25518203 -0.18011999 0.26540715 0.7854516 0.7267119 0.22146505
-0.7401883 -0.3891307 0.28505337 0.6768349 -0.5084083 -0.67358 -0.62647027 0.19075967

conv2d_1/bias:0 f4 [2]
00000000: a7cf 02bf 171c 9dbe
-0.510981 -0.30685493
