resources/onnx/cnn_max_mninst2.onnx (onnx, 67774 bytes, 8 tensors)

dense_15_1/kernel:0 f4 [32, 10]
0.012132901 0.056918364 -0.43592396 0.32229847 -0.29514343 -0.23164348 0.11899306 -0.47317207
-0.26160267 -0.09407968 0.124837734 -0.41452622 0.26353282 0.1692817 -0.47665688 0.32504463
-0.032148056 -0.36302 -0.09039209 -0.17249638 -0.24666098 0.3109601 -0.41547698 -0.5193933
0.3009193 -0.44989508 0.029669803 -0.32334793 -0.28783515 0.18603674 -0.2651992 0.24587262
0.26677948 -0.23815368 0.3769529 -0.41511646 0.3309863 0.36986566 -0.30150202 -0.00976094
-0.2463766 0.31407163 0.06214159 -0.2516975 -0.4071156 -0.01908911 0.26673892 -0.010320717
0.058861338 -0.45577523 -0.10525575 -0.1377775 0.1015328 -0.24906129 0.5518305 -0.23589943
-0.2591309 -0.5177172 -0.095418654 0.07639931 0.09601656 -0.0826903 0.19901632 0.18922879
0.078682154 -0.33584258 -0.52972114 -0.056843244 0.0028771884 -0.34460828 -0.02894465 0.103391
0.1407429 0.18476826 -0.07314457 -0.35507905 0.26239845 0.28414422 0.08127728 0.05306572
-0.1267901 0.2212427 -0.2764379 -0.057928305 0.22672202 0.061606254 -0.3610872 -0.5602265
0.31395015 0.24539098 0.09118157 -0.32890543 -0.0123125315 -0.32086405 0.3024292 0.16750643
-0.121792056 -0.057680886 -0.48936912 0.34293985 -0.38714206 0.12599999 -0.014400848 0.0031873437
0.32501048 0.34361085 0.21117255 0.08104294 0.39599136 -0.2769574 -0.2052756 0.033001043
-0.17463358 -0.099401325 -0.34966785 0.11523444 -0.68933755 0.28440815 -0.037579477 0.25140586
0.042468153 -0.01800557 0.25284865 -0.28730857 -0.34181744 -0.28610626 0.08169807 -0.0032290656
-0.33020726 -0.08759452 0.25279942 0.48299202 0.00445708 -0.08688881 -0.34958708 0.15466529
-0.26785833 0.3168343 -0.5758275 -0.3565934 0.12918732 -0.17497969 -0.5532164 -0.39476794
0.07937051 0.18013872 0.42800632 0.2816115 -0.08740195 -0.41928476 -0.057098858 -0.017002357
0.4170554 -0.008156436 0.25037193 -0.086344 0.23181763 0.005057003 -0.24140248 -0.7231659
-0.4357222 -0.43217427 -0.05541357 0.3606489 0.19555944 0.15716502 -0.21171819 0.39986572
0.21000935 0.25849554 0.3817226 0.4988927 -0.3839602 -0.16360089 -0.41699782 0.3022519
-0.14395517 0.46671173 0.018580008 -0.09976721 0.19845389 -0.008046808 -0.2911904 0.27457485
-0.13372497 0.24878368 0.115739726 0.36482924 -0.1904 -0.34474456 0.36489746 -0.754591
-0.09200853 -0.42381957 -0.13623238 0.022533026 0.26019606 -0.3455963 0.2255364 0.25168714
-0.13872814 -0.2540892 -0.5762963 0.10840008 0.2034062 0.17696683 0.27403888 -0.3836187
0.07984301 0.26742563 -0.12884833 0.00818623 0.2820304 -0.19013931 -0.038289484 -0.38230854
0.013327673 -0.29681116 0.3870617 0.1155412 0.208318 -0.44157508 0.045338824 -0.3039436
0.17358106 -0.48471278 -0.37095523 -0.2034723 -0.2608942 0.2588813 -0.19474974 0.4116965
-0.16735645 -0.5885113 0.3513376 0.4129135 -0.067735255 -0.30812487 -0.053927656 -0.33755267
0.027808765 0.24396305 -0.37654772 -0.23982458 0.48969483 -0.03658734 0.31288788 -0.35355034
-0.6195461 0.5332263 -0.12602241 0.36383313 -0.13552919 0.34741685 -0.20704152 0.25905013
00000000: 13c9 463c 3b23 693d 6d31 dfbe 4e04 a53e
00000010: 0a1d 97be f333 6dbe a2b2 f33d 9c43 f2be
00000020: c9f0 85be d9ac c0bd edaa ff3d c83c d4be
00000030: c6ed 863e 2f58 2d3e 5f0c f4be 406c a63e
00000040: aead 03bd c2dd b9be 7d1f b9bd e4a2 30be
00000050: b294 7cbe 2a36 9f3e 66b9 d4be f6f6 04bf
00000060: 1812 9a3e a658 e6be 160e f33c dc8d a5be
00000070: 215f 93be 6a80 3e3e 31c8 87be 08c6 7b3e
00000080: 5297 883e 8fde 73be f8ff c03e 258a d4be
00000090: 0977 a93e 085f bd3e 795e 9abe 5aec 1fbc
000000a0: 264a 7cbe ffcd a03e 2e88 7e3d 7fde 80be
000000b0: 7571 d0be c460 9cbc 0192 883e 3918 29bc
000000c0: 9618 713d 5f5b e9be 5490 d7bd 8c15 0dbe
000000d0: 6ef0 cf3d ec09 7fbe c344 0d3f 9f8f 71be
000000e0: ceac 84be 1d89 04bf db6a c3bd 3e77 9c3d
000000f0: 55a4 c43d 8859 a9bd efca 4b3e 31c5 413e
00000100: 1c24 a13d 8ff3 abbe ce9b 07bf 76d4 68bd
00000110: 368f 3c3b 7f70 b0be 551d edbc a9be d33d
00000120: e81e 103e e433 3d3e d2cc 95bd eccc b5be
00000130: 1759 863e 5a7b 913e b474 a63d 715b 593d
00000140: 44d5 01be 728d 623e 4589 8dbe 3b46 6dbd
00000150: d129 683e d756 7c3d 6ce0 b8be 016b 0fbf
00000160: 13be a03e c647 7b3e 67bd ba3d 4b66 a8be
00000170: 80ba 49bc 4b48 a4be 00d8 9a3e ce86 2b3e
00000180: 1d6e f9bd cb42 6cbd 978e fabe d095 af3e
00000190: 7c37 c6be 2406 013e 89f1 6bbc c1e2 503b
000001a0: c667 a63e c3ed af3e 9e3d 583e d7f9 a53d
000001b0: 61bf ca3e 5ccd 8dbe c433 52be 1a2c 073d
000001c0: 25d3 32be ec92 cbbd aa07 b3be 0900 ec3d
000001d0: 6d78 30bf f29d 913e f0ec 19bd 45b8 803e
000001e0: 16f3 2d3d 6b80 93bc 6175 813e 1c1a 93be
000001f0: b202 afbe 857c 92be 5151 a73d bb9e 53bb
00000200: ed10 a9be c164 b3bd ed6e 813e bb4a f73e
00000210: b20c 923b c3f2 b1bd 14fd b2be 9460 1e3e
00000220: ba24 89be 1b38 a23e 6e69 13bf 6993 b6be
00000230: ae49 043e e02d 33be 979f 0dbf 061f cabe
00000240: 028d a23d 4976 383e a523 db3e 622f 903e
00000250: cbff b2bd 7eac d6be 7ee0 69bd 8748 8bbc
00000260: 4988 d53e 92a2 05bc c030 803e 20d5 b0bd
00000270: 9a61 6d3e 37b5 a53b 3632 77be 6721 39bf
00000280: fb16 dfbe f245 ddbe 57f9 62bd f9a6 b83e
00000290: bc40 483e deef 203e a7cc 58be 33bb cc3e
000002a0: b10c 573e 8759 843e 2571 c33e dd6e ff3e
000002b0: 6e96 c4be fe86 27be bd80 d5be c3c0 9a3e
000002c0: fc68 13be d7f4 ee3e 1a35 983c c052 ccbd
000002d0: 7f37 4b3e c2d6 03bc e816 95be 1395 8c3e
000002e0: 33ef 08be 26c1 7e3e f308 ed3d e6ca ba3e
000002f0: 38f8 42be 5c82 b0be d7d3 ba3e e02c 41bf
00000300: f86e bcbd e1fe d8be 8080 0bbe 2e97 b83c
00000310: 6b38 853e 00f2 b0be 04f3 663e 23dd 803e
00000320: c00e 0ebe fb17 82be 2888 13bf dc00 de3d
00000330: b749 503e cb36 353e d34e 8c3e ac69 c4be
00000340: bb84 a33d 03ec 883e d1f0 03be 8a1f 063c
00000350: 4a66 903e e1b3 42be 6fd5 1cbd f2bd c3be
00000360: 505c 5a3c a2f7 97be f32c c63e dda0 ec3d
00000370: 5051 553e 2116 e2be 34b5 393d 7f9e 9bbe
00000380: 3cbf 313e 462c f8be d8ed bdbe 0b5b 50be
00000390: ed93 85be 178c 843e 7a6c 47be e2c9 d23e
000003a0: 7d5f 2bbe ada8 16bf 86e2 b33e 6669 d33e
000003b0: c8b8 8abd 8bc2 9dbe 3fe3 5cbd b4d3 acbe
000003c0: 35cf e33c 73d1 793e ddca c0be 9394 75be
000003d0: 48b9 fa3e 9bdc 15bd d732 a03e 8d04 b5be
000003e0: 939a 1ebf 8581 083f 050c 01be 5648 ba3e
000003f0: 2ac8 0abe 9fe0 b13e b102 54be 38a2 843e

dense_15_1/bias:0 f4 [10]
0.120803155 0.085428946 0.091456115 -0.09854711 -0.016712565 -0.09780023 -0.017868672 0.055727
-0.014751817 -0.04502401
00000000: a567 f73d 5ff5 ae3d 584d bb3d 11d3 c9bd
00000010: cae8 88bc 7d4b c8bd 5261 92bc ff41 643d
00000020: 9bb1 71bc 196b 38bd

dense_14_1/kernel:0 f4 [484, 32]
0.114345655 0.07847744 0.22380109 0.091338985 0.010518205 -0.10055737 0.101712905 0.04635167
-0.02840979 0.072265774 0.25337735 -0.055823166 -0.03656313 0.054324396 0.116203055 0.023168115
-0.14806698 0.07888346 0.05726344 0.09609601 0.1101244 0.0398662 0.033197258 -0.038461845
0.07149717 0.06238012 -0.05865648 -0.06156963 0.06926994 -0.006374018 0.024292007 -0.005687213
0.031732947 -0.21915324 0.1573739 0.1670174 0.09817065 -0.2748008 -0.117710866 0.15088744
0.14975801 -0.13166247 0.23050486 -0.13986191 0.026340311 -0.10115812 0.14182483 0.0071590547
-0.0835965 -0.000119789016 0.09963037 -0.010812031 0.16234411 -0.15833616 -0.18262123 -0.2474126
0.074421264 0.1666834 0.017831525 -0.1448508 0.09566109 -0.14576566 0.15129074 -0.09813806
0.10823303 -0.03789421 0.0024827884 0.047361948 -0.07600538 0.06699728 0.12237349 -0.11756497
-0.090910725 0.12561147 0.15292484 0.03404319 0.014491767 -0.015315869 0.05629972 -0.0065464834
-0.019524606 0.15801282 0.12334835 -0.09765061 0.1209341 -0.14206518 0.02881125 -0.0021738724
-0.03639962 0.19325987 -0.024039935 -0.20096852 -0.032793596 -0.06524258 0.050931618 -0.10752116
-0.010934988 -0.10820091 0.2675487 0.11668745 -0.083966374 -0.008257737 0.06351493 0.027939636
-0.13992706 0.03480354 0.06696949 -0.06892152 -0.027642392 0.044948913 0.21876453 -0.018356068
-0.12768023 -0.023234352 0.05683467 0.14118126 -0.014040263 -0.0119565725 0.11219328 0.0675033
0.09639274 -0.120437495 -0.08393612 -0.24270187 0.038410492 0.14026633 -0.018605968 -0.055238422
-0.16837412 0.10094671 0.13514169 0.007548871 -0.1973517 -0.16170032 -0.04317911 -0.11554322
-0.07905904 -0.006720504 0.0949853 -0.18701978 0.05490844 -0.055717926 0.18873678 -0.09194441
-0.11674887 -0.20882381 -0.061548427 -0.18309605 0.0426957 0.11106595 -0.051369272 -0.24292003
0.015371732 -0.052246287 -0.038891617 -0.048909783 0.03756944 0.057193566 0.00093455653 0.094600596
-0.022899413 -0.0140546225 0.16835687 -0.1050864 0.08957244 -0.09083771 -0.061313037 0.05479553
0.1227327 -0.077829875 0.10868331 -0.3034281 0.018772608 -0.06414283 0.26625314 0.13439618
-0.079204686 -0.25774932 -0.11293667 0.07833942 0.17593908 0.10259613 -0.17392617 -0.21149987
-0.022586752 -0.11353023 0.006356426 -0.17001772 0.057788014 -0.014394859 0.053046647 0.1576237
-0.016265064 0.033578698 0.11494353 0.016714852 -0.3053965 0.027757369 -0.018087259 -0.071335904
-0.112465575 -0.010768877 0.17179364 -0.036813736 -0.16206577 0.053907283 0.04579194 0.057073817
0.020628344 -0.06659802 -0.005277299 -0.16329303 0.14137071 -0.13105392 0.059411038 -0.12896073
-0.00010001223 0.052362554 -0.058489244 -0.14129995 -0.10532144 -0.04075837 -0.014581052 0.037522815
-0.038585685 -0.012788213 0.22946054 0.06513794 -0.11685379 -0.0025848527 0.07625012 0.0053612236
0.015444 -0.055835817 0.094610944 0.08251666 0.022271574 -0.024889264 0.13200317 -0.08911464
-0.023768263 0.153026 0.09452992 0.10599584 -0.12792136 -0.01842611 0.077495575 0.013956179
0.17829405 0.0010403869 -0.09433298 -0.10921862 0.008352958 -0.021858932 -0.030412594 0.009972776
00000000: 0e2e ea3d c8b8 a03d 1d2c 653e ef0f bb3d
00000010: 8d54 2c3c 06f1 cdbd db4e d03d 40db 3d3d
00000020: a6bb e8bc 1400 943d adba 813e d5a6 64bd
00000030: 38c3 15bd 4283 5e3d defb ed3d 0fcb bd3c
00000040: df9e 17be a78d a13d 128d 6a3d fccd c43d
00000050: e788 e13d be4a 233d d9f9 073d 2b8a 1dbd
00000060: 1c6d 923d 4c82 7f3d c741 70bd 7030 7cbd
00000070: 66dd 8d3d 23dd d0bb 0800 c73c cd5b babb
00000080: 68fa 013d b569 60be a026 213e 9c06 2b3e
00000090: b20d c93d b1b2 8cbe 6512 f1bd 3d82 1a3e
000000a0: 2a5a 193e 87d2 06be 7709 6c3e f637 0fbe
000000b0: a3c7 d73c fd2b cfbd 873a 113e 8196 ea3b
000000c0: a434 abbd 3d37 fbb8 020b cc3d f224 31bc
000000d0: 893d 263e e022 22be 0f01 3bbe bb59 7dbe
000000e0: 2d6a 983d 0eaf 2a3e 6b13 923c c553 14be
000000f0: f6e9 c33d 9843 15be f6eb 1a3e 9bfc c8bd
00000100: 47a9 dd3d f636 1bbd 47b6 223b 9afe 413d
00000110: b5a8 9bbd df35 893d f49e fa3d e7c5 f0bd
00000120: 672f babd 4ba0 003e 5498 1c3e df70 0b3d
00000130: e06e 6d3c 69ef 7abc 899a 663d e283 d6bb
00000140: 11f2 9fbc 1dce 213e 0f9e fc3d 0bfd c7bd
00000150: 4cac f73d 8979 11be 9205 ec3c 8777 0ebb
00000160: c517 15bd eae5 453e 66ef c4bc b1ca 4dbe
00000170: 9452 06bd e79d 85bd ac9d 503d 0e34 dcbd
00000180: aa28 33bc 7098 ddbd 25fc 883e d4f9 ee3d
00000190: 90f6 abbd 764b 07bc 1e14 823d aae1 e43c
000001a0: 0a49 0fbe 288e 0e3d 4d27 893d ba26 8dbd
000001b0: 4c72 e2bc 5a1c 383d cf03 603e 775f 96bc
000001c0: 9bbe 02be f855 bebc 79cb 683d d291 103e
000001d0: 2209 66bc 80e5 43bc 97c5 e53d 2c3f 8a3d
000001e0: 8f69 c53d efa7 f6bd b3e6 abbd d786 78be
000001f0: 5254 1d3d faa1 0f3e 8b6b 98bc af41 62bd
00000200: 446a 2cbe 26bd ce3d 9562 0a3e 855c f73b
00000210: 9016 4abe c594 25be 94dc 30bd eca1 ecbd
00000220: b5e9 a1bd ac37 dcbb a787 c23d 1d82 3fbe
00000230: ace7 603d 7b38 64bd 3744 413e 5a4d bcbd
00000240: 081a efbd e9d5 55be 341a 7cbd 887d 3bbe
00000250: b0e1 2e3d 8b76 e33d 9668 52bd 07c0 78be
00000260: b8d9 7b3c 3400 56bd d14c 1fbd a055 48bd
00000270: 6ae2 193d cd43 6a3d 07fd 743a f5bd c13d
00000280: 8d97 bbbc 5c45 66bc be65 2c3e 8a37 d7bd
00000290: c171 b73d 1f09 babd 6123 7bbd 4771 603d
000002a0: 485b fb3d 4565 9fbd 5b95 de3d ee5a 9bbe
000002b0: 03c9 993c 515d 83bd 5552 883e 279f 093e
000002c0: 1136 a2bd b8f7 83be 574b e7bd 6b70 a03d
000002d0: 6029 343e eb1d d23d b419 32be 6c93 58be
000002e0: da07 b9bc 8a82 e8bd 9149 d03b 2019 2ebe
000002f0: 20b3 6c3d 6ad8 6bbc 7147 593d 1b68 213e
00000300: 503e 85bc d189 093d 8367 eb3d 96ed 883c
00000310: ee5c 9cbe 6c63 e33c bb2b 94bc 8f18 92bd
00000320: 5a54 e6bd f26f 30bc acea 2f3e 00ca 16bd
00000330: 92f4 25be e2cd 5c3d 5490 3b3d 3cc6 693d
00000340: c6fc a83c 8b64 88bd 31ed acbb 4a36 27be
00000350: 7cc3 103e 0033 06be fd58 733d 480e 04be
00000360: a8bd d1b8 1e7a 563d 6b92 6fbd efb0 10be
00000370: c4b2 d7bd 40f2 26bd 5de5 6ebc 86b1 193d
00000380: 060c 1ebd a785 51bc b4f7 6a3e 0a67 853d
00000390: 0a51 efbd a266 29bb 0629 9c3d 34ad af3b
000003a0: d508 7d3c 19b4 64bd 62c3 c13d 7ffe a83d
000003b0: e072 b63c 92e4 cbbc d72b 073e bd81 b6bd
000003c0: a9b5 c2bc d9b2 1c3e e798 c13d 5914 d93d
000003d0: d1fd 02be 5af2 96bc 00b6 9e3d 75a8 643c
000003e0: b792 363e 975d 883a a631 c1bd 03ae dfbd
000003f0: d8da 083c 8111 b3bc d523 f9bc db64 233c

dense_14_1/bias:0 f4 [32]
-0.02757697 -0.01398955 0.12331542 0.08611497 0.072441995 0.040419213 0.014675191 0.0014794307
0.060664408 0.03697724 0.07673867 0.024034694 0.12317156 0.0603066 0.16983137 0.055451985
-0.12732072 0.10624653 0.05683078 0.10006254 -0.052900646 0.051691025 0.06745805 0.116711065
0.07643434 -0.013723603 -0.08783419 0.004304373 -0.05255516 0.08628888 0.018243259 -0.053835
00000000: 19e9 e1bc 6d34 65bc cb8c fc3d 0c5d b03d
00000010: 785c 943d 9e8e 253d 3670 703c 75e9 c13a
00000020: 3e7b 783d 7275 173d 2a29 9d3d 68e4 c43c
00000030: 5f41 fc3d 0e04 773d 46e8 2d3e 9f21 633d
00000040: 5d60 02be c897 d93d 64c7 683d 97ed cc3d
00000050: 59ae 58bd f8b9 533d 7227 8a3d 3606 ef3d
00000060: 9b89 9c3d f7d8 60bc 69e2 b3bd b30b 8d3b
00000070: 1444 57bd 39b8 b03d e372 953c 1782 5cbd

conv2d_15_1/kernel:0 f4 [4, 8, 4, 4]
-0.042581975 0.043508295 0.105930746 0.44425306 0.008632451 -0.13587925 0.19126536 0.36615324
0.35177308 -0.07095975 -0.037880242 -0.026896108 0.019206764 -0.07949951 -0.19153984 -0.22811791
-0.2287675 -0.15352142 0.117195256 0.008554406 -0.22675814 -0.2591836 -0.11736987 0.18500538
-0.23566347 -0.04466957 0.04622294 0.12173515 0.20948115 0.2252095 0.32370442 0.13227177
0.042717643 -0.07756245 -0.12187552 -0.045997817 0.3167207 -0.10057645 -0.11650374 -0.037350018
0.13371322 -0.20352991 -0.18988818 0.034772415 -0.093564704 -0.4740765 -0.63413936 -0.26831946
-0.18878692 -0.16618307 -0.15141743 0.05912058 -0.079756916 -0.20494631 -0.21827735 0.059242602
-0.43702355 -0.4875229 -0.06816378 0.005958774 -0.5044892 -0.33955604 0.07381256 0.33288288
0.029260008 -0.22627708 -0.39951432 -0.20871176 -0.014213088 -0.05653681 -0.119315855 0.08583123
-0.24513198 0.0130742015 0.13714515 -0.17397258 0.011258717 0.25666133 -0.13946645 -0.258248
-0.24900644 -0.016081162 0.029544823 0.22051786 -0.092212 -0.3124092 -0.16517368 -0.023735462
-0.09143929 -0.18272144 0.0070222714 0.1914633 0.08210554 0.025100686 0.049829178 0.22601959
-0.28170863 -0.070039034 -0.24506788 0.055749517 -0.051314976 -0.14667976 -0.16553158 0.03769913
0.18815373 -0.102015555 -0.08742549 -0.3732801 0.1898189 0.14252327 -0.056252275 -0.3301609
-0.18693966 -0.24387747 -0.14536764 0.14000003 -0.10490269 -0.23520681 -0.1983874 0.080607265
-0.19017401 -0.036415733 0.11665907 0.27625188 0.04147707 0.17827426 0.1970992 0.030637631
0.2514932 0.2513642 -0.06980191 -0.04974949 0.12783928 -0.02909322 0.19511639 -0.12394768
0.08609253 -0.034298223 -0.12029295 -0.07594864 0.093793415 0.005652245 0.10903657 -0.0024612416
0.026391016 -0.123474576 -0.015334917 0.056524597 -0.11319203 -0.06739274 0.1570717 0.13872907
-0.19782086 0.079336815 0.032329693 -0.16628432 -0.13130206 0.093230546 0.027805876 0.212219
0.14861535 -0.024688937 -0.017478475 0.044429965 0.08349186 0.17993517 -0.07216713 0.020047853
-0.107872784 -0.117841214 0.10687227 -0.007159714 0.07427605 0.015530513 -0.06260474 -0.17061631
-0.05115538 -0.12311059 0.031000454 0.1850482 -0.0347446 0.12053632 -0.112908095 0.22971132
0.09357514 -0.042727225 -0.06583687 0.0996903 -0.12059153 0.18580237 0.020322615 0.21973436
-0.07036679 -0.18340755 0.19919963 0.17250349 -0.16599043 -0.14288326 -0.23648576 -0.05517006
0.026630457 -0.07134839 -0.22356193 -0.24289468 -0.20461021 -0.07306881 -0.40936613 -0.163732
-0.10668572 -0.09900728 0.08924288 -0.02960338 0.07072628 0.09304264 0.06414845 -0.0136189815
-0.11152566 -0.017537102 0.14772204 0.09335468 0.07514106 0.19014144 0.20044947 -0.1584271
0.18737836 -0.1902939 -0.28578275 -0.39342827 0.0045944564 -0.31353354 -0.5618064 -0.41263103
-0.018144045 -0.37114748 -0.47455367 -0.38090187 -0.09951785 -0.27685493 -0.21750966 -0.22228195
-0.032567255 -0.046377417 0.101246536 -0.023768518 -0.04484195 0.03609458 0.130524 -0.16183169
-0.024221478 -0.007816683 0.17306463 -0.070617 0.07852664 0.1293459 0.04988128 0.04641793
00000000: 706a 2ebd c135 323d 38f2 d83d 2375 e33e
00000010: 206f 0d3c ee23 0bbe 11db 433e 7078 bb3e
00000020: 9a1b b43e 5853 91bd 5028 1bbd 3a55 dcbc
00000030: 8157 9d3c a4d0 a2bd 0523 44be be97 69be
00000040: 0742 6abe b834 1dbe 1104 f03d c827 0c3c
00000050: 4933 68be b6b3 84be 9d5f f0bd 0d72 3d3e
00000060: c451 71be 70f7 36bd 4454 3d3d 4750 f93d
00000070: 3a82 563e 529d 663e 96bc a53e 4072 073e
00000080: b2f8 2e3d 10d9 9ebd df99 f9bd 3568 3cbd
00000090: 3729 a23e 07fb cdbd 8399 eebd 55fc 18bd
000000a0: 1eec 083e 256a 50be 0c72 42be 856d 0e3d
000000b0: da9e bfbd 28ba f2be f556 22bf 2b61 89be
000000c0: 5c51 41be e52b 2abe 2c0d 1bbe 6c28 723d
000000d0: 9857 a3bd 72dd 51be 1984 5fbe 5fa8 723d
000000e0: 8dc1 dfbe 9a9c f9be 7499 8bbd d241 c33b
000000f0: 3426 01bf 4ada adbe 0a2b 973d a06f aa3e
00000100: afb2 ef3c 2eb5 67be 248d ccbe 89b8 55be
00000110: 03de 68bc 2493 67bd df5b f4bd 49c8 af3d
00000120: e103 7bbe 2d35 563c c76f 0c3e de25 32be
00000130: 7b76 383c 1d69 833e 4bd0 0ebe 1539 84be
00000140: 8bfb 7ebe a4bc 83bc fc07 f23c 6fcf 613e
00000150: a5d9 bcbd 19f4 9fbe 4a23 29be df70 c2bc
00000160: 8644 bbbd 541b 3bbe 151b e63b f50e 443e
00000170: f326 a83d f49f cd3c ae19 4c3d ae71 673e
00000180: 1d3c 90be a070 8fbd 13f3 7abe 9b59 643d
00000190: a72f 52bd 3833 16be 1c81 29be 676a 1a3d
000001a0: 5fab 403e 88ed d0bd 230c b3bd 921e bfbe
000001b0: e35f 423e 9ff1 113e c968 66bd d90a a9be
000001c0: 1c6d 3fbe 04bb 79be 41db 14be 2b5c 0f3e
000001d0: 39d7 d6bd 0eda 70be 1126 4bbe 6c15 a53d
000001e0: fabc 42be aa28 15bd f3ea ee3d e370 8d3e
000001f0: dce3 293d 878d 363e 5fd4 493e c5fb fa3c
00000200: b7c3 803e cfb2 803e 4ef4 8ebd 1fc6 4bbd
00000210: 4de8 023e e854 eebc 97cc 473e 48d8 fdbd
00000220: 4851 b03d 4b7c 0cbd 265c f6bd f68a 9bbd
00000230: c316 c03d 7836 b93b 914e df3d c84c 21bb
00000240: f931 d83c 3de0 fcbd 4e3f 7bbc 5686 673d
00000250: 39d1 e7bd 3405 8abd 67d7 203e fe0e 0e3e
00000260: 8d91 4abe 577b a23d 246c 043d 7046 2abe
00000270: 0c74 06be a8ef be3d 26c9 e33c f04f 593e
00000280: 9f2e 183e 7440 cabc 052f 8fbc 32fc 353d
00000290: c8fd aa3d ed40 383e 5ccc 93bd 653b a43c
000002a0: 68ec dcbd bc56 f1bd d9df da3d 099c eabb
000002b0: 0b1e 983d b173 7e3c ea36 80bd 0bb6 2ebe
000002c0: 4e88 51bd 6821 fcbd aaf4 fd3c 467d 3d3e
000002d0: 5b50 0ebd bfdb f63d 5c3c e7bd 7239 6b3e
000002e0: 53a4 bf3d be02 2fbd 7bd5 86bd 6e2a cc3d
000002f0: b1f8 f6bd fa42 3e3e 9d7b a63c 0b02 613e
00000300: 771c 90bd 30cf 3bbe fdfa 4b3e c1a4 303e
00000310: 65f9 29be fd4f 12be 5329 72be 00fa 61bd
00000320: 1e28 da3c 1b1f 92bd 6bed 64be 62b9 78be
00000330: 5785 51be 1aa5 95bd 7098 d1be 5da9 27be
00000340: 0b7e dabd 54c4 cabd f9c4 b63d ca82 f2bc
00000350: f1d8 903d 248d be3d 4360 833d 2622 5fbc
00000360: 9167 e4bd f8a9 8fbc 7244 173e bd30 bf3d
00000370: 8ee3 993d 70b4 423e a042 4d3e b73a 22be
00000380: 1de0 3f3e 67dc 42be 1e52 92be 6e6f c9be
00000390: 188d 963b 7887 a0be 8bd2 0fbf 6044 d3be
000003a0: d2a2 94bc 0b07 bebe b3f8 f2be 9205 c3be
000003b0: 04d0 cbbd eebf 8dbe daba 5ebe e19d 63be
000003c0: 3e65 05bd 3ff6 3dbd 585a cf3d 32b6 c2bc
000003d0: 31ac 37bd e9d7 133d 15a8 053e 35b7 25be
000003e0: 1f6c c6bc 8b11 00bc db37 313e a59f 90bd
000003f0: 93d2 a03d 4073 043e 5050 4c3d ba20 3e3d

conv2d_15_1/bias:0 f4 [4]
0.087681286 -0.07642446 -0.045525 -0.05023245
00000000: 3f92 b33d 6d84 9cbd 6c78 3abd 8bc0 4dbd

conv2d_14_1/kernel:0 f4 [8, 1, 4, 4]
0.021018133 0.19341546 0.2522315 0.36390167 0.092910364 0.27292198 0.058722794 0.21455559
-0.06449441 -0.22332717 -0.16631377 0.27137473 -0.3207537 -0.44924173 -0.28429186 0.19378163
-0.29761016 -0.30995235 -0.15022586 0.077096306 -0.55127287 0.006452454 0.13599831 0.14955364
-0.2755026 -0.08448683 0.16143504 0.29995704 -0.22114952 0.103869 0.4017525 0.37702134
0.26495227 -0.1005298 0.06415249 0.22700363 0.251928 0.22472239 0.1245257 0.12712446
-0.049668573 0.09138231 0.001371558 0.08533426 -0.40152296 -0.46784288 -0.26666066 -0.16411251
0.03884778 -0.06551593 0.05537419 0.25326964 0.10483499 0.105292015 0.10083665 -0.027124628
0.4208139 0.38479468 0.13289575 -0.50858533 0.03986386 -0.048246484 -0.07146369 -0.3778596
0.04599323 -0.2294743 -0.02743158 -0.38281673 0.2524669 0.033936284 -0.2054558 -0.3090929
0.005385637 0.33677146 -0.11155005 -0.12889545 0.015405923 0.1592308 0.29525208 0.5097976
0.2203787 0.053419895 0.10737664 0.019196184 0.12254925 -0.21604967 -0.0180389 -0.07068595
-0.1023958 0.023201026 0.2783261 0.25604758 0.03842617 0.34977835 0.20350519 0.16003846
0.21620806 0.23675106 0.19554734 0.021186432 -0.13910303 -0.102396235 0.16604929 0.15696359
-0.41922006 -0.49647847 -0.65945715 -0.5298185 0.2167321 0.034799177 0.1670317 -0.17804147
-0.08057685 -0.12053607 0.11816698 -0.2168481 -0.13162619 -0.14559533 -0.15893748 0.029114937
0.18925874 0.104590975 0.3238225 -0.11036254 0.21701589 0.36689898 0.32266414 0.32834923
00000000: 382e ac3c b40e 463e 7d24 813e 5251 ba3e
00000010: ca47 be3d 6ebc 8b3e 5087 703d 76b4 5b3e
00000020: a515 84bd e1af 64be 284e 2abe a1f1 8a3e
00000030: d439 a4be 0303 e6be b48e 91be b16e 463e
00000040: 5c60 98be 13b2 9ebe cfd4 19be abe4 9d3d
00000050: 3820 0dbf 1b6f d33b 2443 0b3e 9724 193e
00000060: ad0e 8dbe 6e07 adbd 3a4f 253e f893 993e
00000070: 0575 62be 45b9 d43d 81b2 cd3e f108 c13e
00000080: d3a7 873e 91e2 cdbd 6162 833d a473 683e
00000090: b5fc 803e a01d 663e 5507 ff3d ea2c 023e
000000a0: 4671 4bbd a626 bb3d dac5 b33a bac3 ae3d
000000b0: 6b94 cdbe 1a89 efbe bf87 88be 1c0d 28be
000000c0: da1e 1f3d 372d 86bd 0cd0 623d 8fac 813e
000000d0: bab3 d63d 57a3 d73d 7283 ce3d 7834 debc
000000e0: eb74 d73e cf03 c53e d315 083e a632 02bf
000000f0: 4948 233d 1b9e 45bd 8e5b 92bd d076 c1be
00000100: 6663 3c3d 50fb 6abe 31b8 e0bc 8e00 c4be
00000110: 5743 813e c600 0b3d 0163 52be 6d41 9ebe
00000120: ff79 b03b 4f6d ac3e 5a74 e4bd 2bfd 03be
00000130: 2069 7c3c 660d 233e 482b 973e 1882 023f
00000140: f4aa 613e d2ce 5a3d 49e8 db3d 5141 9d3c
00000150: 1afb fa3d 203c 5dbe 51c6 93bc ccc3 90bd
00000160: e4b4 d1bd 1410 be3c c280 8e3e ab18 833e
00000170: c264 1d3d 2616 b33e aa63 503e 1fe1 233e
00000180: a565 5d3e df6e 723e 903d 483e 2b8f ad3c
00000190: 0671 0ebe 1eb5 d1bd d308 2a3e 10bb 203e
000001a0: 03a4 d6be 6d32 febe 2fd2 28bf 2fa2 07bf
000001b0: 05ef 5d3e 9589 0e3d 5c0a 2b3e 8150 36be
000001c0: 7a05 a5bd 9ddb f6bd 8801 f23d 6e0d 5ebe
000001d0: 04c9 06be f116 15be 82c0 22be 7382 ee3c
000001e0: 0bcd 413e cb33 d63d 10cc a53e c105 e2bd
000001f0: 6a39 5e3e 2fda bb3e 3c34 a53e 641d a83e

conv2d_14_1/bias:0 f4 [8]
0.09152349 0.02098461 0.08646543 0.025660306 -0.0073538977 -0.05271397 0.05979137 0.061852224
00000000: ab70 bb3d ebe7 ab3c ca14 b13d 9035 d23c
00000010: f7f8 f0bb 9bea 57bd cce7 743d c258 7d3d
