resources/onnx/conv_mp1.onnx (onnx, 18784 bytes, 6 tensors)

conv1.bias f4 [8]
00000000: 3736 3b3e 7dca d0bd abf4 9cbd 7aad 43be
00000010: f014 8e3c c42e 1ebe 8899 81bd 6f3a 2b3e
0.182824 -0.101948716 -0.07663854 -0.19109145 0.017343968 -0.15447527 -0.06328112 0.1672151

conv1.weight f4 [8, 3, 3, 3]
00000000: ba5a c63d 8547 253e 1dfb 1c3e 70ed 823c
00000010: 725e ed3d 7962 e6bd 77b2 3d3e 0f8d 16be
00000020: cd22 3a3e 6aa5 9d3d f0cc e13c 600b 3e3c
00000030: 0f13 1a3e d83b f23c 13ab 073e 40e0 86bd
00000040: 284c 22be b674 943d e0c8 a0bb eaa1 d53d
00000050: 4cd8 543d 252a 393e 4b4c 3a3e cad1 903d
00000060: 8e70 d63d b027 12be ce4c cf3d 3fe7 a5bd
00000070: 3141 283e 10e0 98bc 88f7 19bd 3d11 0c3e
00000080: 880f d3bc 5ffa 403e dd68 a1bd 0962 c9bd
00000090: 4684 28be 3963 8abd e057 15bc 367b d03d
000000a0: 23c7 c8bd 649f c2bd 2cd4 743d 883a 9a3c
000000b0: 9443 42bd 70c6 7ebd cc32 6e3d 40e1 543c
000000c0: f205 973d 5818 603d 10e6 1cbe eacd 16be
000000d0: 36c4 24be 0c7e a3bd 7286 30be bc95 33bd
000000e0: 5ef1 1abe b402 51bd 785c 3cbe 306f 59bc
000000f0: dcb9 4cbd de53 10be a2d4 0bbe 9c43 13bd
00000100: 08a6 853c 3c68 493d c9e2 353e c0a1 e6bc
00000110: 4e54 8c3d ff35 f7bd be27 dd3d f79c 3a3e
00000120: 36c0 8f3d 6d97 413e f0d0 a1bc a002 2fbd
00000130: 2301 013e 1c0d 04be 3c2f 713d b70c babd
00000140: 259d 033e 8827 d5bc f36c 043e 3019 c1bd
00000150: b35b 02be 004e 1b3d 16da 3cbe a09c 833b
00000160: b3a2 2fbe 41fd 0e3e d2c8 e73d 2fce 253e
00000170: bad8 b73d e106 0a3e 0655 e53d 7ff8 b2bd
00000180: 94fb 99bd eed1 803d 42a3 fb3d d83e babc
00000190: 481b d5bd 7424 17be 0eca bb3d c2d7 12be
000001a0: e749 32be e35a fcbd babe ca3d 0a13 b33d
000001b0: 058a c6bd 00ee e1bd 80ae b2bb e0ce 963c
000001c0: 12e2 b43d 0cef e1bd e8bc 46bd 6460 5c3d
000001d0: f84d dabd 84e3 33be 39e3 433e 0c3e 0dbd
000001e0: 1647 d33d 7a8c 29be b804 d1bc 7f1e 223e
000001f0: 592b 213e a57a 193e 878c 183e 949c 0ebd
00000200: 7816 29be f264 b73d 2c03 13be 773e d3bd
00000210: 8658 ce3d 0880 11be f5a4 303e b9cf 443e
00000220: e0e2 47bd 7896 0bbe f865 56bd b4bc 8ebd
00000230: 417f abbd 8012 08bc 6244 29be 13bc b5bd
00000240: 509f f63c 3485 aebd 0e89 d03d 3c1b 493d
00000250: 1078 12be c74b 17be 603f aa3b 6c9f 3bbd
00000260: 401a 3abb 79d3 8ebd 5122 1dbe 2ac4 863d
00000270: dbd7 f8bd 0efc 913d 7936 203e a5aa 353e
00000280: d79e 97bd 2cf1 6e3d ea68 943d 4b16 3d3e
00000290: 2699 f4bd ce78 a83d b574 e1bd 6018 4e3c
000002a0: a542 dfbd 0998 3c3e 90fd dabc ba1d c63d
000002b0: b653 ad3d 5e7f 44be 25c7 26be 9039 24bd
000002c0: e470 1f3d aa5a df3d 1414 363d 65f7 26be
000002d0: 3ac4 833d b409 10be c060 3e3b 6745 193e
000002e0: 1047 39bc e559 ddbd 3848 80bc 7a77 86bd
000002f0: fe45 0cbe 1573 32be 2682 e03d 832d 14be
00000300: 1036 45bd 59a4 0c3e 7d75 1a3e 24c1 6fbd
00000310: 6caf 24bd 60e6 1ebc 50f7 d13c f0fe 423d
00000320: 985e f93c 80d3 19bb 2c9e 013d d8ac 2dbe
00000330: d863 62bd 7a85 d13d 406a 2bbd 579d 113e
00000340: 189d c2bc 4fbc fdbd 60d8 05be 080d 243d
00000350: 7eff bebd c5d5 b5bd 2e21 a9bd 76e1 1dbe
0.096852735 0.16140564 0.15330167 0.01598236 0.1159028 -0.11249251 0.1852511 -0.14702247
0.18177338 0.07697566 0.027563542 0.011599392 0.15046333 0.029569551 0.13248853 -0.06585741
-0.15849364 0.07248823 -0.0049067587 0.10431273 0.05196409 0.18082483 0.18193166 0.07071264
0.10470687 -0.14272952 0.10122071 -0.08100747 0.16431119 -0.018661529 -0.03758958 0.13678451
-0.025764242 0.18845509 -0.07881329 -0.09833152 -0.16456708 -0.067572065 -0.009115189 0.101797506
-0.09803607 -0.095030576 0.059772655 0.018826738 -0.04742773 -0.062200963 0.058153912 0.012993157
0.07374181 0.054710716 -0.15322137 -0.14726987 -0.16090474 -0.07983026 -0.17238787 -0.04384397
-0.15131137 -0.05102797 -0.18394649 -0.013271138 -0.049981937 -0.14094493 -0.13655332 -0.03595315
0.016314521 0.04917167 0.17762293 -0.0281533 0.06852017 -0.12070846 0.10798596 0.1822394
0.07019083 0.1890542 -0.01975295 -0.042727113 0.1259809 -0.12895626 0.058882937 -0.090844564
0.12852915 -0.026019827 0.12932186 -0.09428632 -0.12730293 0.037916183 -0.18442568 0.004016474
-0.17151909 0.13963796 0.113176 0.16191934 0.08976884 0.13479187 0.111978576 -0.08738803
-0.07518688 0.06290041 0.12286998 -0.022735044 -0.10405594 -0.1476 0.09169398 -0.14340118
-0.17411004 -0.12322023 0.098996595 0.08743866 -0.09694294 -0.11031723 -0.005452931 0.018409193
0.08832182 -0.11031923 -0.04852 0.053802863 -0.106594026 -0.17567259 0.19129647 -0.034483
0.10316293 -0.16557494 -0.025514945 0.15831946 0.15739192 0.14988191 0.14897357 -0.034817293
-0.16512477 0.08954801 -0.14356679 -0.103146486 0.10075478 -0.14208996 0.17250426 0.19219865
-0.04880035 -0.13631618 -0.05234334 -0.06969586 -0.08373881 -0.008305192 -0.16529992 -0.08873763
0.030105263 -0.085215 0.10182391 0.04909824 -0.14303613 -0.14775 0.005195543 -0.045806333
-0.0028396994 -0.06973929 -0.15345122 0.06580384 -0.12150546 0.07128154 0.1564578 0.17740877
-0.07403343 0.05833547 0.07246573 0.18465535 -0.11943273 0.08226167 -0.11008588 0.012579054
-0.10901383 0.18417372 -0.026732236 0.09673639 0.08463232 -0.19189212 -0.16286905 -0.04009396
0.03892602 0.10905965 0.04445274 -0.16305311 0.064339116 -0.14066201 0.0029049367 0.14967881
-0.0113084465 -0.10808162 -0.015659437 -0.06565757 -0.13698575 -0.17426713 0.10962324 -0.14470486
-0.04814726 0.13734569 0.1508388 -0.058533803 -0.040206358 -0.00969848 0.025630623 0.04760641
0.030440614 -0.002347201 0.031644985 -0.16960466 -0.055271 0.10230537 -0.041849375 0.14220177
-0.023756549 -0.12389433 -0.13070822 0.04005149 -0.09326075 -0.08878664 -0.08258282 -0.15418038

fc1.bias f4 [32]
00000000: 73b9 9d3d e73e 06bd b77a a53d a449 96bc
00000010: 4092 32bb 84c9 9fbc 7a9d 1a3d 802f f4ba
00000020: 1078 4b3c ebc1 2ebd ba70 703d 45ae ad3d
00000030: 8e38 95bd 7969 933d a3e4 a53d be1b 91bd
00000040: 1247 fcbc 0d47 8abd 70ef 353c 5a0f 47bd
00000050: 7e23 3b3d 916c b4bd fb56 90bd ecbb 8d3c
00000060: e013 fe3c ab20 48bd 293f 96bd eaa6 43bd
00000070: 50f6 4bbd 00a0 0537 2005 18bc 5cad 8f3c
0.07701387 -0.032774832 0.080800466 -0.018345661 -0.0027247816 -0.01950527 0.037747838 -0.0018629879
0.012418762 -0.042665403 0.058701254 0.08480505 -0.072861776 0.07197852 0.081002496 -0.070853695
-0.030795608 -0.06751833 0.01110445 -0.048598625 0.045688145 -0.0880977 -0.0704784 0.017301522
0.031015337 -0.04885928 -0.073362656 -0.047766604 -0.04979545 7.964671e-06 -0.009278566 0.017538719

fc1.weight f4 [32, 128]
00000000: 5966 6fbd e00b 423b b429 36bd f174 b03d
00000010: 7aa3 acbd 4889 b63c 0af2 59bd aba3 833d
00000020: 58fd a3bd 8a49 643d 5aec 603d e6a5 e4bc
00000030: 06a8 163d afcf 47bd 3fa7 ae3d f519 a73d
00000040: d4ea 8f3c 7c4c 34bd d16e 1abd fa5a 3dbd
00000050: 9368 9b3d 9499 c43c 90c7 af3c d2d4 643d
00000060: 4802 7a3c 00d0 9ab9 a81c 91bd 5521 8c3d
00000070: 505c e43c edc0 05bd e8e5 193c c036 253c
00000080: f040 c73c 63f0 52bd f897 97bd ccb2 f53c
00000090: a0e8 acbd 34e5 22bd 8040 6abd f22f 2c3d
000000a0: cab3 273d 7824 05bd bd53 15bd beca 503d
000000b0: 48c7 a23c 3803 adbd c036 83bd fc4f d0bc
000000c0: 5d9a 58bd 47db 6cbd 26c5 6a3d 6949 a33d
000000d0: 48ac 45bc 331a 56bd 440d 96bc e0c8 f73b
000000e0: 56c6 1d3d 1059 33bc 686b cb3c 992c 843d
000000f0: 3000 b2bc 20ff 2d3b 2f51 ab3d fd8d 9b3d
00000100: d66c 3b3d 7071 203c a85f 593c 0aa7 2e3d
00000110: d65a 75bd b0c5 0bbc 600b 5cbd 2a42 8abd
00000120: 5e78 6c3d 489a 2fbd c655 283d b868 91bd
00000130: c881 11bc da47 283d fcc3 8bbd 8871 84bd
00000140: 60f9 b6bb 5c9d f3bc 1862 93bc e107 aabd
00000150: de6d 22bd e64d 623d 321c 3bbd 80e5 d4bb
00000160: 2699 adbd fa37 71bd c027 f53c bf32 843d
00000170: 7c47 7ebd d0c1 6bbc 114e a63d 209c 44bc
00000180: e45a 77bd 1454 e3bc 4dc0 abbd 583d 593c
00000190: c5fb 9b3d 4686 533d f851 c03c 4f06 76bd
000001a0: 5eed 3a3d ec5b 8ebd b51a a53d 3772 b23d
000001b0: c071 95bd b050 90bd aaee 8fbd 3090 b5bb
000001c0: e9b7 07bd e4b1 913c ae2c 59bd 18f1 7c3c
000001d0: e151 8b3d aa48 203d 5326 95bd 0d0c 83bd
000001e0: f39a a63d 924b 523d 7b9a a2bd c889 5e3c
000001f0: cd48 893d b49a 8cbd 60ca 753c e1e1 4ebd
00000200: f606 713d dbe8 963d 06f0 b2bd 18b9 42bc
00000210: 4db9 973d 08d6 2f3c 198a 9f3d 4eb2 173d
00000220: 7c5b 7abd e5a8 34bd 5a3b 773d f043 cbbc
00000230: 90b9 63bd aa85 48bd b208 193d 1891 de3c
00000240: 19f5 a5bd fa77 4b3d aa74 aabd 907a 923c
00000250: 0e33 7abd 80a6 15bc 7aff 4f3d a0ae 9d3b
00000260: 7a67 27bd aa7c 9bbd cea2 58bd 2083 2e3b
00000270: be52 7b3d 6395 b43d 0050 623a fed0 373d
00000280: e742 8f3d 200e c5bb 4161 963d 57b9 0dbd
00000290: c85c dcbc c09f 173b e288 5e3d b078 3d3c
000002a0: 883b 093d feaf 663d 4000 dcba c05a 4c3b
000002b0: adfd a13d 7aea 433d 474f 0cbd 7c43 b3bd
000002c0: 8f67 a33d 191b a83d d28a 413d 39b4 a93d
000002d0: 62a3 9bbd 98b8 2dbc e5c1 aa3d 7e03 663d
000002e0: 7e12 523d 8e76 6e3d 6826 0b3c 3587 b13d
000002f0: 7993 a5bd a820 823c 15e1 a6bd fecb 3a3d
00000300: 2094 b73c f0ea d83b 5eea 283d dc2f 27bd
00000310: 189b 903c e0ae 2fbb 879e 9bbd d08c 0ebc
00000320: 509e 80bd 0bc9 abbd f80d 9fbd d6c5 183d
00000330: 80eb 133a bc8e 80bd 4333 16bd 13d9 a23d
00000340: 2e6e 5f3d ae6d 443d c869 76bd 3651 87bd
00000350: 16a9 353d 3f4a 9b3d 723e 763d c041 623b
00000360: 00a1 20bd 29e3 3dbd 2205 643d 29fd 89bd
00000370: 6721 8a3d d0fc cf3c 8212 8dbd 50cb 7a3c
00000380: 8ed3 4fbd 64c6 8bbc 2012 58bb 4816 93bd
00000390: ce3e 94bd bd4f 9d3d f59c 8f3d 5822 5f3c
000003a0: b402 73bd c03f f4ba d311 823d 52d1 79bd
000003b0: d011 eb3b 8842 49bc c877 483c 8414 963c
000003c0: 39a2 863d 1c76 0bbd dc76 9bbd abe3 22bd
000003d0: b25f 1b3d 1e98 0d3d 50f1 b6bc 7970 863d
000003e0: 5761 a8bd 5d10 00bd a02b 2f3b 3f8c 95bd
000003f0: 0ce0 8bbd 001d dd3c 1222 f9bc c871 88bd
-0.058447216 0.0029609129 -0.044473365 0.08616055 -0.08429618 0.022282258 -0.053209342 0.064277016
-0.08007306 0.055734195 0.054912902 -0.027911138 0.036781333 -0.048782047 0.085279934 0.08159248
0.01756803 -0.044018254 -0.03770334 -0.04622934 0.07588305 0.023999013 0.021457464 0.055867024
0.015259333 -0.0002952814 -0.07085544 0.06842295 0.02787605 -0.03265469 0.009393193 0.010083854
0.024322957 -0.051498782 -0.074020326 0.029992484 -0.08442807 -0.039769366 -0.05719042 0.04203791
0.040942945 -0.032505482 -0.036456812 0.0509746 0.019870415 -0.084478796 -0.06406927 -0.025428765
-0.052881587 -0.057826307 0.05731692 0.07972986 -0.012065001 -0.05227108 -0.018316872 0.007561788
0.038519226 -0.010946527 0.024831489 0.06453819 -0.021728605 0.0026549771 0.08365094 0.075954415
0.04575809 0.009792671 0.013267435 0.04263977 -0.05990108 -0.008531019 -0.053721786 -0.06750901
0.05773198 -0.042871743 0.041097425 -0.07100052 -0.00888104 0.041084148 -0.068244904 -0.06466967
-0.005583927 -0.02973812 -0.01799111 -0.08302284 -0.03965556 0.05525007 -0.045681186 -0.006497085
-0.08476476 -0.058891274 0.02992618 0.064549915 -0.06207989 -0.01438947 0.08120359 -0.012000114
-0.060389414 -0.027750053 -0.08386288 0.013259254 0.076163806 0.051641725 0.023476586 -0.06006461
0.045636527 -0.069511265 0.080617346 0.08713191 -0.07297087 -0.0704664 -0.070279434 -0.00554087
-0.033134375 0.01778502 -0.053021125 0.015438341 0.068027265 0.039131798 -0.072827004 -0.06398783
0.08135023 0.0513416 -0.07939621 0.013582654 0.06703339 -0.06865445 0.015001863 -0.050508384
0.05884453 0.073686324 -0.08737187 -0.01188495 0.0740839 0.010732181 0.07790012 0.03703528
-0.061122403 -0.044106383 0.060359336 -0.024812669 -0.055596888 -0.048955597 0.037361808 0.027168795
-0.08103389 0.049674965 -0.08323033 0.017880708 -0.061083846 -0.009133935 0.05078075 0.0048120767
-0.040870167 -0.07592137 -0.052889638 0.002662845 0.061358206 0.08817556 0.0008633137 0.044877045
0.069951825 -0.0060136467 0.073427685 -0.034600582 -0.02689971 0.002313599 0.05432976 0.011564419
0.03350404 0.056320183 -0.0016784742 0.003118202 0.07909713 0.047831036 -0.034255292 -0.08753106
0.079787366 0.082082935 0.04725153 0.08286328 -0.07599522 -0.010603093 0.08337764 0.056155674
0.051287167 0.05821853 0.0084930435 0.08668367 -0.08084769 0.015884712 -0.081484 0.0456047
0.022409499 0.0066198036 0.041239135 -0.040817127 0.01765208 -0.0026807114 -0.07598596 -0.0087005645
-0.06280196 -0.08387955 -0.07766336 0.037298046 0.0005642697 -0.062772244 -0.03666998 0.0795156
0.054548435 0.04795616 -0.060159475 -0.06607287 0.044350706 0.07582521 0.060118146 0.0034524053
-0.03921604 -0.046359215 0.055668958 -0.067377396 0.06744652 0.025389105 -0.06888296 0.015307263
-0.050738864 -0.017062373 -0.0032969788 -0.07181984 -0.072385415 0.076812245 0.07012359 0.013619028
-0.05932875 -0.0018634722 0.06351056 -0.06099064 0.0071737543 -0.012283929 0.012235589 0.01832033
0.0657391 -0.034048185 -0.0759103 -0.039767902 0.03793306 0.0345689 -0.022331864 0.06564421
-0.08221691 -0.031265605 0.0026728883 -0.073021404 -0.06829843 0.026991367 -0.030411754 -0.06662327

fc2.bias f4 [5]
00000000: 7de6 2b3e fc7c 0dbe 7643 2abe 39c4 b7bd
00000010: 2419 09be
0.16787143 -0.13817209 -0.16627297 -0.089729734 -0.13388497

fc2.weight f4 [5, 32]
00000000: 40f1 243b 4e3b a93d 5085 f2bc 00bb 25bb
00000010: 00e7 393c 526f 873d 2411 333d 4921 093e
00000020: 9c0c 75bd b4ab 323d bde6 aabd d690 cb3d
00000030: 3fe3 87bd 52d5 75bd 407f 2fbc b0e4 7f3d
00000040: bc28 3f3d 318b 9bbd 2a30 7abd c816 38bd
00000050: 259e c0bd c9dd 0e3e a005 bb3c 3ca8 7abd
00000060: 9d01 153e fa94 2dbe 11ab d4bd 8c8e 02be
00000070: 24a2 653d bfa3 243e d9c2 2a3e 8d12 143e
00000080: ea69 ea3d 99df a9bd 3d40 2dbe 628a 33be
00000090: a8d0 153d 1eec 993d 2ae3 bc3d fb5d 1e3e
000000a0: a731 013e eef2 883d 0043 dabb 7ed8 07be
000000b0: d813 0a3d 2b61 83bd d2bb e93d 50e5 febc
000000c0: 8c7a 28be afa1 9abd ad4f 0c3e 4003 76bc
000000d0: d030 4abc f8c2 37bd 3203 9dbd 22bd f33d
000000e0: 0ad8 bcbd c0f5 2b3d e04a 1dbe d2a3 ae3d
000000f0: ab2e 303e c08c 863b 115b c3bd a64b 24be
00000100: 3be0 bbbd 909d e4bc bcef bdbd 09ac b3bd
00000110: 8aa2 9a3d f21b c03d 91d2 2e3e 622f 06be
00000120: e893 0c3d 980f 603d 20e2 493d 089f b83c
00000130: 5499 3ebd e8e8 f1bc 80b4 aeba 514e 86bd
00000140: 60b3 9bbc 7d83 d0bd 40af 71bc 3058 1dbe
00000150: 935f 2e3e 62db d13d 4aa7 02be e0b9 4c3c
00000160: 75cd 2bbe 4026 b2bc 95ad 33be f81a 2ebe
00000170: 86c7 16be 69db 123e 07d1 1b3e d549 0dbe
00000180: d831 b4bc 50da 323c 3bd1 043e ec15 36bd
00000190: 91f8 babd c495 2f3d ae1e c23d cae0 c33d
000001a0: 3595 143e a0e4 13bc e76e 19be 5857 b6bc
000001b0: dfe0 bdbd 322a d0bd d666 26be df69 20be
000001c0: 9c4a fdbd a2b9 dc3d 3ba0 c3bd 42f8 e13d
000001d0: 7063 32bc 30e0 d4bc a60b c13d 299e 303e
000001e0: 9361 babd 580d 54bd a509 09be 50ba 183d
000001f0: 2017 2c3c 98ea 233d 60ae 823c 8ead c43d
00000200: 16c4 81bd 8916 343e 260c a33d 1e43 e03d
00000210: a84c 243d 6c70 09be f082 f2bd e8f7 0f3d
00000220: a9cc 073e 189d 9fbd 2873 413d 1487 f0bd
00000230: e82c 05bd 5ef7 823d 7226 8c3d 5dd0 023e
00000240: 36e0 af3d 00da 073b 16a0 c5bd a853 35bd
00000250: c608 fa3d 0f8a 12be fa1c e13d 5ab7 d73d
00000260: 094a 1fbe 40e5 873c 0398 a5bd 8356 003e
00000270: 938a e5bd 343a 1ebe 36d6 b9bd ba2e 863d
0.002516821 0.082632646 -0.029604584 -0.0025288463 0.011346579 0.066130295 0.04371752 0.13391604
-0.05982648 0.04362078 -0.08344791 0.09939735 -0.06635141 -0.06001789 -0.010711491 0.062473953
0.046669707 -0.07594908 -0.06108109 -0.0449436 -0.09405164 0.13951792 0.02282983 -0.061195597
0.14551397 -0.16951361 -0.10384191 -0.1274969 0.056062832 0.16078089 0.16675891 0.14460202
0.11445983 -0.08294601 -0.16919036 -0.17533258 0.036575943 0.07515739 0.092230156 0.15465538
0.12616597 0.0668696 -0.006660819 -0.13266179 0.03371033 -0.06415018 0.11412777 -0.031115204
-0.16452998 -0.0755037 0.13702269 -0.015015423 -0.012340739 -0.04486367 -0.07666625 0.119013086
-0.09220894 0.041982412 -0.15360594 0.0852734 0.17205302 0.004106134 -0.09538854 -0.16044483
-0.09173628 -0.027907163 -0.09274241 -0.087730475 0.07550533 0.0938033 0.17072512 -0.13104013
0.034320742 0.05470237 0.049287915 0.02253677 -0.046532944 -0.029530004 -0.001332894 -0.065579064
-0.019006431 -0.101813294 -0.0147512555 -0.15365672 0.17028646 0.10246922 -0.12759128 0.012495488
-0.16777594 -0.021746755 -0.17546685 -0.17002475 -0.1472455 0.14341511 0.15216456 -0.13797696
-0.021996424 0.010916308 0.1297044 -0.0444545 -0.091294415 0.042867437 0.09478508 0.095643595
0.14510043 -0.009026676 -0.14983712 -0.022258446 -0.092714064 -0.10164298 -0.16250166 -0.15665387
-0.12367746 0.10777594 -0.09552046 0.110336795 -0.010887966 -0.025985807 0.0942605 0.17247833
-0.09100642 -0.051770538 -0.13382585 0.037287056 0.01050356 0.040018648 0.01595229 0.096034154
-0.063362285 0.17586721 0.079613015 0.109503016 0.040112168 -0.13421792 -0.118413806 0.03514853
0.13261665 -0.07793635 0.047228962 -0.11744514 -0.03251353 0.06394838 0.0684327 0.12774797
0.08587687 0.0020729303 -0.096496746 -0.044269234 0.12208705 -0.14310478 0.10991855 0.105330184
-0.15555586 0.016588807 -0.080856346 0.12533002 -0.112080716 -0.1545189 -0.090740606 0.06551881
