resources/onnx/fc2.onnx (onnx, 32281 bytes, 4 tensors)

network.0.bias f4 [10]
0	0x3d0a51fb	0.03376959
1	0xbcc70545	-0.024294505
2	0x3c670ab8	0.014101677
3	0xbbdbb9f0	-0.006705515
4	0x3b6f89e0	0.0036550686
5	0xbccc353c	-0.024927728
6	0x3c83ad84	0.01607395
7	0xbca94b45	-0.020665774
8	0x3c919f44	0.01777614
9	0x3c1a1218	0.009403728

network.0.weight f4 [10, 784]
0	0x3a2f61c0	0.0006690286
1	0xbc8e3465	-0.017358968
2	0x3ceafb86	0.028684389
3	0x3ce3739e	0.027765092
4	0xbcb8a91a	-0.022541571
5	0x3c82deda	0.015975405
6	0xbc84225e	-0.016129669
7	0xbce3325a	-0.02773397
8	0xbb9e77dc	-0.0048360657
9	0x3c80a494	0.015703477
10	0x3c78ba00	0.015181065
11	0xbaabf9c0	-0.0013120696
12	0x3d0e02fd	0.03467082
13	0x3cf62076	0.030044775
14	0x3c91516c	0.01773902
15	0x3c692148	0.014229126
16	0x3c05b408	0.008160599
17	0xbcc580f0	-0.024109334
18	0x3be54f90	0.00699801
19	0xbc0f0f24	-0.008731637
20	0x3c2d7b94	0.010588545
21	0x3c910b04	0.017705448
22	0xbaacbc20	-0.0013178624
23	0x3c8b57d4	0.017009653
24	0x3cb2b908	0.021816745
25	0xbc5a95c6	-0.013341373
26	0x3d0df471	0.034656946
27	0xbd02c590	-0.03192669
28	0xbc2ff03c	-0.010738429
29	0xbcc256fa	-0.023723114
30	0x3bf6eb70	0.0075353906
31	0xbbfede5c	-0.007777972
32	0xbcd00b43	-0.025395995
33	0xbbbebb88	-0.0058206953
34	0xbc157bd8	-0.009123765
35	0xbc810cb7	-0.015753133
36	0x3c1f8720	0.009736806
37	0xbbd2fd9c	-0.006438924
38	0x3c47fdc0	0.012206495
39	0xbc253000	-0.010082245
40	0x3b361c60	0.002778791
41	0x3cad3108	0.021141544
42	0xbaa94da0	-0.0012916811
43	0xbc9f8cd5	-0.019476334
44	0xbd088b48	-0.033335954
45	0xbbf450f8	-0.0074559413
46	0x3cce1a5c	0.025159054
47	0xbd03b598	-0.032155603
48	0x3c8dc8a4	0.017307587
49	0x3c13c564	0.00901923
50	0x3ccbfc2e	0.024900522
51	0xbcb6e280	-0.0223248
52	0x3c8b9aac	0.017041527
53	0xbc8c259e	-0.017107781
54	0xbb0e54a0	-0.002171792
55	0xbc5cea00	-0.013483524
56	0xbcae1e48	-0.021254674
57	0x3cca85ca	0.024721999
58	0xbc79cc38	-0.015246443
59	0xbc880a00	-0.01660633
60	0x3c3891d4	0.011265237
61	0x3ccce91c	0.025013499
62	0x3b963658	0.004584115
63	0xbcfeef9e	-0.031120118
64	0xbd0f1b1f	-0.034937974
65	0xbb03f110	-0.0020132698
66	0xbd031e92	-0.032011576
67	0xbc016004	-0.007896427
68	0xbcce9ba0	-0.025220692
69	0x3cf4e886	0.029896032
70	0xbcb24553	-0.021761572
71	0x3bc01078	0.005861338
72	0x3d087167	0.033311274
73	0xbb60c820	-0.0034298971
74	0xbc9886ba	-0.01861893
75	0xbcdd0fd5	-0.026985088
76	0x3c515038	0.012775473
77	0xbd0f9ed7	-0.03506359
78	0xbd07eceb	-0.033184927
79	0x3b30db00	0.0026986003
80	0xbc8f81f3	-0.01751802
81	0x3d0efd9f	0.03490984
82	0xbc2f87b8	-0.01071351
83	0x3bb88368	0.005630899
84	0xbbae9ff0	-0.0053291246
85	0x3bb20608	0.005432848
86	0x3c910222	0.017701212
87	0xbcb08ab3	-0.021550512
88	0x3a8aa360	0.0010577254
89	0xbcbb9133	-0.022896385
90	0x3b2efcf0	0.0026701055
91	0x3bd337c8	0.0064458586
92	0xbc765e46	-0.015037125
93	0xbbdcf9dc	-0.0067436527
94	0xbb56cae0	-0.0032774732
95	0x3cd1841c	0.02557569
96	0xbc51a5ee	-0.012795908
97	0xbc8eb05a	-0.017418075
98	0x3c8d32be	0.01723611
99	0xbbf1ddf8	-0.007381197
100	0xbcf6d5ea	-0.030131299
101	0x3b4948b0	0.003071349
102	0xbc0769d2	-0.008264976
103	0x3c7a253c	0.015267666
104	0xbd1233fa	-0.0356941
105	0x3cf1a7e6	0.029499006
106	0xbc96e7be	-0.01842105
107	0xbcc54635	-0.024081329
108	0xbcbeeea3	-0.02330715
109	0xbd064cb6	-0.032788
110	0x3d00737b	0.03136013
111	0x3cdd3d66	0.027006816
112	0xbc797e54	-0.015227873
113	0xbaca1fa0	-0.0015420802
114	0x3d05583b	0.032554846
115	0x3d042aef	0.032267507
116	0x3ceb62be	0.028733607
117	0x3c7707b0	0.015077516
118	0xbc9f7c87	-0.019468559
119	0xbcad7e1e	-0.021178301
120	0x3bbb2f10	0.0057123974
121	0x3c417910	0.011808649
122	0xbcf1414e	-0.029450085
123	0xbca81325	-0.020516941
124	0xbd087a4e	-0.033319764
125	0x3bdcdac8	0.006739948
126	0x3cb64920	0.022251666
127	0xbcf90331	-0.03039703
128	0xbcb1f11c	-0.021721415
129	0x3c065af0	0.008200392
130	0xbb0ca930	-0.0021463148
131	0xbc801917	-0.015636964
132	0xbcb965f5	-0.022631625
133	0x3cc03522	0.023462836
134	0xbcfcb561	-0.030848207
135	0xbc631d38	-0.013861947
136	0x3d11158b	0.035420936
137	0xbbdc17c0	-0.0067166984
138	0xbc7d8dd4	-0.015475709
139	0xb8f81a00	-0.000118304044
140	0x3b121f30	0.0022296421
141	0x3c9d098a	0.019169588
142	0xb81b8800	-3.708154e-05
143	0xbce503ee	-0.027955975
144	0x3bfebe08	0.0077741183
145	0x3c7ac608	0.015306003
146	0x3d04d1c7	0.03242662
147	0x3d094fd7	0.033523407
148	0x3c4ad6d8	0.012380324
149	0xbcf80578	-0.030276045
150	0x3ce3efb2	0.027824257
151	0xbd00c90b	-0.03144173
152	0xbc91695e	-0.017750438
153	0xbc23d998	-0.010000609
154	0xbd1006aa	-0.035162605
155	0x3c392d74	0.011302341
156	0xbc83f2fe	-0.016107079
157	0x3cc572c8	0.024102584
158	0x3aae65c0	0.001330547
159	0x3c67e084	0.01415265
160	0xbca6b64c	-0.020350598
161	0xbc700172	-0.014648782
162	0x3cad5b0c	0.021161579
163	0xbcf35888	-0.0297053
164	0x3cb096f6	0.021556359
165	0xbbb9c4dc	-0.0056692194
166	0xbd06362b	-0.032766502
167	0xbbce77f8	-0.0063009225
168	0xbd0ffa18	-0.035150617
169	0x3cf15c72	0.029463027
170	0x3c7f0ec8	0.015567489
171	0x3cb0bf28	0.021575525
172	0xbc380db2	-0.011233734
173	0xbcd0d58c	-0.025492452
174	0x3c892de0	0.016745508
175	0x3c0c8030	0.008575484
176	0xbc9c30ce	-0.01906624
177	0xbcb59bca	-0.022169013
178	0x3d0f94f9	0.03505418
179	0xbce20c95	-0.02759389
180	0x3b28fb30	0.0025784485
181	0x3b2aee50	0.0026081987
182	0x3cc6f9ae	0.024288978
183	0xbd01769e	-0.031607263
184	0x3cc2d1a2	0.023781601
185	0x3d0de497	0.03464183
186	0xbd02b476	-0.031910382
187	0xbc944307	-0.018098367
188	0xbbf86208	-0.0075800456
189	0xbc415c66	-0.011801815
190	0xbd03fb0f	-0.03222185
191	0xbbdecad4	-0.0067990813
192	0x3c5c2e14	0.01343872
193	0xbca22927	-0.019795014
194	0x3d0d09a1	0.03443301
195	0xbc40bea6	-0.011764204
196	0x3d0f112b	0.034928482
197	0xbc89c965	-0.016819665
198	0xbcb551f3	-0.022133803
199	0x3cefd3d2	0.029275808
200	0xbcd54e1c	-0.026038222
201	0x3cc374f0	0.023859471
202	0xbbb63980	-0.0055610538
203	0xbc55eaee	-0.0130565
204	0xbd03ffe3	-0.032226454
205	0xbb1d3450	-0.002398748
206	0x3b0dac90	0.0021617748
207	0xbcf8aa01	-0.030354502
208	0xbc366e0a	-0.011134634
209	0xbc9c9aee	-0.019116845
210	0xba5f6380	-0.00085216016
211	0xbbac07f8	-0.0052499734
212	0x3cdeb7ce	0.027187254
213	0x3bafca58	0.0053646974
214	0xb9f4bb80	-0.00046679005
215	0xbab0ce40	-0.0013489202
216	0x3cbd920e	0.023140933
217	0xbcd48035	-0.02594004
218	0x3d091209	0.033464465
219	0x3d06a4bd	0.03287195
220	0xbcf720d8	-0.030167028
221	0xbcf781f8	-0.030213341
222	0x3c396948	0.011316605
223	0xbcad4c4c	-0.021154545
224	0xbc112eae	-0.008861227
225	0x3bab21d8	0.0052225403
226	0x3b48f670	0.0030664466
227	0x3cf2e8f6	0.0296521
228	0x3ca284a2	0.019838635
229	0xbc2fde12	-0.010734098
230	0xbd0c0e6f	-0.034193452
231	0xbcd316d8	-0.025767729
232	0xbceb17a3	-0.028697794
233	0xbc6f10e0	-0.014591426
234	0x3ca386cc	0.019961737
235	0x3ba22880	0.0049486756
236	0x3bce55d0	0.0062968507
237	0x3ca1a26a	0.019730765
238	0x3ae5fda0	0.00175469
239	0xbc2af2ee	-0.0104338955
240	0x3c942346	0.018083226
241	0x3caa0f32	0.020759199
242	0xbbc49c48	-0.0060000755
243	0x3c408c48	0.011752196
244	0xbc48deea	-0.012260178
245	0x3bfa4f40	0.007638842
246	0x3cbe50c8	0.023231879
247	0xbad6df40	-0.0016393438
248	0x3d028ad9	0.031870697
249	0x3cf02e22	0.029318873
250	0xbce2793a	-0.027645696
251	0xbd05cd63	-0.032666575
252	0xbc9b69aa	-0.018971283
253	0xbd05edce	-0.03269749
254	0xbcc605d8	-0.024172708
255	0x3a0cf7c0	0.0005377494

network.1.bias f4 [10]
0	0xbd52af20	-0.051436543
1	0xbe5e2cb4	-0.2169674
2	0x3e501872	0.20321825
3	0xbe2fcf35	-0.17168887
4	0x3dbfe0c4	0.093690425
5	0x3dbc4a14	0.09193817
6	0xbe96a382	-0.29421622
7	0x3e62aa92	0.2213538
8	0xbe978b47	-0.29598448
9	0x3d9e3f34	0.07726899

network.1.weight f4 [10, 10]
0	0x3d68ed48	0.056866914
1	0xbd852adc	-0.065023154
2	0x3b3ed600	0.0029119253
3	0x3d861564	0.06547049
4	0xbe7e9797	-0.24862514
5	0xbe69d9ff	-0.22837065
6	0x3dd0440c	0.10169229
7	0x3dc0839c	0.094001025
8	0xbe30375a	-0.17208615
9	0x3dd88ec8	0.10574108
10	0x3e973b3b	0.29537377
11	0x3c0b88a0	0.008516461
12	0xbea1310e	-0.31482738
13	0x3d6a6708	0.057227165
14	0x3dfcf720	0.12351823
15	0xbe1f3c31	-0.15550305
16	0xbe0b5079	-0.13604917
17	0xbdff9c42	-0.12480976
18	0x3e1c8ad2	0.15287331
19	0x3e13c6c0	0.14431286
20	0x3e07551e	0.13216063
21	0xbe90d269	-0.2828553
22	0x3bc30780	0.005951822
23	0xbd726cb0	-0.059185684
24	0xbe9212ba	-0.28529912
25	0x3c9aa740	0.01887858
26	0x3e8ae6e9	0.27129295
27	0x3cca7f20	0.024718821
28	0xbdac87e8	-0.084243596
29	0xbe0f2773	-0.13979892
30	0x3d933ab8	0.07188934
31	0x3dfd9d04	0.12383464
32	0xbe9797bc	-0.29607952
33	0xbe29e21d	-0.16590162
34	0x3e142e44	0.14470774
35	0x3e8d5879	0.27606562
36	0x3e9415ef	0.28922984
37	0x3e76fbf6	0.24119553
38	0xbdc3aa66	-0.09553985
39	0xbe3d8eee	-0.18511555
40	0x3e094f38	0.13409126
41	0xbc60df00	-0.013725042
42	0xbe1984c9	-0.1499206
43	0x3e863315	0.26210847
44	0x3e3c08aa	0.1836268
45	0x3e15e1dc	0.1463694
46	0x3dcce394	0.100043446
47	0xbe435f3f	-0.19079302
48	0x3d67f960	0.056634307
49	0x3c24cce0	0.010058612
50	0x3d4c22f8	0.049838036
51	0xbdd114da	-0.10209055
52	0x3d03a170	0.03213638
53	0x3e8ae53b	0.27128014
54	0x3e36e982	0.17862514
55	0x3df72aec	0.120687336
56	0xbe87d73c	-0.26531398
57	0xbe875082	-0.2642861
58	0xbe9a4e18	-0.30137706
59	0xbe878aa8	-0.26472974
60	0x3d64a610	0.055822432
61	0xbe458be8	-0.19291651
62	0xbd02b268	-0.031908423
63	0xbc670d80	-0.01410234
64	0x3e587ff6	0.21142563
65	0x3e509d42	0.20372489
66	0x3d8909f8	0.066913545
67	0x3e222b64	0.15836865
68	0xbe8481c8	-0.25880265
69	0x3e920835	0.28521886
70	0xbc44fac0	-0.012022674
71	0xbe59b5e4	-0.21260792
72	0x3e0a329e	0.13495871
73	0x3e80bfad	0.25146237
74	0xbd2682e0	-0.040652156
75	0xbe2898be	-0.16464517
76	0x3dd37864	0.10325697
77	0x3dc66e4c	0.09689006
78	0xbe40ba0e	-0.18820974
79	0xbe833b89	-0.2563136
80	0x3e68f6fe	0.2275047
81	0x3daa349c	0.08310816
82	0xbd336d88	-0.04380563
83	0x3e6fe4ee	0.23427173
84	0xbdaf4d02	-0.0855961
85	0xba8c5100	-0.0010705292
86	0xbe9fc2a9	-0.312032
87	0xbe7e6f91	-0.24847247
88	0x3e4c776a	0.19967428
89	0xbc76ad40	-0.015055954
90	0xbe8a3ae9	-0.2699807
91	0x3de51064	0.11184767
92	0xbe6b06ae	-0.22951767
93	0x3d698948	0.057015687
94	0x3e940ac9	0.28914478
95	0x3dcf7858	0.101303756
96	0x3e988ad5	0.2979342
97	0x3e85ea7b	0.26155457
98	0x3bdb5880	0.0066938996
99	0xbe42ef78	-0.19036663
