resources/onnx/KJ_TinyTaxiNet.onnx (onnx, 4902 bytes, 8 tensors)

dense_2/kernel:0 f4 [8, 2]
0	0x3e92ab00	0.28646088
1	0xbf2e899b	-0.6817872
2	0xbdb86ab7	-0.09004729
3	0x3f0b6825	0.54455787
4	0x3f133b52	0.5751239
5	0xc06a967d	-3.665435
6	0x3f40d146	0.75319326
7	0x3f1aa264	0.6040404
8	0xbf13a6c1	-0.5767632
9	0x4021ceb2	2.5282407
10	0xbfd9da93	-1.7019829
11	0x401c7c61	2.4450915
12	0x3ecbdc22	0.39816386
13	0x3fa35c5f	1.2762564
14	0x3f08b683	0.5340349
15	0xc02044a6	-2.50419

dense_2/bias:0 f4 [2]
0	0xbef7bb39	-0.48385027
1	0x3fec3048	1.8452234

dense_1/kernel:0 f4 [8, 8]
0	0x3b82eb00	0.0039952993
1	0xbe4d377d	-0.20040698
2	0x4014c00b	2.3242214
3	0x3f1a108f	0.60181516
4	0xc082e908	-4.090946
5	0xbff87d5b	-1.9413255
6	0xbf90cee7	-1.1313142
7	0x3f9a28d8	1.2043715
8	0x3f1a637d	0.6030806
9	0xbedebdc0	-0.43504143
10	0xbf086428	-0.53277826
11	0x3e50e7b8	0.20400894
12	0xbf1bf2e3	-0.6091749
13	0xbeb9f1cc	-0.3631729
14	0xbf11ebe1	-0.5700055
15	0x3edaba5e	0.42720312
16	0x3d0ae400	0.033908844
17	0xbe75b8a0	-0.2399621
18	0x3edc6f88	0.43053842
19	0x3f17fbed	0.59368783
20	0xbd8d7958	-0.0690791
21	0x3d40d9fa	0.04708288
22	0x3e81bada	0.2533787
23	0x3b0336cd	0.0020021677
24	0xbf0b49a5	-0.5440925
25	0xbe93b27b	-0.28847107
26	0xbfb093ee	-1.3795145
27	0xbe04e38c	-0.12977427
28	0xc02a1b19	-2.657904
29	0xbf3e68de	-0.74378765
30	0xbfc91efe	-1.5712583
31	0xbeea96d1	-0.4581819
32	0xbd1766c0	-0.036963224
33	0xbc112c0a	-0.008860597
34	0x3dfda18e	0.1238433
35	0xbec3bfda	-0.3823231
36	0x3fba29f4	1.4544053
37	0xbfe99dab	-1.8251241
38	0x3f2cece1	0.6754895
39	0x3ff44cab	1.9085897
40	0xbeab04eb	-0.3340219
41	0xbee4e84e	-0.44708484
42	0xc038d405	-2.8879406
43	0x3e4825dc	0.19545692
44	0x3f6cddfa	0.9252621
45	0xbe79d001	-0.24395753
46	0x3f24b1e0	0.64333916
47	0xc0215d23	-2.5213096
48	0xbf0828a4	-0.5318701
49	0x3d179ffe	0.037017815
50	0x3fd6f02c	1.6792045
51	0xbeacf104	-0.3377763
52	0x3e2dda80	0.16977882
53	0x3f66ed77	0.9020609
54	0x3d3a36c8	0.0454624
55	0x3f841ab8	1.0320654
56	0xbf056150	-0.5210161
57	0xbd704e3a	-0.058668353
58	0xbe95b501	-0.29239658
59	0xbeaf8585	-0.34281555
60	0x3ddd0192	0.10791315
61	0x3f526f11	0.82200724
62	0x3f9fe907	1.2492989
63	0xbeb50aff	-0.35359952

dense_1/bias:0 f4 [8]
0	0x00000000	0.0
1	0xbca8a553	-0.020586645
2	0xbf0a7251	-0.54080683
3	0x00000000	0.0
4	0x3eccd7b8	0.4000833
5	0xbe1b8bc3	-0.15190034
6	0x3f7efcc7	0.9960446
7	0xbe959600	-0.29216003

dense/kernel:0 f4 [16, 8]
0	0x3fe401da	1.7813065
1	0xbe7e1308	-0.24811947
2	0xbe5364a5	-0.20643862
3	0xbfb2d717	-1.397189
4	0xbd183288	-0.037157565
5	0x3e95c328	0.29250455
6	0xbffb1e3c	-1.9618602
7	0x3f724f43	0.94652194
8	0xbe97287c	-0.29523075
9	0x3ee5ce58	0.4488399
10	0xbefd4124	-0.4946376
11	0xbe8e39a0	-0.2777834
12	0xbee066d0	-0.4382844
13	0xbe8f0b80	-0.2793846
14	0x3eb4f084	0.3533975
15	0x3ed3333c	0.41250026
16	0x3ed12529	0.40848663
17	0x3dce0300	0.10059166
18	0x3eb491e6	0.35267562
19	0xbee00ec4	-0.43761265
20	0x3dd9a4f5	0.10627166
21	0x3f1633d8	0.5867286
22	0xbe8cca0f	-0.27497908
23	0x3f5ee6cb	0.8707091
24	0x3e0cf0f0	0.13763785
25	0xbefa5178	-0.4889028
26	0xbed35090	-0.41272402
27	0x3eaf021c	0.34181297
28	0xbc1ef200	-0.009701252
29	0x3ebdd498	0.3707626
30	0x3eec8cd4	0.46201193
31	0x3d39c1e0	0.04535091
32	0xbd5d5e58	-0.05404505
33	0x3b833100	0.004003644
34	0xbee2b624	-0.44279587
35	0x3f17e12c	0.5932796
36	0x3f90ba3d	1.1306835
37	0xbf17a443	-0.5923502
38	0x3e2c878a	0.16848579
39	0xbc73d5d1	-0.014882521
40	0x3e856f33	0.260614
41	0xbe693680	-0.22774696
42	0x3e75c358	0.24000299
43	0xbe74b87d	-0.23898502
44	0x3f0463b9	0.51714665
45	0xbea82b05	-0.3284532
46	0x3ed3e0bc	0.41382396
47	0x3f89ca3f	1.0764846
48	0x3e0ea53b	0.13930218
49	0x3daad320	0.0834105
50	0xbdf0b18f	-0.117526166
51	0xbf0261aa	-0.50930274
52	0x3f9f12f4	1.2427659
53	0x3f6b98a3	0.9202978
54	0x3f72807f	0.9472732
55	0xbd9eae75	-0.07748119
56	0x3d79b7c0	0.060966253
57	0xbe06efe0	-0.13177443
58	0xbefdd584	-0.49576962
59	0xbed1d8b5	-0.40985647
60	0xbe4a1df0	-0.19737983
61	0xbe899a91	-0.26875737
62	0xbe98b794	-0.2982756
63	0x3e1c4d7f	0.15263937
64	0xbf3cdcd6	-0.7377447
65	0x3e887650	0.26652765
66	0xbeec6d04	-0.46176922
67	0x3d3bb716	0.0458289
68	0x3f552349	0.83256966
69	0xbf153bc3	-0.58294314
70	0x3ee8250a	0.4534076
71	0xbe0db8ae	-0.13839981
72	0xbeb4c5cc	-0.35307157
73	0x3e95521c	0.29164207
74	0x3df10c30	0.11769903
75	0x3ed3c4a8	0.41360974
76	0xbec7c0c0	-0.39014244
77	0xbecd3250	-0.40077448
78	0xbea17eac	-0.31541955
79	0xbd1e9c40	-0.03872323
80	0xbf23d3aa	-0.6399485
81	0x3e9bda4c	0.30439985
82	0xbee49aa8	-0.44649243
83	0x3e48252f	0.19545434
84	0xbfb72a33	-1.4309753
85	0xbe761530	-0.2403152
86	0x3f7e601f	0.9936542
87	0x3e1c51db	0.152656
88	0x3b92c900	0.0044795275
89	0xbe8adf08	-0.27123284
90	0xbcd44f80	-0.025916815
91	0x3d02e960	0.031960845
92	0x3d801010	0.06253064
93	0xbea74d84	-0.32676327
94	0x3ea81f74	0.32836497
95	0x3cbcfc80	0.02306962
96	0x3e9fd4d2	0.31217057
97	0x3d4985c0	0.04919982
98	0x3ec12a6f	0.37727687
99	0x3eb93b76	0.36178178
100	0xbf5b50df	-0.85670274
101	0x3f60fa2f	0.8788175
102	0x3b26c451	0.0025446604
103	0x3e0288b6	0.12747464
104	0xbef2dd3d	-0.47434416
105	0xbe9f9830	-0.31170797
106	0xbe7761bd	-0.24158378
107	0x3e2c9607	0.16854106
108	0xbf780b8b	-0.96892613
109	0xbf660b92	-0.89861405
110	0xbcac2c02	-0.021017078
111	0x3e9d23b5	0.30691305
112	0xbefbf635	-0.4921128
113	0xbefc5490	-0.49283266
114	0xbe5504f8	-0.20802677
115	0x3fa7eb4f	1.3118685
116	0xbc029056	-0.007968983
117	0xbe9d8fda	-0.30773813
118	0x3ce189c7	0.027531518
119	0xbebc9c24	-0.36837876
120	0xbeca068c	-0.3945812
121	0x3eafbf28	0.34325528
122	0xbdc22d40	-0.09481287
123	0xbe23fbe0	-0.16014051
124	0xbe2779a0	-0.1635499
125	0xbccc7a00	-0.024960518
126	0x3e0c1270	0.13678908
127	0x3ec394a0	0.3819933

dense/bias:0 f4 [8]
0	0x3e3b5810	0.18295312
1	0x00000000	0.0
2	0xbbb47e3d	-0.005508213
3	0x3e05a51d	0.13051267
4	0x3cdb99aa	0.026806671
5	0x3e0e1afe	0.13877484
6	0xbe8fd5a1	-0.28092673
7	0x3e349a3e	0.17636964

conv2d/kernel:0 f4 [8, 1, 8, 8]
0	0x3f3fa858	0.7486625
1	0x3e9a9e4e	0.30198902
2	0x3ef97516	0.48722142
3	0x3e42e32d	0.19031973
4	0xbf0465d1	-0.5171786
5	0x3b7a00e4	0.0038147504
6	0xbde42c0a	-0.11141212
7	0xbedc998e	-0.43085903
8	0x3fe477c5	1.7849051
9	0x3fc942b5	1.5723482
10	0x3f1254a1	0.57160383
11	0x398ccc92	0.00026855298
12	0xbfc023bd	-1.5010906
13	0xbfb2f101	-1.3979799
14	0xbf710818	-0.94152975
15	0xbf7bebe7	-0.98406833
16	0x3f6c2c88	0.9225545
17	0x3ec117d4	0.37713492
18	0x3efee5e7	0.49784777
19	0x3e8e4076	0.27783555
20	0xbd44ec0e	-0.04807668
21	0xbe1e9931	-0.15488125
22	0xbeb8fd5b	-0.36130795
23	0xbe567657	-0.2094358
24	0x3f4e6ec0	0.8063774
25	0x3c311a2a	0.010809461
26	0xbd88502c	-0.066559166
27	0x3da113c5	0.07865099
28	0xbd30bc32	-0.043148227
29	0x3da96a52	0.08272232
30	0x3d092c67	0.03348961
31	0xbdc1087f	-0.094254486
32	0x3f2a1fa4	0.6645453
33	0x3e7af4d4	0.24507457
34	0x3cc67613	0.024226224
35	0xbe073ad3	-0.13206033
36	0xbdd9fa0c	-0.10643396
37	0xbe8c3306	-0.27382678
38	0xbef3b0ec	-0.47595918
39	0xbe35da21	-0.17758991
40	0x3ead7f7f	0.33886334
41	0x3cbe13f0	0.023202866
42	0x3e0f298a	0.1398069
43	0xbc751ea8	-0.014960922
44	0x3c001878	0.007818334
45	0xbdbba1bc	-0.09161708
46	0xbe5ef4d5	-0.21773084
47	0xbe7848ef	-0.24246572
48	0x3e4e1bb8	0.20127761
49	0xbceb868d	-0.028750682
50	0xbc71a9ad	-0.0147499265
51	0x3d28af6a	0.041182913
52	0xbda08e0e	-0.07839595
53	0xbdabfc63	-0.08397748
54	0xbde98cfa	-0.11403842
55	0xbdafa6a1	-0.08576704
56	0x3e2b705b	0.16742079
57	0x3e0271d7	0.12738739
58	0x3ca3a6d4	0.01997701
59	0x3dce2c7b	0.10067078
60	0x3dad0ccc	0.084497064
61	0x3be9bf47	0.0071333977
62	0xbe06da5d	-0.13169236
63	0x3d1198e8	0.035546213
64	0x3ca627b4	0.020282604
65	0xbd9a6b94	-0.0754005
66	0xbdba88c4	-0.09108117
67	0xbd8e2e7a	-0.069424585
68	0xbd38e9ec	-0.04514496
69	0x3d91991c	0.071092814
70	0xbd72bfea	-0.059265055
71	0xbd92837e	-0.071539864
72	0x3d845ca6	0.06462984
73	0xbdc98e39	-0.0984158
74	0x3d97f044	0.07418874
75	0xbd80960e	-0.06278621
76	0x3d77a774	0.06046243
77	0x3cb07de8	0.021544412
78	0xbd95c016	-0.07312028
79	0xbd280433	-0.04101963
80	0xbdc7fa53	-0.097645424
81	0xbd399113	-0.04530437
82	0xbd834df8	-0.06411356
83	0xbcd5ef48	-0.026115075
84	0x3bd77080	0.0065746903
85	0xbd0525ee	-0.032506876
86	0xbd349f0c	-0.04409699
87	0xbdb580aa	-0.08862431
88	0x3c944960	0.018101394
89	0x3c6942b0	0.014237091
90	0x3c5184b0	0.012787983
91	0x3dba1a32	0.090870276
92	0x3be399d0	0.006945826
93	0xbdc6aa70	-0.09700477
94	0x3c9f5b14	0.01945261
95	0xbc171908	-0.0092222765
96	0xbd2eaab9	-0.042643283
97	0x3cc7ace0	0.024374425
98	0xbda8fe36	-0.08251612
99	0xbd58b2f3	-0.052905034
100	0xbc3b0050	-0.011413649
101	0xbc1eec00	-0.0096998215
102	0x3d984454	0.074349076
103	0xbd89efa8	-0.06735164
104	0x3bdf8e80	0.0068224072
105	0xbc82f188	-0.015984312
106	0x3c805edc	0.015670232
107	0xbcd981c0	-0.026551127
108	0x3d927964	0.0715206
109	0x3ca91f98	0.020644948
110	0xbb3d8360	-0.0028917417
111	0x3ce1f970	0.027584761
112	0x3dca2f12	0.09872259
113	0xbc009540	-0.007848084
114	0xbd8babf8	-0.0681991
115	0x3d91103e	0.07083176
116	0x3c7552e0	0.014973372
117	0xbc826318	-0.015916392
118	0x3d201bf4	0.03908916
119	0xbd509a6d	-0.050928522
120	0xbd8de6da	-0.06928797
121	0x3c2f48a0	0.0106984675
122	0xbda1ffa6	-0.07910089
123	0xbd67662e	-0.05649393
124	0x3d656fc8	0.056014806
125	0x3cb898a0	0.022533715
126	0xbd90feee	-0.07079874
127	0x3cbf71b0	0.02336964
128	0xbf424a3b	-0.75894517
129	0xbf0f9cd5	-0.5609868
130	0xbd7606d4	-0.060065106
131	0x3e4acb2e	0.1980407
132	0x3ead085f	0.3379545
133	0xbc8f971a	-0.017528106
134	0xbd88f604	-0.06687549
135	0x3c988167	0.018616391
136	0x3f45748a	0.7713095
137	0x3ed0a782	0.40752798
138	0x3ec456e5	0.38347545
139	0x3d2ab7db	0.041679244
140	0x3e32a9c0	0.17447567
141	0xbedf1c88	-0.43576455
142	0xbf851e7a	-1.0399926
143	0xbf88ef76	-1.0698078
144	0xbdd4a05f	-0.10382151
145	0xbe9497cb	-0.2902206
146	0xbe296c96	-0.16545328
147	0xbd27b89a	-0.040947534
148	0x3c428457	0.011872373
149	0x3dca6b87	0.098837905
150	0x3eddca8a	0.43318588
151	0x3f2583ea	0.6465441
152	0xbe82495a	-0.25446588
153	0xbdacb985	-0.084338225
154	0x3da28cdf	0.07937025
155	0x3d6fe0bb	0.05856393
156	0x3ddf7266	0.10910492
157	0x3d78a6d6	0.060705982
158	0x3e91634e	0.28396076
159	0x3f224b0c	0.6339576
160	0xbdf389e2	-0.118915334
161	0xbe4561f3	-0.19275646
162	0xbddb34d0	-0.107034326
163	0x3d9dcf7a	0.07705589
164	0x3e2a1d16	0.16612658
165	0x3dcfee59	0.10152883
166	0x3edf56a5	0.43620792
167	0x3f44180f	0.7659921
168	0xbd517ffd	-0.05114745
169	0xb98dbd90	-0.0002703485
170	0x3d723b97	0.05913886
171	0xbd80b768	-0.06284982
172	0x3e31b816	0.1735538
173	0x3d63f940	0.055657625
174	0x3e87989c	0.2648362
175	0x3f2cdeb8	0.6752734
176	0xbcc84464	-0.024446674
177	0xbcb1df58	-0.021712944
178	0x3e63374e	0.22189066
179	0x3deb2d9c	0.11483309
180	0x3e26f473	0.16304187
181	0x3e34bd6c	0.17650384
182	0x3e54e133	0.20789032
183	0x3ef7cda9	0.48399094
184	0x3e5bb6b3	0.21456413
185	0x3dc14769	0.094374485
186	0x3dda056f	0.106455676
187	0x3e7c89c8	0.24661934
188	0x3eafe268	0.34352422
189	0x3ec491a7	0.38392374
190	0x3ea871f2	0.32899433
191	0x3ef38da1	0.47568992
192	0xbcd78054	-0.026306309
193	0xbd365bc8	-0.044521123
194	0xb842a000	-4.6402216e-05
195	0xbdcad932	-0.09904708
196	0x3d52e244	0.051485315
197	0xbdb70b82	-0.08937742
198	0xbd91c710	-0.07118046
199	0xbc841200	-0.016121864
200	0x3d89195c	0.0669429
201	0xbcf62380	-0.030046225
202	0xbdbaca54	-0.09120622
203	0x3da17db2	0.078853026
204	0xbdc7a25f	-0.09747767
205	0x3da75edc	0.0817239
206	0x3a069d00	0.0005135089
207	0xbcaec67c	-0.02133488
208	0x3dcb915e	0.09939836
209	0xbc6901f8	-0.014221661
210	0x3c6f59e0	0.01460883
211	0x3dd10450	0.10205901
212	0xbd19049a	-0.037357904
213	0x3d8061ee	0.062686786
214	0x3d8dfcb8	0.06932968
215	0x3ce86550	0.028368622
216	0x3cafdb60	0.02146691
217	0x3c4fc6a8	0.012681641
218	0xbdb92f49	-0.09042222
219	0xbce296f0	-0.027659863
220	0xbd094ef8	-0.033522576
221	0xbc99c80c	-0.018772148
222	0x3d654f80	0.05598402
223	0x3c822b50	0.015889794
224	0xbd8ce9a3	-0.068805
225	0x3d65658c	0.056005046
226	0xbb92b910	-0.0044776276
227	0x3d5292f8	0.05140969
228	0x3db67982	0.089098945
229	0x3daecc6e	0.085350856
230	0x3b572260	0.0032826886
231	0x37e12000	2.6836991e-05
232	0xbdab24f4	-0.083566576
233	0x3db84fcc	0.08999595
234	0x3dc38320	0.095464945
235	0xbd296273	-0.041353654
236	0x3d86f9d8	0.06590623
237	0x3c147b18	0.009062551
238	0xbcab6090	-0.020920068
239	0xbd9421d7	-0.07233017
240	0xbdc1b0c4	-0.094575435
241	0x3cd59078	0.026069865
242	0x3d9acbb4	0.075583845
243	0xbd0bc786	-0.034125827
244	0xbd21ecf2	-0.03953261
245	0xbd536269	-0.051607523
246	0x3d8844de	0.066537604
247	0xbda0c4d0	-0.07850039
248	0xbdc08c11	-0.094017155
249	0xbd0e7e3c	-0.034788355
250	0xbd9df3cf	-0.077125184
251	0xbd9fb18d	-0.07797537
252	0x3d37c60c	0.044866607
253	0xbdc20669	-0.09473879
254	0xbdb96318	-0.09052104
255	0xbc93a608	-0.018023506

conv2d/bias:0 f4 [8]
0	0x3e7d07ae	0.24709961
1	0x00000000	0.0
2	0xbd9a718d	-0.07541189
3	0x00000000	0.0
4	0xbea66572	-0.32499272
5	0xbf005322	-0.5012685
6	0xbee4c320	-0.4468012
7	0xbaa33cf1	-0.0012454075
