resources/onnx/oneInput_twoBranches.onnx (onnx, 770 bytes, 4 tensors)

W1 f4 [2, 3, 2, 3]
00000000: 382f c93e 4afe dabe 20da 0bbf 6f2f d23d
00000010: 79bc e03e 5c7a 1dbe ba26 763f 0244 bd3e
00000020: b334 1cbd 7ef1 5cbe f195 a0be 028c ea3e
00000030: ac9b fbbd e671 61bf 2cce 50be 11b5 f33e
00000040: 7290 22bf 302b 26bf 033c 813d a55d 823d
00000050: 68a0 893e b9e8 323f 9ed7 e53e 4b60 633e
00000060: 33c8 e33e 424a b5be 4687 8dbe 1521 0bbf
00000070: a03c d3be 9b1e 863e 9fd7 50bf aec7 07be
00000080: d397 0dbe 3eed 4ebc 4ae6 17be 983e c0be
0.39293838 -0.42772132 -0.5462971 0.102629535 0.43893793 -0.15378708 0.9615284 0.36965948
-0.038136195 -0.21576497 -0.31364396 0.45809942 -0.122855514 -0.8806442 -0.20391148 0.4759908
-0.63501656 -0.6490965 0.063102745 0.063655175 0.26880193 0.69886357 0.44891065 0.22204702
0.44488677 -0.35408217 -0.27642268 -0.54347354 -0.4125719 0.26195225 -0.8157901 -0.13259766
-0.13827448 -0.012629805 -0.14833942 -0.37547755

b1 f4 [6]
00000000: 8e4d 823e 42c7 e43e eabd 77bf 8065 413e
00000010: 9797 e83d d79c 2ebf
0.25449795 0.44683272 -0.9677416 0.18886375 0.113570385 -0.6820807

W2 f4 [6, 6]
00000000: 20d5 16be 4e6a 493f f168 633f 9ebc 703b
00000010: 0cdb 7d3e aacd 44bf 8419 bbbe 986f 2ebe
00000020: e08c 3b3f a188 ffbe bafb 0abd 4b9b 783f
00000030: 429f 1f3d 3f35 673e f63c 42bf 2416 273f
00000040: 3011 533e 3b99 b83d 8402 a1be 8f94 c8be
00000050: 42f0 29be e8a6 b93e e13b 403f 74c2 aa3c
00000060: 9860 ad3e 81ff 2f3e 68cd 7f3e b0e1 b23e
00000070: 8247 2f3f 7767 55bf 7001 073f 293e 03bf
00000080: cf8e 1cbf 5064 143e c5fe 4ebf 8f49 453f
-0.14729738 0.78677833 0.88832 0.0036733518 0.24790591 -0.7687632 -0.36542904 -0.17034757
0.73261833 -0.49908927 -0.03393147 0.9711196 0.03897024 0.22578906 -0.7587427 0.6526816
0.20612025 0.090136014 -0.31447232 -0.3917584 -0.16595557 0.36260152 0.7509137 0.020844676
0.33862758 0.17187311 0.249807 0.3493781 0.6846849 -0.83361 0.5273657 -0.51266724
-0.6115541 0.14491391 -0.808575 0.77065367

b2 f4 [6]
00000000: bea0 31bf e538 c83e 4b95 b9be dc93 c43e
00000010: f8c0 de3d e26d 63be
-0.693859 0.39105907 -0.36246714 0.38394058 0.108766496 -0.22209886
