resources/onnx/robust_model_sigmoid_linear.onnx (onnx, 211505 bytes, 6 tensors)

dense_2_4/kernel:0 f4 [32, 10]
1.7389731 -0.33542657 0.147325 -2.3586767 0.056329727 -1.6809903 1.7423632 -0.41117096
0.9307652 -0.5514658 0.24095757 -3.7763662 -1.7916235 1.2954749 -1.0742507 1.0011547
-0.35393244 0.4007964 0.30503935 0.41258493 -0.9486983 -3.2066972 1.3838345 -0.90713215
1.7518187 -0.7502273 0.22005177 -1.3606142 -0.9030371 1.2181699 -4.0970645 -0.48033482
-2.3935146 0.91956854 0.9361736 0.92260796 -3.5465767 0.099977665 -0.5514876 1.3436975
-0.16037753 1.0283867 -2.0764582 0.73422307 0.7288846 -0.21124415 0.47853222 -0.39739513
-0.9311699 0.6425195 -0.3790379 0.9097103 -2.10241 -0.7455989 0.2978237 0.2707909
0.8734967 -1.7737688 -0.13453504 0.9821568 -0.9008579 0.31052333 0.941789 0.3833093
0.41827986 0.3162662 -2.906032 0.46070242 -0.08734204 0.07750804 -0.66076654 1.4141502
0.32795632 -1.3497887 -0.1531511 -1.9780912 0.07279311 1.6225837 -0.12351838 -1.2482444
-2.1312158 1.3914883 -0.14358152 -2.1976721 0.5830988 -3.3423488 0.005554448 1.4350902
0.19418138 -0.22846687 0.51986736 -1.2418617 -0.04926295 -0.8013894 -0.62201846 1.0065179
0.9768756 0.9193906 0.5189118 -1.5597283 0.9471223 1.5865074 0.115581974 0.24977854
-1.4342809 0.68332493 -0.3298461 1.3579398 -3.6080103 -0.47785676 -2.0955324 -1.5081705
-0.76371664 -1.3789667 1.2378815 -0.16766019 -0.14103879 -2.1421568 1.4950602 0.38225996
0.23706612 -2.8088703 0.15704696 0.50486726 -0.114642814 -1.7662545 -0.5512788 0.7592327
1.1250197 0.60080785 1.1726983 -1.6163365 -2.8163166 -2.8270514 0.79437596 1.0671993
0.9644754 -0.16536973 -0.46601677 0.9549637 0.6030549 0.9892251 1.2457142 0.28644222
-1.0521934 0.48133877 0.77709407 -0.55578595 -1.2848662 -1.7543973 0.049625747 -1.333423
0.89044356 -0.78983724 0.8327 -0.72750014 0.33101255 -0.8036439 -1.6993301 2.0982985
0.28391743 -0.28434852 -1.7758693 0.69252545 -2.552176 0.95533764 -0.6838836 -2.2058673
0.94745755 0.6344107 -2.5522742 -2.8941014 -1.3416619 1.7283196 -1.4748837 0.8653917
-3.1161125 0.98018277 -0.123189084 0.80591166 1.5484902 -0.059796397 0.2559154 -2.0970957
0.44421408 -1.223268 0.3764786 1.5614103 -1.7703811 -0.45976776 0.621966 -3.3455358
0.34457844 0.061625548 -3.861779 0.65811276 -2.4460673 0.7937321 0.20474727 1.468722
-0.15689544 -2.0574088 0.7359258 1.4092342 0.18932691 -3.3470414 -3.0189745 0.73882896
0.34770802 0.33644235 0.2566896 -0.822214 -0.62431467 -0.56626517 0.8424969 0.4273494
1.6952397 -1.6851315 -0.581643 -0.47253874 -2.0321014 2.2723918 -1.8192538 -1.7904607
0.23949239 0.021757 -2.0175958 -0.7851081 0.7708405 0.99520725 0.9292512 -0.0656761
0.6258279 0.6387713 -2.5586054 0.8933981 -0.33676165 -2.5172653 0.78910595 -1.5319034
-2.887053 0.24999027 1.2937251 1.0645139 -0.8894615 -0.8588579 0.7177009 -0.43995917
-0.35585386 -0.64699733 -1.9726634 -0.4295007 -1.3965673 -0.9656079 0.39728856 -0.30980948
00000000: ac96 de3f 08bd abbe 5ddc 163e 8ff4 16c0
00000010: 00ba 663d b12a d7bf c205 df3f 0085 d2be
00000020: a146 6e3f dd2c 0dbf 95bd 763e fcaf 71c0
00000030: eb53 e5bf 1fd2 a53f 0c81 89bf d625 803f
00000040: a236 b5be 3035 cd3e 1e2e 9c3e 553e d33e
00000050: e4dd 72bf 873a 4dc0 7d21 b13f d039 68bf
00000060: 983b e03f e50e 40bf 4055 613e 9b28 aebf
00000070: 702d 67bf feec 9b3f 271b 83c0 72ee f5be
00000080: 582f 19c0 d868 6b3f 13a9 6f3f 0930 6c3f
00000090: 1dfb 62c0 17c1 cc3d 4b2e 0dbf 48fe ab3f
000000a0: 023a 24be 2da2 833f b1e4 04c0 0bf6 3b3f
000000b0: 2e98 3a3f 6350 58be 2d02 f53e 6077 cbbe
000000c0: 2761 6ebf 287c 243f 4111 c2be c6e2 683f
000000d0: e38d 06c0 92df 3ebf 597c 983e 1ba5 8a3e
000000e0: 7b9d 5f3f db0a e3bf 8ec3 09be a16e 7b3f
000000f0: a09e 66bf eafc 9e3e 1519 713f 1e41 c43e
00000100: c728 d63e a5ed a13e 6efc 39c0 30e1 eb3e
00000110: 62e0 b2bd 89bc 9e3d ff27 29bf e002 b53f
00000120: e4e9 a73e e0c5 acbf a4d3 1cbe 1832 fdbf
00000130: 8e14 953d d3b0 cf3f 34f7 fcbd 79c6 9fbf
00000140: d765 08c0 4a1c b23f 0907 13be a9a6 0cc0
00000150: f745 153f 0be9 55c0 1602 b63b 09b1 b73f
00000160: 7cd7 463e 38f3 69be 0716 053f 53f5 9ebf
00000170: f2c7 49bd db27 4dbf 9a3c 1fbf 94d5 803f
00000180: 8514 7a3f 2f5d 6b3f 67d7 043f 2da5 c7bf
00000190: 9b76 723f ad12 cb3f 3eb6 ec3d f2c5 7f3e
000001a0: 8496 b7bf 62ee 2e3f 97e1 a8be f9d0 ad3f
000001b0: a4e9 66c0 a4a9 f4be 341d 06c0 bb0b c1bf
000001c0: ef82 43bf fb81 b0bf e772 9e3f 1daf 2bbe
000001d0: 796c 10be 1919 09c0 225e bf3f 94b7 c33e
000001e0: 76c1 723e 88c4 33c0 ebd0 203e fb3e 013f
000001f0: dac9 eabd a114 e2bf 9c20 0dbf 135d 423f
00000200: a500 903f 8bce 193f fa1a 963f 1de4 cebf
00000210: 883e 34c0 69ee 34c0 395c 4b3f fd99 883f
00000220: dce7 763f af56 29be c099 eebe 8078 743f
00000230: ce61 1a3f db3d 7d3f 9073 9f3f 8ea8 923e
00000240: 46ae 86bf 0972 f63e a3ef 463f fd47 0ebf
00000250: 7f76 a4bf 1790 e0bf 5e44 4b3d 9bad aabf
00000260: 1cf4 633f c632 4abf d42b 553f 733d 3abf
00000270: 7a7a a93e 9bbb 4dbf a683 d9bf 864a 0640
00000280: a05d 913e 2196 91be af4f e3bf 5949 313f
00000290: da56 23c0 0291 743f ff12 2fbf ee2c 0dc0
000002a0: 948c 723f bd68 223f 7658 23c0 f538 39c0
000002b0: 94bb abbf 9439 dd3f fdc8 bcbf 4f8a 5d3f
000002c0: 636e 47c0 42ed 7a3f 8f4a fcbd 3a50 4e3f
000002d0: ed34 c63f 11ed 74bd 5807 833e d136 06c0
000002e0: 0770 e33e 0c94 9cbf cec1 c03e 4bdc c73f
000002f0: d99b e2bf ae66 ebbe 2a39 1f3f 421d 56c0
00000300: 966c b03e 126b 7c3d 6327 77c0 147a 283f
00000310: 5e8c 1cc0 0732 4b3f 45a9 513e 15ff bb3f
00000320: 33a9 20be 96ac 03c0 a265 3c3f c961 b43f
00000330: eade 413e ed35 56c0 e136 41c0 e523 3d3f
00000340: c906 b23e 2c42 ac3e d26c 833e 9e7c 52bf
00000350: 16d3 1fbf c1f6 10bf e0ad 573f 8acd da3e
00000360: 9dfd d83f 64b2 d7bf 8ee6 14bf 99f0 f1be
00000370: f30d 02c0 de6e 1140 4fdd e8bf d12d e5bf
00000380: 7e3d 753e bc3b b23c 4a20 01c0 d8fc 48bf
00000390: ce55 453f e7c5 7e3f 68e3 6d3f 3181 86bd
000003a0: 4236 203f 8486 233f 31c0 23c0 bdb5 643f
000003b0: 066c acbe e01a 21c0 d902 4a3f 6915 c4bf
000003c0: 7ac5 38c0 73fd 7f3e c998 a53f fe41 883f
000003d0: c0b3 63bf 1dde 5bbf 3fbb 373f 5442 e1be
000003e0: 7a32 b6be 9ea1 25bf 3c80 fcbf 84e7 dbbe
000003f0: b8c2 b2bf 1432 77bf 6869 cb3e 599f 9ebe

dense_2_4/bias:0 f4 [10]
0.4368467 0.09953788 -0.5402357 1.2537322 1.2801133 0.12104363 -0.9593084 0.06874357
-1.2187006 -0.16950195
00000000: 5faa df3e 84da cb3d e34c 0abf 4c7a a03f
00000010: c1da a33f b9e5 f73d 3c95 75bf 6ec9 8c3d
00000020: 62fe 9bbf eb91 2dbe

dense_1_4/kernel:0 f4 [64, 32]
0.035418168 0.013873527 -0.15073198 0.3320884 -2.3526053 0.9215492 0.116485216 0.0016962357
-0.6108835 0.33831826 0.91655433 -1.6605284 -0.26305142 -0.010340815 0.87862295 -0.46289745
-0.110509604 0.30722687 0.038454723 0.1282914 -13.4377575 1.2159073 0.47348788 -0.22983189
0.95926994 -0.35877776 -0.6751043 0.7331903 -2.7033 0.16935493 0.27526122 0.95692194
0.06729528 0.4512271 0.43418333 0.16049485 -0.32710385 -4.7146316 0.74374884 -0.5057969
-0.6456158 -1.2725836 0.29709634 -0.7498249 -1.9899615 0.03345847 0.8274725 0.6464983
-1.3377362 -0.3873243 0.04274211 0.08283684 1.3341424 -2.9944212 -0.85094166 -0.068819456
1.6030233 -0.20309366 -0.01774167 0.22514635 -0.5399317 0.55925685 -0.04529533 -0.989842
-5.9480352 -0.3238826 0.08503286 1.1325873 1.942966 -0.01023395 1.877977 -0.9197072
-0.055904854 -0.5816822 1.4837252 0.038912356 -0.17372525 0.3812248 -0.39367637 -4.4440813
0.30611068 0.32927546 0.12065546 -0.18399072 -0.0030096641 -0.19980483 -0.69938654 0.0024267952
0.047415253 -0.15793674 -0.31321403 -0.05188458 0.15458906 -0.7837023 -2.0601604 0.17850256
-0.28931716 -0.45527664 -0.66682446 -0.11892878 -1.2924128 0.44052303 0.9178342 0.67695653
-1.5234985 0.46385807 0.75698775 -0.8398065 -4.2321587 0.2847359 1.241006 0.012113707
-1.3406851 0.8575977 0.021708578 -0.72643423 0.4041046 0.30120677 -0.39097345 2.4905212
0.74421734 -0.28102267 -0.41842785 -0.12127771 -4.2623396 0.9188064 -0.17631462 1.7049428
-0.35808066 -2.163181 1.2512131 -0.15969707 -1.8779402 -4.241206 -0.25236186 0.5605977
-1.0366609 -1.176796 0.70084083 -0.7946716 -1.5440177 -0.349108 1.080183 1.1291466
-0.39583346 -2.511202 1.0698465 0.31661624 -0.641797 -1.5677334 -0.88702 -1.0669048
0.044987634 -2.30612 -0.07330397 1.5706979 -0.24511082 -0.74913317 0.70615524 -0.079606704
0.20268509 0.16295439 -0.07122148 -0.0076409634 -1.2621641 0.30976743 0.047767412 0.105784215
-0.27725157 1.4990056 -0.057266094 -0.6154454 1.3891641 0.83477855 0.3459115 -0.09990974
0.33076167 0.009869701 -0.21359985 -0.02813202 -2.2536318 -0.22760607 0.89690155 -0.29022425
1.5273684 0.7012493 -0.57350177 0.9276415 -0.628661 -0.096430175 -0.28874484 4.8480406
-2.0234866 0.06344133 0.4461991 1.2026259 -1.1820687 -0.6794213 1.2038443 0.06983031
-0.27143502 1.1509813 -0.016559683 -0.6285418 0.35071588 -0.80758667 0.2473465 -1.3375916
-0.4787812 -1.388301 -0.49283573 -0.6108928 -0.50569135 -0.2509678 0.8829796 0.2921535
-2.0685334 0.12689641 -0.07201298 1.6275412 -1.4615709 -0.78601813 -0.51436245 0.3219895
-0.5165108 -0.4491383 -2.1090865 -0.23471303 -1.6663693 -2.6984067 0.2696697 0.95800817
-0.22960696 0.57845676 0.614302 0.24448226 -0.8068694 0.52792466 1.1504487 1.9221654
-2.0719287 -1.4967049 0.04373126 -0.7983646 -0.7067016 -1.7120073 -1.0541905 2.809563
0.19393614 -2.6801903 0.84717315 -0.48034197 -0.21046284 0.74389523 0.09115118 -0.51256776
00000000: a412 113d ca4d 633c 7c59 1abe 7e07 aa3e
00000010: 1691 16c0 a6ea 6b3f cd8f ee3d 3a54 de3a
00000020: dc62 1cbf 0d38 ad3e 4ea3 6a3f 328c d4bf
00000030: adae 86be 866c 29bc 6fed 603f e500 edbe
00000040: dc52 e2bd d74c 9d3e b382 1d3d d25e 033e
00000050: 0e01 57c1 daa2 9b3f 016d f23e 0d59 6bbe
00000060: b792 753f b8b1 b7be a3d3 2cbf 5cb2 3b3f
00000070: de02 2dc0 616b 2d3e 0aef 8c3e d6f8 743f
00000080: 1cd2 893d 3d07 e73e 474d de3e c358 243e
00000090: 287a a7be 43de 96c0 5366 3e3f e87b 01bf
000000a0: 1447 25bf 05e4 a2bf 031d 983e 86f4 3fbf
000000b0: 0fb7 febf c00b 093d 3dd5 533f ea80 253f
000000c0: f13a abbf 5f4f c6be 5a12 2f3d 5ca6 a93d
000000d0: 2ec5 aa3f 99a4 3fc0 50d7 59bf 37f1 8cbd
000000e0: de2f cd3f c9f7 4fbe fb56 91bc c48c 663e
000000f0: f738 0abf 752b 0f3f 9987 39bd 4966 7dbf
00000100: 4e56 bec0 f1d3 a5be b525 ae3d 9ff8 903f
00000110: 1cb3 f83f 4cac 27bc 8d61 f03f ee71 6bbf
00000120: 7dfc 64bd 20e9 14bf b5ea bd3f 9062 1f3d
00000130: 08e5 31be e62f c33e f38f c9be ea35 8ec0
00000140: 8aba 9c3e cb96 a83e 361a f73d 1068 3cbe
00000150: c93d 45bb a399 4cbe ff0a 33bf de0a 1f3b
00000160: 7f36 423d 2bba 21be 975d a0be ed84 54bd
00000170: 984c 1e3e b7a0 48bf abd9 03c0 60c9 363e
00000180: 6121 94be 051a e9be 02b5 2abf ef90 f3bd
00000190: c86d a5bf 3c8c e13e 2ff7 6a3f 064d 2d3f
000001a0: 0002 c3bf ce7e ed3e f3c9 413f 8ffd 56bf
000001b0: d86d 87c0 e7c8 913e 49d9 9e3f 9278 463c
000001c0: 929b abbf 868b 5b3f 30d6 b13c 98f7 39bf
000001d0: cce6 ce3e c637 9a3e ac2d c8be b364 1f40
000001e0: 0785 3e3f 34e2 8fbe 2d3c d6be 7360 f8bd
000001f0: 1665 88c0 e536 6b3f d28b 34be 913b da3f
00000200: 5956 b7be 8f71 0ac0 c027 a03f a187 23be
00000210: 5860 f0bf f6b7 87c0 9335 81be 5583 0f3f
00000220: 4eb1 84bf 40a1 96bf 4e6a 333f 996f 4bbf
00000230: 5fa2 c5bf 49be b2be 7043 8a3f e087 903f
00000240: afaa cabe 89b7 20c0 bbf0 883f 861b a23e
00000250: cf4c 24bf 7dab c8bf be13 63bf 5690 88bf
00000260: f444 383d 7897 13c0 6420 96bd a10c c93f
00000270: 55fe 7abe 31c7 3fbf 97c6 343f d708 a3bd
00000280: ae8c 4f3e 84dd 263e 91dc 91bd 0c61 fabb
00000290: 988e a1bf d699 9e3e c3a7 433d 65a5 d83d
000002a0: ebf3 8dbe 6adf bf3f da8f 6abd d48d 1dbf
000002b0: 21d0 b13f 0cb4 553f 501b b13e 7a9d ccbd
000002c0: 9859 a93e 87b4 213c ebb9 5abe 1f75 e6bc
000002d0: 813b 10c0 9111 69be 579b 653f 4698 94be
000002e0: cf80 c33f 1385 333f 03d1 12bf ea79 6d3f
000002f0: edef 20bf 2f7d c5bd 5dd6 93be 2623 9b40
00000300: ce80 01c0 87ed 813d 3574 e43e a5ef 993f
00000310: 074e 97bf 8eee 2dbf 9217 9a3f 3203 8f3d
00000320: 88f9 8abe 5b53 933f 2ca8 87bc 1ee8 20bf
00000330: 0891 b33e 00be 4ebf 6748 7d3e 3436 abbf
00000340: cf22 f5be d9b3 b1bf f754 fcbe 7863 1cbf
00000350: fd74 01bf da7e 80be f30a 623f 2595 953e
00000360: da62 04c0 22f1 013e 8b7b 93bd 4553 d03f
00000370: c114 bbbf 7c38 49bf 42ad 03bf cfdb a43e
00000380: 0d3a 04bf 75f5 e5be 46fb 06c0 9d58 70be
00000390: 974b d5bf b2b2 2cc0 2612 8a3e 0640 753f
000003a0: 161e 6bbe be15 143f e542 1d3f 8f59 7a3e
000003b0: fe8e 4ebf 1226 073f e741 933f 8409 f63f
000003c0: 7b9a 04c0 0794 bfbf 8d1f 333d 9f61 4cbf
000003d0: 65ea 34bf 0e23 dbbf b7ef 86bf e1cf 3340
000003e0: 3297 463e 3d88 2bc0 57e0 583f 62ef f5be
000003f0: 9283 57be eb6f 3e3f 78ad ba3d a437 03bf

dense_1_4/bias:0 f4 [32]
-1.0942056 -1.4493573 -0.76695687 -2.5068283 -1.3747928 -1.966409 1.4461696 -0.20200783
-0.47925347 0.86489993 -0.9851601 -1.7440275 -1.6512567 -2.0555995 -0.9006092 -1.1797799
-1.2640983 -0.9448355 -1.2470638 -1.3721032 -1.9708656 -0.7866987 -0.952576 -0.8902636
0.062777944 0.71226215 -0.16706379 1.1601247 -0.8644022 -0.09290039 -0.37087613 0.6286646
00000000: ee0e 8cbf 8a84 b9bf 4957 44bf e06f 20c0
00000010: 36f9 afbf 4ab3 fbbf 161c b93f 24db 4ebe
00000020: b660 f5be 156a 5d3f 7433 7cbf 4b3c dfbf
00000030: 615c d3bf f18e 03c0 538e 66bf 0703 97bf
00000040: f9cd a1bf bde0 71bf c99f 9fbf 14a1 afbf
00000050: 5345 fcbf 1665 49bf 05dc 73bf 51e8 63bf
00000060: b991 803d d056 363f c512 2bbe f77e 943f
00000070: 7649 5dbf 8f42 bebd 7ae3 bdbe 2af0 203f

dense_6/kernel:0 f4 [784, 64]
0.055994824 -0.0005604608 0.028848318 -0.03197683 -0.023824938 -0.011693548 -0.04421556 0.002302171
0.01763695 -0.014262869 -0.008179824 -0.037308834 -0.0011213529 -0.005676073 -0.013501209 0.017574336
-0.060283694 -0.047536932 -0.078194655 -0.0016316772 -0.0006990144 -0.02339735 -0.006824094 -0.0074242684
-0.0007069234 0.01947376 0.0137642445 0.0040625934 0.0029797493 0.018222908 0.016183484 -0.005644009
0.025277589 -0.020141535 -0.042237647 -0.021540206 -0.00047661038 0.03180077 -0.010423774 0.060575414
-0.013432927 -0.030183638 0.010040735 -0.004060114 0.020477612 -0.016049443 -0.0054436824 -0.1155253
0.0075770267 -0.031774595 -0.012190743 -0.028143838 0.039754234 -0.0122160055 0.057162113 -0.004106795
-0.054707225 -0.21902521 -0.0020090267 -0.016842907 0.049582466 -0.019761791 -0.016184427 -0.01937739
0.06003995 0.0027775627 0.027401187 -0.028783426 -0.008820391 -0.013560193 -0.03950016 -0.007784133
0.015118292 -0.013100057 -0.017437574 -0.003366093 0.027219826 0.010979133 -0.03970197 0.033138525
-0.063824594 -0.052536316 -0.06320046 -0.0006728391 -0.0030831299 -0.052251145 -0.004217575 -0.010591587
-0.00089663325 0.026499016 0.0067621428 0.0052150665 -0.007884782 0.008567908 0.016743341 -0.021394392
0.031053321 -0.012947111 -0.024503184 -0.025677871 0.0070136464 0.02175708 -0.011046272 0.051083114
-0.017516159 -0.016647754 0.015786814 -0.0013057853 0.020852 -0.0047703767 -0.0025168909 -0.118533716
0.007154686 -0.016920712 0.0008852356 -0.048828036 0.017314343 0.004284817 -0.03800166 -0.026300497
-0.053164043 -0.21245392 0.007981876 -0.024303824 0.05165585 0.0520418 -0.020942343 -0.012451033
0.06270138 0.0003491271 0.028445782 -0.01646114 -0.004832636 -0.009522204 -0.0049769115 -0.00021089456
0.016232511 -0.025050545 -0.011105011 -0.0017616185 0.032740097 -0.015977062 -0.048950486 0.022672156
-0.055754505 -0.05015578 -0.032902617 -0.0055408655 -0.007454429 -0.047941163 -0.004797935 -0.024710394
-0.002522072 -0.0095506655 0.000949042 0.007386618 0.010225149 0.02121245 0.025340242 -0.014125532
0.027486216 -0.012051667 -0.04817418 -0.014987112 0.0052132127 0.024380052 -0.015598995 0.059478745
-0.0053715184 -0.018837657 0.010184732 -0.011412559 0.017560137 -0.00133273 -0.0048109423 -0.13695821
0.0014999295 -0.0057157036 -0.0076646633 -0.055570144 0.021659639 0.007520127 0.029220315 -0.022782704
-0.008531016 -0.2157992 -0.0028990195 -0.010493162 0.06294131 -0.031441037 -0.015943252 -0.03752762
0.064700685 0.004667258 0.027751433 -0.029330973 -0.033501334 -0.012717927 0.006879919 -0.003862939
0.009443904 -0.0074504 -0.020402052 -0.003425303 0.040263634 -0.025279019 -0.065011434 0.021259567
-0.047635056 -0.037118204 0.029177561 -0.00087036064 0.018055525 -0.06212315 -0.0014020591 -0.008397365
-0.0016593065 0.033152074 -0.005696545 0.004376461 0.0037902303 0.03682033 0.014298295 -0.010258452
0.03093916 -0.03451998 -0.02374447 -0.018881965 0.043367855 0.02308291 -0.014118561 0.06030559
-0.0082401 -0.020443864 0.0026078364 -0.0050277435 0.0101263765 0.008011622 -0.016579641 -0.1285336
0.011135763 -0.016421156 -0.006189974 -0.055501662 0.021992981 0.022409275 -0.03834453 -0.007971891
0.0018858128 -0.22154245 -0.00089321955 -0.04387475 0.07923678 -0.02486197 -0.014663457 -0.008515945
00000000: d45a 653d e3eb 12ba 4f53 ec3c 23fa 02bd
00000010: 842c c3bc 4c96 3fbc 601b 35bd 05e0 163b
00000020: 5d7b 903c cfae 69bc ab04 06bc 26d1 18bd
00000030: 5cfa 92ba 5afe b9bb 2d34 5dbc 0ef8 8f3c
00000040: 09ec 76bd 16b6 42bd 8524 a0bd 00de d5ba
00000050: 103e 37ba cdab bfbc a69c dfbb 4747 f3bb
00000060: d450 39ba 6f87 9f3c 6d83 613c 811f 853b
00000070: e647 433b 3548 953c 3a93 843c 61f1 b8bb
00000080: f212 cf3c dcff a4bc 6201 2dbd 1675 b0bc
00000090: 90e1 f9b9 8641 023d 7ac8 2abc ed1d 783d
000000a0: c815 5cbc ad43 f7bc e581 243c b40a 85bb
000000b0: aac0 a73c 1f7a 83bc eb60 b2bb 8798 ecbd
000000c0: b548 f83b 1426 02bd afbb 47bc e88d e6bc
000000d0: 56d5 223d a425 48bc d222 6a3d 4b92 86bb
000000e0: af14 60bd 2548 60be e0a9 03bb 23fa 89bc
000000f0: fc16 4b3d 7be3 a1bc 3495 84bc 55bd 9ebc
00000100: 73ec 753d c507 363b 7478 e03c 38cb ebbc
00000110: 6783 10bc 922b 5ebc ebca 21bd 0a12 ffbb
00000120: b6b2 773c 9fa1 56bc 3ed9 8ebc ab99 5cbb
00000130: 1dfc de3c d2e1 333c 889e 22bd 43bc 073d
00000140: 78b6 82bd 5230 57bd 3e6f 81bd 7861 30ba
00000150: 560e 4abb 4c05 56bd 9533 8abb 5688 2dbc
00000160: 0a0c 6bba 7714 d93c f794 dd3b 26e3 aa3b
00000170: 2c2f 01bc 6960 0c3c 5529 893c 4b43 afbc
00000180: 8963 fe3c 1f20 54bc e7ba c8bc 665a d2bc
00000190: bbd2 e53b e73b b23c 6cfb 34bc 873c 513d
000001a0: 0c7e 8fbc df60 88bc 5953 813c e226 abba
000001b0: d0d1 aa3c d250 9cbb 6cf2 24bb cec1 f2bd
000001c0: db71 ea3b 4e9d 8abc 280f 683a e8ff 47bd
000001d0: cfd6 8d3c a667 8c3b a1a7 1bbd 2474 d7bc
000001e0: 8ac2 59bd 858d 59be 6ac6 023c d018 c7bc
000001f0: 1695 533d c829 553d 478f abbc 6bff 4bbc
00000200: 9569 803d 0c0b b739 2107 e93c 83d9 86bc
00000210: 175b 9ebb 0503 1cbc 5c15 a3bb 9423 5db9
00000220: 0bfa 843c cd36 cdbc cbf1 35bc 1ce6 e6ba
00000230: 7b1a 063d 54e2 82bc 4e80 48bd f5ba b93c
00000240: d65e 64bd 2670 4dbd e5c4 06bd 2690 b5bb
00000250: 4844 f4bb f45d 44bd ff37 9dbb 746d cabc
00000260: 5949 25bb 657a 1cbc 21c9 783a 710b f23b
00000270: 6287 273c bbc5 ad3c 5796 cf3c c66e 67bc
00000280: c62a e13c 5b74 45bc 4a52 45bd 818c 75bc
00000290: 99d3 aa3b adb8 c73c ed92 7fbc fc9f 733d
000002a0: 9003 b0bb 6e51 9abc dddd 263c befb 3abc
000002b0: 47da 8f3c 00af aeba 1ca5 9dbb c63e 0cbe
000002c0: 4899 c43a cc4a bbbb db27 fbbb 859d 63bd
000002d0: 8e6f b13c 666b f63b 715f ef3c cba2 babc
000002e0: adc5 0bbc 77fa 5cbe 7afd 3dbb 83eb 2bbc
000002f0: 60e7 803d 51c8 00bd 6c9b 82bc 90b6 19bd
00000300: cb81 843d ccef 983b f956 e33c 8247 f0bc
00000310: b238 09bd da5e 50bc f270 e13b 5d29 7dbb
00000320: 9bba 1a3c 7c22 f4bb 3422 a7bc 0c7b 60bb
00000330: 7beb 243d f215 cfbc b724 85bd 8b28 ae3c
00000340: fa1c 43bd 4209 18bd c805 ef3c ea28 64ba
00000350: 2ee9 933c d874 7ebd 4cc5 b7ba 1a95 09bc
00000360: 167d d9ba 78ca 073d 15aa babb 6a68 8f3b
00000370: 8365 783b ead0 163d 6543 6a3c 1113 28bc
00000380: 1f74 fd3c d364 0dbd c383 c2bc 5aae 9abc
00000390: 7ea2 313d 5f18 bd3c 8951 67bc ff02 773d
000003a0: 7c01 07bc e479 a7bc 3ce8 2a3b c5bf a4bb
000003b0: 1ae9 253c 2e43 033c 07d2 87bc 509e 03be
000003c0: c672 363c a985 86bc 44d5 cabb b655 63bd
000003d0: a02a b43c a893 b73c 270f 1dbd 899c 02bc
000003e0: 612d f73a 06dc 62be f326 6aba 03b6 33bd
000003f0: e546 a23d 55ab cbbc ff3e 70bc 7686 0bbc

dense_6/bias:0 f4 [64]
6.2556844 -6.6007953 6.3815136 3.4348872 -1.0747415 4.1255307 0.5744544 -5.008973
-1.2947242 -3.4652176 -6.1874547 -1.5208758 -5.2720437 -1.7836524 -4.759276 1.7016082
-5.9294734 1.8721721 -2.4630797 4.746369 4.3587 -1.8087494 2.0538754 -5.530451
-5.8714523 -3.4030268 -3.1476316 -7.4129057 6.047964 2.5468576 5.427445 -4.822173
-5.0729647 -3.053505 -6.2376776 2.8194623 2.1956675 6.176824 0.30745295 -3.928279
-5.4493685 1.0625898 1.5832405 5.5342655 -7.093797 -3.651159 6.086618 -0.028299438
-8.352195 -5.5377717 3.243129 -4.5622754 -6.3734794 -5.410969 -1.430482 -6.8698096
-0.9913344 -1.3542161 -4.4602995 4.464127 -5.3672886 -4.1063633 -6.4749093 -7.7296247
00000000: 912e c840 b739 d3c0 5c35 cc40 31d5 5b40
00000010: 2191 89bf 5904 8440 720f 133f 8249 a0c0
00000020: 86b9 a5bf 20c6 5dc0 a1ff c5c0 0fac c2bf
00000030: 95b4 a8c0 b94e e4bf fd4b 98c0 4cce d93f
00000040: 3fbe bdc0 56a3 ef3f 19a3 1dc0 41e2 9740
00000050: 787a 8b40 1a85 e7bf b272 0340 74f9 b0c0
00000060: f0e2 bbc0 31cb 59c0 cc72 49c0 8636 edc0
00000070: ec88 c140 b7ff 2240 a1ad ad40 3e4f 9ac0
00000080: ba55 a2c0 a06c 43c0 0e9b c7c0 1272 3440
00000090: d185 0c40 8ba8 c540 796a 9d3e ec68 7bc0
000000a0: 3a61 aec0 f102 883f a0a7 ca3f b418 b140
000000b0: 6300 e3c0 97ac 69c0 93c5 c240 39d4 e7bc
000000c0: 97a2 05c1 6d35 b1c0 6d8f 4f40 29fe 91c0
000000d0: 8bf3 cbc0 a826 adc0 091a b7bf 7bd5 dbc0
000000e0: 17c8 7dbf f456 adbf c6ba 8ec0 21da 8e40
000000f0: d4c0 abc0 5467 83c0 7532 cfc0 1659 f7c0
