resources/onnx/softmax-last-layer.onnx (onnx, 106919 bytes, 6 tensors)

fc1.weight f4 [32, 784]
-0.008657592 -0.00247725 -8.968371e-05 -0.02525804 0.005811985 0.008096844 0.026311131 0.030855082
-0.024991037 0.029624524 0.024285756 -0.008515248 -0.008051281 -0.005538698 -0.032206886 -0.008682307
0.013889786 -0.0144847 0.02489183 -0.01895318 -0.035362564 0.009282743 0.021944715 0.010473218
-0.031183155 -0.0047385823 0.027282294 -0.021837035 -0.03217482 0.0043409383 0.015044222 0.034139916
0.025695594 -0.00047996215 -0.031289246 0.007619275 0.0060626953 -0.026801055 7.709861e-05 0.022728028
-0.023768289 0.018961346 0.01066113 -0.03431679 0.015587939 -0.033465542 -0.009304494 0.0028353122
-0.024636384 -0.024653278 0.013181529 -0.009065931 0.01884521 -0.008047339 0.024347523 -0.016126791
0.027772147 -0.008476794 0.0034005686 0.0116457855 0.02265236 0.0007226766 -0.008437425 0.0030845234
-0.0019344902 0.0233093 0.012485211 -0.011746543 0.013449461 -0.020486772 -0.02481419 -0.034066223
-0.030232117 -0.02280614 0.0285035 0.028386671 -0.03240719 -0.006398887 -0.016271656 -0.022354247
0.020724498 -0.027268952 0.02007937 0.009104687 -0.010342364 -0.007034336 0.0037371647 0.021053337
-0.03080702 -0.0127833495 0.018145401 0.03329904 -0.009824566 0.0143130515 -0.012837981 0.030234829
-0.022006756 -0.030227365 -0.016447626 -0.029459836 0.030994957 -0.022332372 0.0011246376 -0.034413476
0.0032199367 0.028246459 0.028080277 -0.019328732 -0.00290003 -0.018136851 0.009829509 0.01399171
0.010255448 -0.024307286 -0.031079622 -0.0321017 0.03324019 0.015074769 0.0018761882 -0.025273813
0.0045342743 0.017710827 0.013291594 0.0018053737 -0.028826477 -0.014819674 0.014780156 0.011365865
-0.0280624 -0.021109344 0.018880202 0.016443292 -0.033729956 0.028916338 -0.021132134 0.014661245
0.0027891016 0.010265223 -0.0041443068 -0.0097253155 -0.0048689335 0.012449554 0.025278987 0.032589804
0.025690319 -0.028972035 -0.02886888 -0.034168083 0.03237396 -0.021788891 0.0064641284 0.0004289193
0.01714391 -0.023691107 0.032982543 -0.018755956 -0.0044529866 0.012509934 0.021120835 0.034390412
0.032438885 0.0268903 0.013766639 0.0040713595 -0.034785353 0.02280886 0.011883157 0.02560665
-0.030858748 0.003157688 0.0149858175 0.026715906 -0.009574452 0.0018646335 -0.005901997 0.019391298
0.0023652145 0.0103907585 0.033214975 -0.020431902 -0.031379238 -0.0026970422 -0.019483116 -0.035171166
-0.02771199 0.03201533 0.0021437705 -0.01693809 -0.02582897 -0.00334672 -0.026898956 -0.024685277
0.027056742 0.030565778 0.0015513898 0.028617315 0.015572135 0.016903972 -0.031023141 -0.031547107
-0.015081887 -0.027137805 0.011415771 -0.03324569 0.03404547 -0.004053431 -0.020397931 0.006966421
-0.00509684 -0.08132218 -0.07797953 -0.03214836 -0.056310743 -0.09084501 -0.08862645 0.032982875
-0.03489702 -0.013567214 0.003413571 -0.0074130856 0.017955402 -0.023231069 0.021787215 -0.01616504
-0.017110718 0.019963542 -0.021646518 0.0072178547 0.014124841 0.015226003 0.031353462 0.021891527
-0.011651469 0.01746718 0.021311693 -0.03430473 -0.08348014 -0.05505424 -0.057064883 -0.07492308
-0.09182255 -0.036346707 -0.04775078 -0.07139836 -0.0626228 -0.066634476 -0.04929115 -0.025226979
-0.0267106 -0.035154432 0.0017693384 -0.024230022 -0.014532503 -0.034218606 0.019686397 0.014391989
00000000: 93d8 0dbc 5c59 22bb 9314 bcb8 f3e9 cebc
00000010: 7772 be3b a0a8 043c 718a d73c ccc3 fc3c
00000020: 01ba ccbc 21af f23c ecf2 c63c 8a83 0bbc
00000030: 85e9 03bc f77d b5bb 5eeb 03bd 3c40 0ebc
00000040: fc91 633c 3c51 6dbc f3e9 cb3c b343 9bbc
00000050: 56d8 10bd a516 183c 67c5 b33c dc97 2b3c
00000060: d173 ffbc 1c46 9bbb 1e7f df3c 95e3 b2bc
00000070: bec9 03bd 6e3e 8e3b 0a7c 763c 4cd6 0b3d
00000080: 917f d23c 6ea3 fbb9 2729 00bd 1cab f93b
00000090: 93a9 c63b e38d dbbc 00b0 a138 2130 ba3c
000000a0: b7b5 c2bc d354 9b3c 05ac 2e3c c38f 0cbd
000000b0: 8e64 7f3c 2a13 09bd e071 18bc a5d0 393b
000000c0: 3ed2 c9bc acf5 c9bc 57f7 573c 4589 14bc
000000d0: 4561 9a3c fcd8 03bc 7574 c73c 551c 84bc
000000e0: 6a82 e33c 40e2 0abc 13dc 5e3b f7cd 3e3c
000000f0: 7191 b93c 0172 3d3a 203d 0abc b725 4a3b
00000100: b88e fdba 25f3 be3c c58e 4c3c 9374 40bc
00000110: 215b 5c3c e0d3 a7bc 2147 cbbc 0689 0bbd
00000120: 58a9 f7bc f1d3 babc 2c80 e93c 2a8b e83c
00000130: 67bd 04bd c1ad d1bb 234c 85bc 4120 b7bc
00000140: 6cc6 a93c 2363 dfbc 7e7d a43c d32b 153c
00000150: 0573 29bc 4a80 e6bb 38eb 743b 0c78 ac3c
00000160: 015f fcbc 4171 51bc aaa5 943c 9364 083d
00000170: 37f7 20bc 4a81 6a3c 6556 52bc 08af f73c
00000180: 8347 b4bc 619f f7bc 2cbd 86bc c155 f1bc
00000190: 23e9 fd3c 61f2 b6bc 9368 933a 25f5 0cbd
000001a0: 9305 533b 1e65 e73c 9c08 e63c 4a57 9ebc
000001b0: 6e0e 3ebb bc93 94bc f30b 213c 7c3d 653c
000001c0: 7706 283c 1320 c7bc b19a febc 127d 03bd
000001d0: de26 083d 2afc 763c 6eea f53a 070b cfbc
000001e0: 4094 943b 4c16 913c fcc4 593c 4aa2 ec3a
000001f0: 8125 ecbc 38ce 72bc 7828 723c e537 3a3c
00000200: 1ee3 e5bc 81ed acbc a7aa 9a3c 15b4 863c
00000210: 6c28 0abd f5e1 ec3c 4c1d adbc b835 703c
00000220: 5cc9 363b 772f 283c f7cc 87bb ee56 1fbc
00000230: 938b 9fbb 37f9 4b3c e115 cf3c e37c 053d
00000240: 8174 d23c c356 edbc 6e7e ecbc d5f3 0bbd
00000250: 8f9a 043d 9e7e b2bc 0ad1 d33b 93e0 e039
00000260: 6371 8c3c da13 c2bc b418 073d 17a6 99bc
00000270: 5cea 91bb 77f6 4c3c 9a05 ad3c f6dc 0c3d
00000280: a3de 043d 0c49 dc3c 788d 613c 0a69 853b
00000290: 167b 0ebd a5d9 ba3c 93b1 423c 0ac5 d13c
000002a0: 7ccb fcbc 37f1 4e3b 1387 753c 51db da3c
000002b0: 2ade 1cbc b866 f43a 8a65 c1bb 80da 9e3c
000002c0: b701 1b3b 003e 2a3c 6d0c 083d ce60 a7bc
000002d0: 8487 00bd dcc0 30bb 0e9b 9fbc a40f 10bd
000002e0: 4104 e3bc 8222 033d 807e 0c3b c0c1 8abc
000002f0: 4797 d3bc a554 5bbb 335b dcbc c738 cabc
00000300: 1aa6 dd3c 1565 fa3c 0158 cb3a dc6e ea3c
00000310: 4522 7f3c 337a 8a3c 3e24 febc 8a37 01bd
00000320: 051a 77bc 1a50 debc 3709 3b3c a22c 08bd
00000330: 4373 0b3d a5d2 84bb 9019 a7bc 9346 e43b
00000340: 6503 a7bb 3e8c a6bd bbb3 9fbd 00ae 03bd
00000350: 18a6 66bd f30c babd c981 b5bd 0d19 073d
00000360: 2df0 0ebd 0549 5ebc 38b6 5f3b 78e9 f2bb
00000370: 3517 933c 154f bebc 1a7b b23c 8c6c 84bc
00000380: c72b 8cbc 958a a33c 0a54 b1bc c183 ec3b
00000390: e16b 673c 7c76 793c 7d6c 003d dc55 b33c
000003a0: cee5 3ebc 5517 8f3c dc95 ae3c 1e83 0cbd
000003b0: a3f7 aabd 8e80 61bd debc 69bd 4671 99bd
000003c0: 760d bcbd 49e0 14bd 5296 43bd 4e39 92bd
000003d0: 6240 80bd a877 88bd 84e5 49bd cfa8 cebc
000003e0: 30d0 dabc 18fe 0fbd 25e9 e73a 0a7e c6bc
000003f0: bc19 6ebc cf28 0cbd 5e45 a13c 61cc 6b3c

fc1.bias f4 [32]
-0.059173375 -0.025196351 -0.03655243 0.0136008905 0.38956353 0.004435414 -0.16125582 -0.15237428
0.1579421 0.30058277 -0.06248945 -0.19593714 -0.09995273 0.5363696 -0.44738132 -0.044340175
0.04615393 -0.08813834 0.1507709 0.06250545 -0.08737534 -0.10756851 -0.19252972 -0.054148447
-0.19364712 -0.04089875 -0.30113524 -0.113560595 -0.32390815 0.23048422 0.1840889 -0.07117801
00000000: c85f 72bd 9468 cebc 00b8 15bd 45d6 5e3c
00000010: df74 c73e f356 913b 3f20 25be 0108 1cbe
00000020: 93bb 213e fce5 993e f0f4 7fbd bfa3 48be
00000030: 04b4 ccbd 854f 093f 2a0f e5be 0b9e 35bd
00000040: e70b 3d3d e081 b4bd b063 1a3e db02 803d
00000050: d8f1 b2bd e14c dcbd 8326 45be c3ca 5dbd
00000060: 6e4b 46be 7385 27bd 662e 9abe 7592 e8bd
00000070: 4ad7 a5be 0e04 6c3e cd81 3c3e c7c5 91bd

fc2.weight f4 [32, 32]
0.012345106 0.08567852 -0.07760707 0.28161287 -0.53622097 -0.5914983 -0.13259816 -0.2564627
0.024885254 -0.054028355 0.01612206 -0.45357785 0.0818437 -0.27135772 0.4448437 -0.08485681
0.05759052 -0.060655404 0.013614088 -0.5091431 -0.02217099 0.0023393247 -0.5324478 -0.07563616
-0.24992837 0.21574277 0.6054954 0.017007306 0.11083428 -0.23944278 -0.3353814 -0.5156189
-0.15929481 -0.059832983 -0.041175805 -0.13369872 -0.68404204 -0.17270975 0.19547212 -0.25714147
0.08702757 0.31465504 -0.016354352 0.66701925 0.090929866 -0.44835293 -0.6860587 0.022374107
0.0976737 -0.11175477 -0.39662895 0.6671203 0.023644641 -0.00016943834 -0.35556042 -0.15356301
0.37524435 -0.1875793 0.069088995 -0.032761335 0.19555439 -0.019709518 -0.7876688 0.15934655
-0.17882915 -0.07948515 0.036893472 -0.027287524 -0.083500974 -0.1662004 -0.24399662 -0.019657284
-0.13975446 -0.16260135 -0.13074604 -0.04743096 0.20044126 -0.16051205 -0.2315397 0.011536858
-0.03585328 -0.11591467 -0.23000787 -0.31996888 0.081950545 -0.03411497 -0.091110624 -0.119105875
-0.16826095 -0.18479341 -0.16274473 -0.05235549 -0.17772105 -0.08251766 -0.26931867 0.002153523
0.08418008 0.096788086 -0.13642126 -0.19414195 -0.68613863 -0.03678336 -0.02511879 0.024027448
0.1328822 -0.263803 0.003633271 -0.5139531 0.069436714 -0.15876156 0.5192113 -0.22447336
0.4523513 -0.18397243 -0.21085092 -0.51418656 -0.18612985 0.008560402 0.031491507 -0.1569412
-0.35610253 0.10094864 0.27709827 -0.09219711 0.15603594 -0.2674648 0.07713473 0.12281289
-0.04265994 0.07541667 0.055621218 0.3836884 -0.24881491 -0.75846994 -0.34978426 0.352987
0.12949245 0.57048935 -0.060539603 -0.16887859 0.16626948 -0.75886387 0.07183499 -0.16476867
0.1186748 -0.017333722 -0.1926988 0.34792477 0.10219033 0.09519051 -0.20210735 0.035092395
-0.14541869 0.074342884 0.52735394 -0.08735381 -0.23974697 0.4108666 -0.4070878 -0.019008176
-0.09885829 -0.1852972 0.044918884 0.12147447 0.88694876 0.2821296 -0.028122677 0.67665774
0.43618008 -0.07765203 0.055299573 -0.5808569 0.1659806 0.4880909 -0.21658514 0.13307738
0.226611 0.20203573 0.6200419 0.4794544 -0.051080205 -0.16071253 -0.02012849 -0.086588696
-0.5116521 -0.19090329 -0.1734772 -0.09197982 -0.2888391 0.59077674 0.6287324 0.36251488
-0.098545775 -0.00018665167 -0.056688562 0.8362787 0.92071384 -0.27071762 -1.0244007 -0.42461473
0.13811573 0.32402456 -0.23241639 -0.23012678 0.039701164 0.22587466 -0.08935826 -0.028958647
-0.26923683 0.005932148 -0.6081065 0.21503592 -0.11757786 0.21803306 -0.4127364 -0.025817746
-0.33903325 0.0838178 -0.02879184 -0.041588888 -0.5272185 0.42614534 0.08861415 -0.24201466
-0.008934121 -0.19964698 0.011382455 -0.5792396 -0.11120488 0.30981264 -0.12135075 -0.06676744
-0.50127304 0.5941946 0.101465136 -0.7416664 -0.020389834 0.6355046 -0.07092131 0.07734908
-0.027111702 0.07259883 -0.08875051 0.09646934 -0.08927186 0.114759 0.56787467 0.0049402216
-0.464862 -0.06714451 0.24086161 -0.0020231083 -0.08157473 0.45642453 -0.37961698 -0.019582253
00000000: 2143 4a3c 3878 af3d 75f0 9ebd 902f 903e
00000010: c745 09bf 6f6c 17bf d0c7 07be 144f 83be
00000020: 29dc cb3c d64c 5dbd 6912 843c 5b3b e8be
00000030: ab9d a73d 66ef 8abe 8ec2 e33e 68c9 adbd
00000040: 09e4 6b3d cd71 78bd a00d 5f3c 3457 02bf
00000050: f09f b5bc 5b4f 193b 804e 08bf 22e7 9abd
00000060: 39ed 7fbe aceb 5c3e bf01 1b3f e852 8b3c
00000070: 15fd e23d 7d30 75be 1cb7 abbe 9aff 03bf
00000080: 2e1e 23be 6e13 75bd f6a7 28bd 51e8 08be
00000090: 611d 2fbf d3da 30be d829 483e 0ca8 83be
000000a0: 833b b23d 771a a13e 90f9 85bc c6c1 2a3f
000000b0: 7039 ba3d 848e e5be 8ba1 2fbf e749 b73c
000000c0: 2609 c83d afdf e4bd f312 cbbe 65c8 2a3f
000000d0: 68b2 c13c 42ab 31b9 040c b6be 9f3f 1dbe
000000e0: 0720 c03e ca14 40be 887e 8d3d c030 06bd
000000f0: 693f 483e db75 a1bc aaa4 49bf be2b 233e
00000100: fd1e 37be 1cc9 a2bd 9c1d 173d 168a dfbc
00000110: 8f02 abbd 7030 2abe 40da 79be 5008 a1bc
00000120: cb1b 0fbe f880 26be 4ae2 05be f746 42bd
00000130: 7940 4d3e 455d 24be be18 6dbe 1705 3d3c
00000140: e4da 12bd ac64 edbd 2f87 6bbe f6d2 a3be
00000150: b0d5 a73d 24bc 0bbd 3598 babd c8ed f3bd
00000160: 994c 2cbe 7c3a 3dbe 8ea6 26be b672 56bd
00000170: 82fc 35be 05ff a8bd 23e4 89be 1f22 0d3b
00000180: 9b66 ac3d d538 c63d 04b2 0bbe 26cd 46be
00000190: c8a6 2fbf 26aa 16bd ecc5 cdbc 36d5 c43c
000001a0: 4512 083e 3011 87be 2c1c 6e3b 6e92 03bf
000001b0: d634 8e3d 6492 22be 08eb 043f 58dc 65be
000001c0: 979a e73e 4563 3cbe 4ee9 57be bba1 03bf
000001d0: d398 3ebe ee40 0c3c 3dfd 003d 32b5 20be
000001e0: 1253 b6be 29be ce3d d3df 8d3e d7d1 bcbd
000001f0: e3c7 1f3e 25f1 88be d0f8 9d3d 5385 fb3d
00000200: 30bc 2ebd 0e74 9a3d 13d3 633d ce72 c43e
00000210: 56c9 7ebe 162b 42bf ec16 b3be b6ba b43e
00000220: ab99 043e 970b 123f 60f8 77bd 82ee 2cbe
00000230: 8c42 2a3e e744 42bf 391e 933d 1eb9 28be
00000240: c60b f33d 73ff 8dbc d652 45be 3223 b23e
00000250: 2a49 d13d 3ef3 c23d 3bf5 4ebe 0bbd 0f3d
00000260: a3e8 14be 1541 983d ab00 073f 8ee6 b2bd
00000270: 3b80 75be 1b5d d23e d06d d0be 09b7 9bbc
00000280: 3776 cabd 8dbe 3dbe ddfc 373d 9bc7 f83d
00000290: 130f 633f 4a73 903e 8761 e6bc 7139 2d3f
000002a0: ff52 df3e 0708 9fbd ce81 623d 0ab3 14bf
000002b0: d2f6 293e 0de7 f93e 7fc8 5dbe 7045 083e
000002c0: b70c 683e 74e2 4e3e 11bb 1e3f 0c7b f53e
000002d0: 7a39 51bd d391 24be 81e4 a4bc 6a55 b1bd
000002e0: a2fb 02bf 277c 43be 02a4 31be ea5f bcbd
000002f0: b8e2 93be 253d 173f 9bf4 203f 8d9b b93e
00000300: 5ed2 c9bd edb7 43b9 4432 68bd 5c16 563f
00000310: e7b3 6b3f 809b 8abe 901f 83bf 1a67 d9be
00000320: 366e 0d3e 8ce6 a53e 90fe 6dbe 5ba6 6bbe
00000330: b09d 223d b04b 673e 7701 b7bd af3a edbc
00000340: 69d9 89be 7762 c23b deac 1bbf 6032 5c3e
00000350: a9cc f0bd 0f44 5f3e 2f52 d3be bd7f d3bc
00000360: c495 adbe aba8 ab3d dddc ebbc 1c59 2abd
00000370: cbf7 06bf b92f da3e 567b b53d b1d2 77be
00000380: 6b60 12bc 4270 4cbe 7a7d 3a3c 0c49 14bf
00000390: 62bf e3bd c39f 9e3e be86 f8bd 5ebd 88bd
000003a0: 6e53 00bf 231d 183f f4cc cf3d d9dd 3dbf
000003b0: 9508 a7bc 6eb0 223f 313f 91bd 3269 9e3d
000003c0: 5c19 debc b2ae 943d d4c2 b5bd b891 c53d
000003d0: 2ad4 b6bd c406 eb3d 3c60 113f 95e1 a13b
000003e0: 6402 eebe 1083 89bd 6da4 763e 2096 04bb
000003f0: a710 a7bd 7ab0 e93e 285d c2be f66a a0bc

fc2.bias f4 [32]
-0.06915656 -0.3637279 0.019467168 -0.087160654 0.18139826 0.7667803 0.5332982 0.27572685
-0.21680418 0.027605982 -0.27026397 0.4579826 0.0730217 -0.035889715 -0.33491307 0.011470482
0.31821117 0.2455487 0.39377588 -0.27470255 -0.08782578 0.06064766 0.06380272 -0.45330113
-0.036865972 -0.19032176 -0.23666038 -0.4536029 -0.06746976 -0.09983864 0.04276456 0.3964037
00000000: f4a1 8dbd 8b3a babe 9c79 9f3c 4981 b2bd
00000010: 77c0 393e b74b 443f 3b86 083f 122c 8d3e
00000020: ea01 5ebe f125 e23c 0a60 8abe b27c ea3e
00000030: 678c 953d 1801 13bd ba79 abbe b0ee 3b3c
00000040: 93ec a23e 1e71 7b3e fe9c c93e d0a5 8cbe
00000050: 01de b3bd ae69 783d 00ab 823d 1617 e8be
00000060: c600 17bd b5e3 42be 1957 72be a43e e8be
00000070: 962d 8abd 3378 ccbd e429 2f3d 6df5 ca3e

fc3.weight f4 [10, 32]
-0.5764991 -0.07732337 -0.014915516 0.02315921 -0.12813202 -0.4587999 -0.94566125 0.39901927
0.11118645 -0.15785083 -0.1714019 0.0659993 -0.7633069 -0.6090743 0.13914058 0.42191705
-0.06611181 0.4915529 0.14066662 -0.5403348 -0.24119343 -0.70304495 -0.3534278 0.47818825
0.22912559 0.16509761 -0.5345235 0.5516154 -0.16995077 -0.03157514 -0.43059167 0.114284754
0.053903606 -0.5131996 0.17798457 -0.112119146 0.15481283 0.14485072 -0.3390192 -0.066383205
-0.122079864 0.5381357 -0.17542124 0.26975563 0.47330278 0.17399855 -0.43355346 0.041160878
-0.596854 -0.79164255 -0.6920494 -0.028110702 -0.14476933 -0.0730696 0.40420276 -0.447769
0.105887815 -0.6383474 -0.2983227 -0.026188578 -0.45855498 -0.25917888 -0.43903986 -0.3873476
0.17567872 -0.22264399 0.043239098 0.108814105 -0.44252467 -0.61413276 0.02000906 -0.40685174
0.18850401 -0.4489395 0.07022367 -0.7069066 -0.55363 0.3426906 0.44239417 0.59148955
0.31466055 0.13024324 -0.58644897 0.039957058 -0.16731109 0.49350053 0.27541116 -0.37685442
-0.26803574 -0.04919528 -0.058215987 0.25669184 0.35559067 -0.04736557 -0.8940529 -0.18186882
0.052959908 0.6215121 0.009571295 -0.21376343 0.13582876 -0.69107825 -0.3740295 -0.6813361
-0.16603614 -0.87836266 0.23555702 0.21316057 -0.52540433 -0.11439958 0.09297511 -0.2419252
0.20675829 -0.092818834 -0.55784804 0.3778529 -0.1275318 0.36040753 -0.11670319 -0.11970926
0.2784916 0.44523424 -0.42151868 0.07716387 -0.8287438 -0.18656868 -0.22648738 -0.35238093
-0.4591296 -0.3884531 0.08187301 0.037089314 -0.6848487 0.5045353 -0.047991928 -0.42297795
-0.05417401 0.39041683 -0.26277655 0.124516316 0.009785316 -0.48679933 0.102707356 -0.027983174
0.27198553 -0.80227375 0.31084642 0.22169788 -0.18516439 0.44513902 -0.5288329 -0.09218482
-0.751921 -0.27440247 0.10705914 -0.3996821 -0.32532984 -0.04676067 -0.022330262 0.48960796
-0.28436336 0.1859411 -0.046542544 -0.3408904 0.4179956 0.23120444 0.46607935 0.20102611
-0.058410697 -0.8753883 -0.7854566 0.28082642 -0.4637117 -1.160818 -0.030396217 -0.6166199
0.51677626 0.27825287 0.2504523 -0.56553733 -0.3167163 -0.2573713 -0.22808325 -0.26007575
0.41247752 0.2058737 0.17484273 -0.2467633 -0.5417045 -0.15274373 -0.1880615 0.22037652
-0.8496121 -0.48597854 -0.026413057 0.22025862 -0.68507046 0.3651488 -0.38548905 -0.13838531
0.1460174 -0.015756797 -0.4783832 -0.2936616 -0.089441285 -0.5978519 -0.4448263 0.122659
0.29575667 -0.30688432 -0.33871615 -0.24264959 0.011872015 -0.95555305 0.63706213 0.22850654
0.116815425 -0.4304174 0.29364872 0.14990462 0.550461 -0.10693439 0.13779461 0.5278402
0.07688013 -0.5518217 -0.11866722 -0.83227336 0.03860705 0.15113668 0.5114318 -0.4637262
-0.30986097 -0.31693637 0.58526796 -0.7607965 0.17932314 0.32054615 -0.17251302 -0.5424656
-0.95089525 0.03829514 0.041751303 0.018600583 0.090477586 -0.5307107 -0.47940013 0.18196484
-0.32618412 -0.2988267 0.020482194 0.43384776 0.3533964 -0.07640321 0.02944237 -0.42821997
00000000: 7295 13bf b75b 9ebd 3560 74bc 62b8 bd3c
00000010: 0a35 03be d2e7 eabe db16 72bf 414c cc3e
00000020: b9b5 e33d a6a3 21be fb83 2fbe a42a 873d
00000030: 1568 43bf 4bec 1bbf de7a 0e3e 8305 d83e
00000040: a165 87bd d2ac fb3e e90a 103e 6253 0abf
00000050: 69fb 76be c1fa 33bf 7df4 b4be 17d5 f43e
00000060: e69f 6a3e 590f 293e 88d6 08bf ab36 0d3f
00000070: 9307 2ebe ef54 01bd 8376 dcbe 200e ea3d
00000080: 07ca 5c3d 0d61 03bf 9641 363e b99e e5bd
00000090: 4187 1e3e bf53 143e ed93 adbe ebf3 87bd
000000a0: 0205 fabd 43c3 093f a0a1 33be 691d 8a3e
000000b0: be54 f23e ad2c 323e b8fa ddbe 4f98 283d
000000c0: 6ccb 18bf 16a9 4abf 262a 31bf 6a48 e6bc
000000d0: 693e 14be 84a5 95bd aaf3 ce3e fa41 e5be
000000e0: b6db d83d bc6a 23bf c1bd 98be 6e89 d6bc
000000f0: b8c7 eabe 18b3 84be d5c9 e0be 6d52 c6be
00000100: 1fe5 333e c9fc 63be 7b1b 313d eed9 de3d
00000110: 9892 e2be ce37 1dbf 0aea a33c df4e d0be
00000120: 3207 413e 66db e5be 6dd1 8f3d d5f7 34bf
00000130: b2ba 0dbf 2475 af3e 7d81 e23e dc6b 173f
00000140: 301b a13e 7c5e 053e 8521 16bf 03aa 233d
00000150: 9953 2bbe 1aac fc3e b102 8d3e 10f3 c0be
00000160: fb3b 89be fd80 49bd e373 6ebd 1d6d 833e
00000170: fb0f b63e 6602 42bd a7e0 64bf d23b 3abe
00000180: 7dec 583d 6b1b 1f3f ecd0 1c3c cde4 5abe
00000190: b216 0b3e 81ea 30bf cb80 bfbe 0b6c 2ebf
000001a0: 6105 2abe 60dc 60bf dc35 713e c446 5a3e
000001b0: e680 06bf 544a eabd bc69 be3d 3dbb 77be
000001c0: 72b8 533e cd17 bebd 21cf 0ebf ef75 c13e
000001d0: b297 02be 5687 b83e 1502 efbd 212a f5bd
000001e0: 7396 8e3e bef5 e33e 4cd1 d7be 1708 9e3d
000001f0: 8e28 54bf dc0b 3fbe 4fec 67be 466b b4be
00000200: 0913 ebbe 53e3 c6be 09ad a73d f7ea 173d
00000210: 3f52 2fbf 3a29 013f 2f93 44bd 9190 d8be
00000220: 91e5 5dbd b7e4 c73e a68a 86be 6902 ff3d
00000230: 9752 203c c33d f9be 3c58 d23d f83c e5bc
00000240: b041 8b3e d061 4dbf 4327 9f3e c504 633e
00000250: bc9b 3dbe 43e9 e33e 9861 07bf 65cb bcbd
00000260: e57d 40bf 7b7e 8cbe d341 db3d 22a3 ccbe
00000270: a291 a6be 1e88 3fbd f4ed b6bc e5ad fa3e
00000280: 1398 91be 5867 3e3e 65a3 3ebd 3089 aebe
00000290: 8503 d63e dbc0 6c3e f4a1 ee3e cad9 4d3e
000002a0: 0e40 6fbd 7319 60bf af13 49bf 7bc8 8f3e
000002b0: 9f6b edbe af95 94bf 7d01 f9bc cdda 1dbf
000002c0: 734b 043f 2977 8e3e 493b 803e 0ec7 10bf
000002d0: a428 a2be 2cc6 83be a88e 69be a628 85be
000002e0: 4130 d33e 8ed0 523e f909 333e 85af 7cbe
000002f0: 25ad 0abf da68 1cbe 3293 40be 62aa 613e
00000300: 2e80 59bf 2ed2 f8be 3260 d8bc 7a8b 613e
00000310: c760 2fbf c9f4 ba3e d25e c5be e1b4 0dbe
00000320: 9685 153e 6614 81bc a5ee f4be d05a 96be
00000330: fe2c b7bd d20c 19bf 46c0 e3be a434 fb3d
00000340: 6b6d 973e f11f 9dbe 346c adbe 2279 78be
00000350: d782 423c 209f 74bf 8116 233f 9efd 693e
00000360: ed3c ef3d ab5f dcbe 2059 963e 9980 193e
00000370: 03eb 0c3f 6b00 dbbd 081a 0d3e 8920 073f
00000380: 5473 9d3d 3044 0dbf cd07 f3bd de0f 55bf
00000390: 6d22 1e3d 93c3 1a3e 32ed 023f 856d edbe
000003a0: 19a6 9ebe 7c45 a2be 1fd4 153f 8fc3 42bf
000003b0: 7ca0 373e a01e a43e 41a7 30be 07df 0abf
000003c0: df6d 73bf 5ddb 1c3d 6a03 2b3d 4060 983c
000003d0: 504c b93d a8dc 07bf ef73 f5be fe54 3a3e
000003e0: 9b01 a7be d0ff 98be 46ca a73c 4b21 de3e
000003f0: 5ff0 b43e 4979 9cbd 2031 f13c a63f dbbe

fc3.bias f4 [10]
-0.2635721 0.04514435 -0.08518267 -0.24601305 0.14975639 0.67449355 -0.008881585 -0.014922835
0.08485998 0.052574255
00000000: ecf2 86be 48e9 383d 4074 aebd d8ea 7bbe
00000010: bd59 193e 9cab 2c3f 1184 11bc e87e 74bc
00000020: 12cb ad3d 1a58 573d
