resources/onnx/test_dropout.onnx (onnx, 17049 bytes, 6 tensors)

fc1.weight f4 [5, 784]
00000000: e3af f2bc ce17 0b3c dc6a 79bc 1879 0d3d
00000010: 51b2 fc3c e543 c23c bc05 b63c 4556 663c
00000020: 8a78 0d3c 533d 7f3c 939e f93c 5c5c ba3c
00000030: 5a55 fb3c e3eb d53c 1340 8abb 5e5c a63c
00000040: 3ea2 c5bc 6598 a53b 56e8 063d 0037 063c
00000050: 7afd d5bc dce7 993c 0012 0a3b 4a8c 91ba
00000060: 5708 58bc 9323 923b b3d3 c33c dcf0 2cbc
00000070: 7751 913b 7308 77bc eeb6 8a3c e39b 10bd
00000080: 0a70 5cbc 45e2 fb3c 2e56 5f3d 8336 7c3d
00000090: 01a3 ab3d dc04 233e 195b 963e 2f53 b43e
000000a0: 32af 493e a6c4 48bd 47e6 573d 44a3 513e
000000b0: cf90 6c3e 8215 cd3d 8676 3c3d 2ce9 ed3e
000000c0: 452b d63e faa3 aa3e 087e 103d 0ad4 2cbc
000000d0: b8cd 0dbd dc6c 79bb 13c7 16bb ae77 8ebb
000000e0: 3711 07bb dbdc 0f3d 8d69 05bd 75b0 913e
000000f0: bd7e 843e ef66 93be de54 a4be bc1f 98be
00000100: 7f56 c2be 0b91 593c a9bb 1c3e e0e9 2c3e
00000110: 555b 02bf b53a 0bbf 91a8 afbe fb04 2fbe
00000120: de36 40be 1b53 efbe baae 01bf a4a4 11bf
00000130: 80ce 0ebf 57d2 afbe ed7a 2fbe e060 1cbe
00000140: 4d40 8fbe 8589 d33c 935f c73a f367 393c
00000150: e5fd e33c 33b2 5ebc 51b3 ffbc 8e4f 9e3e
00000160: 8a27 c53e d3bc f13e e85a 86be 2e7c 82be
00000170: 1f64 f9be 36c7 21bf e85f 22bf cc23 29bf
00000180: 154e 18bf 2f2a 0ebf 09c3 89bf 522e 5cbf
00000190: 8acf 08bf 590d 6abf bc56 99bf a1c6 8abf
000001a0: 08a0 02bf 354a 63bd 8eff 1a3d 0be0 42be
000001b0: 0e8e 79be c830 49be 3c2a 36bc b76a 493b
000001c0: 8a9c b3bb 1377 b93c e240 0c3d 8efa b2bd
000001d0: 5b08 eabe 978e 26be 127f 00bf 6838 f3be
000001e0: cb6b 0dbf f869 debe 8b40 fbbe 1c59 77be
000001f0: 53b5 36be 9bd8 49be c2b9 adbd d483 2bbe
00000200: 1940 e3be f8d8 26bf 2859 d3be a8e8 ffbe
00000210: c329 ebbe 9880 a3be 53af b8be 6f90 84be
00000220: da91 39bf e089 3dbf 6c52 b83c 5c1f 6dbb
00000230: 573c 933c c183 2f3c 166b f3be 4436 11be
00000240: 6708 3ebf fcd6 63bf 2250 25bf 502a febe
00000250: b4b3 24bf ff34 f4be 1e6c bebe adbf 03bf
00000260: d265 50be acd4 b03d f16e f43d 9e96 223d
00000270: f473 4c3e aa1d db3d 8c93 e33d 6cc1 133e
00000280: 1fb2 b73d 5c3e 8f3d 35b7 cebd b741 71be
00000290: 7a6e 28bf 3d2a 42bf 68fd 6abe 8c85 e7bd
000002a0: c344 933c dc86 acbb c9ed 5c3e ff82 033f
000002b0: 8c6c aabd 8849 b1be 6095 46be 0ad1 9ebe
000002c0: 0ccb eebe a647 1abf ca1d abbe 2013 9ebd
000002d0: 3058 e7bd 349e e43c 06ee cd3d e30d 303e
000002e0: 750b 983e e31e e23e 0ed3 083f 854a 153f
000002f0: ae98 033e aa70 cc3e 72c4 eb3e 397a 633e
00000300: 2c3a 88bf 621f b1bf fc23 44be dc6f 2abc
00000310: 83b6 0ebd a1b6 953e 7c82 9d3e 08b7 1b3f
00000320: d562 64bd f939 88bd 915a 3dbe 5ecb f8bc
00000330: e2f9 3abf 6c23 22be f223 183e ee44 ca3d
00000340: 47fd f53b 9cff 6d3e 6760 ac3e 2740 143e
00000350: 8c1a 813e 577f 0d3f 351c f83e cfbf f63e
00000360: 9b8f 6abc ca2e 88be 12ae 923d 4b44 5e3d
00000370: 0df0 bebf ace4 c1bf ae4f 80bf 9f6d e6be
00000380: a36a ffbc 34a8 d23d dc3f bd3e 045d db3e
00000390: 68f8 c7be e810 78be aeaf 3a3c e80b 57be
000003a0: 2e32 c1bd 3a87 ddbd 1eac 243e 7341 84be
000003b0: 7cba 8a3c 8962 ac3e 5f00 d73e 49b0 e13e
000003c0: e485 243f c4f7 3b3f ba5b 263f eaf1 6d3e
000003d0: 29d5 103d 3dde 6dbe a9af d83d 2263 3e3f
000003e0: b521 51bf 9dfc ccbf 5383 7abf 8a10 0e3f
000003f0: 3847 7fbc 2bba 9b3d bde9 233d 1a4e 92be
-0.029624885 0.008489562 -0.015223231 0.034539312 0.030846747 0.023714015 0.022219531 0.014058654
0.008634696 0.015578586 0.030471122 0.022749119 0.030680347 0.026113456 -0.004219064 0.020307716
-0.024125215 0.0050535672 0.032936417 0.008191824 -0.026121844 0.018787317 0.0021067858 -0.0011104431
-0.013185582 0.004459807 0.023904657 -0.010555472 0.00443476 -0.015077698 0.01693293 -0.035304915
-0.013454447 0.030747542 0.054525547 0.061575424 0.083807 0.15919822 0.29366377 0.35219714
0.19695738 -0.049015664 0.052709844 0.20472437 0.23102115 0.10013868 0.04601147 0.4646696
0.41829887 0.3332823 0.035276443 -0.010548601 -0.034620017 -0.003805927 -0.002300684 -0.004347763
-0.0020609626 0.035122734 -0.032571364 0.2845494 0.25877944 -0.2878947 -0.32096 -0.2971171
-0.37956616 0.01327921 0.15305962 0.16886091 -0.5092061 -0.54386455 -0.34308293 -0.17091744
-0.1877093 -0.46743092 -0.50657237 -0.56891847 -0.55783844 -0.34340164 -0.17136736 -0.1527133
-0.27978745 0.02582241 0.0015210978 0.011316287 0.027831027 -0.013592291 -0.031213434 0.3092007
0.38506728 0.47214374 -0.2624123 -0.25485367 -0.487092 -0.63194597 -0.6342759 -0.66070247
-0.59494144 -0.5553312 -1.0762645 -0.8600818 -0.5344168 -0.91426617 -1.1979594 -1.0841867
-0.5102544 -0.05549069 0.037841372 -0.19030778 -0.24370596 -0.19647515 -0.011118468 0.0030733773
-0.0054813074 0.022639787 0.034241565 -0.08739196 -0.457095 -0.16265331 -0.50193894 -0.47503972
-0.55242604 -0.43440223 -0.4907268 -0.24155086 -0.17842607 -0.19711535 -0.08482696 -0.16749507
-0.4438484 -0.6517482 -0.41278958 -0.4998219 -0.459303 -0.31934047 -0.36071262 -0.25891444
-0.72488177 -0.74038506 0.02250024 -0.0036182022 0.017973108 0.010712565 -0.47542638 -0.14180857
-0.7423157 -0.88999915 -0.645754 -0.49641657 -0.64336705 -0.47696683 -0.37191862 -0.5146435
-0.20351341 0.08634314 0.11935223 0.03969442 0.19966108 0.10699017 0.11112127 0.14429253
0.08969521 0.06994316 -0.10093538 -0.23560224 -0.65793574 -0.758457 -0.2294823 -0.11304769
0.017977124 -0.0052651 0.21575083 0.5137176 -0.08321485 -0.34626412 -0.1939292 -0.3101886
-0.46639287 -0.60265577 -0.33421165 -0.077184916 -0.11296117 0.027907468 0.10055165 0.17192797
0.2969624 0.4416419 0.53447044 0.5831683 0.12851211 0.39929706 0.46048313 0.22214593
-1.0642753 -1.3837702 -0.19154352 -0.010402646 -0.034842025 0.29240897 0.30763614 0.6082616
-0.055758316 -0.066516824 -0.1849158 -0.03037041 -0.7303754 -0.15833825 0.14857462 0.098764285
0.0075069997 0.23242038 0.336673 0.14477597 0.25215566 0.5527243 0.4845902 0.48193213
-0.014316465 -0.26598197 0.071621075 0.054264348 -1.4917008 -1.514791 -1.0024316 -0.4500551
-0.031178778 0.102859885 0.36962783 0.42844403 -0.39056706 -0.24225199 0.011394424 -0.21000636
-0.09433399 -0.10816808 0.16081282 -0.25831184 0.016934626 0.33668926 0.4199247 0.44079807
0.642668 0.73424935 0.64983714 0.23236814 0.035359535 -0.23229308 0.105803795 0.74370015
-0.8169206 -1.6014591 -0.97856635 0.55493987 -0.015580945 0.07603868 0.040017832 -0.28575212

fc1.bias f4 [5]
00000000: 0381 5dbf 1269 2dbe 22f0 9bbd 4200 9dbd
00000010: 158b ef3f
-0.8652498 -0.16934612 -0.07614161 -0.07666065 1.871432

fc2.weight f4 [5, 5]
00000000: ada0 fb3e fd1a 3bbf e818 b03e 8a51 0cbe
00000010: 07da 433e a176 b4be a668 b83f 1eee a6be
00000020: 2674 b13e 511b f03d 6e65 953e d470 6f3f
00000030: 4767 ffbe 63e9 aa3e 2fd9 c4bc ba9c 753f
00000040: 177f b0be c258 98be f24d 94bd 2aad ebbe
00000050: dcfa dcbe 0a89 f13f 8bbf 353e 8d53 84be
00000060: f28c f43d
0.49146023 -0.73088056 0.34394002 -0.1370298 0.1912614 -0.35246757 1.4406936 -0.32603544
0.34658927 0.1172396 0.29178947 0.9353154 -0.49883482 0.33381185 -0.024029342 0.9594227
-0.34471962 -0.29755217 -0.072414294 -0.4603055 -0.4316014 1.8869946 0.17748849 -0.25844994
0.11940946

fc2.bias f4 [5]
00000000: e913 2dbf 4427 b7bd f8a6 f0bb b2be 433f
00000010: 70ab 38be
-0.67608505 -0.08943036 -0.007344123 0.7646285 -0.18034148

fc3.weight f4 [10, 5]
00000000: c36b 0a3f 18d3 8cbf 77c0 053f 66ae 2f3f
00000010: c0ae 71bf 0a1e 88bf 0764 103f 5d6f 223f
00000020: 0964 cebf 63bb 1e3f 3f9a 34be f76e 08bf
00000030: a474 9ebe 876e bb3e 6c18 b2be 6f69 c73e
00000040: 55f8 883e 47d6 eabd e2d3 ccbf ad3c f33e
00000050: 8506 fabf cd35 97bf eb95 88bf 68f0 e03e
00000060: 75b2 9cbf 1ede bb3e d39a 9b3e bfa2 79be
00000070: 0312 f0be 7428 bc3e 4382 a9bf 2136 13c0
00000080: 5d3f 0ebf f310 d23e 2039 13c0 cc05 c53d
00000090: 7ed5 083e 6e80 fbbe c4ea 83bf 4b2a 943e
000000a0: 4049 1d3e 7b59 803e c7db 503d 74f3 8ebf
000000b0: ec51 e63e 46e0 8bbe 0b8f 46be ecbd 05bf
000000c0: 4e2a 2fbf 1304 7bbc
0.5407068 -1.1001921 0.52246803 0.68625486 -0.9440727 -1.0634167 0.5640263 0.63451177
-1.6124278 0.6200468 -0.17636965 -0.5329432 -0.30948365 0.36607763 -0.34784257 0.38947627
0.26751962 -0.114666514 -1.6002162 0.4750723 -1.953324 -1.1813294 -1.0670751 0.43933415
-1.2241961 0.366929 0.3039156 -0.24378489 -0.46888742 0.36749613 -1.3242878 -2.3001788
-0.55565435 0.41028556 -2.3003616 0.09620246 0.13362691 -0.49121422 -1.030602 0.28938517
0.15359974 0.25068268 0.050990846 -1.1168046 0.44984376 -0.27319545 -0.19390504 -0.5224292
-0.68423927 -0.015320796

fc3.bias f4 [10]
00000000: 0196 96bf 61fc c9bf d70c 0e3f 0787 08bf
00000010: 4564 493f c430 c1be 6707 4b3f 3c4d b73e
00000020: a040 2dbe 6ff1 2d3f
-1.1764528 -1.5780145 0.5548834 -0.53331035 0.78668624 -0.37732518 0.7930817 0.35801113
-0.16919184 0.67946523
