resources/onnx/yizhak_net.onnx (onnx, 814716 bytes, 4 tensors)

model.0.weight f4 [256, 784]
00000000: de00 653b 03e8 cb3c 8514 0f3d 39b2 d4bc
00000010: b2d7 b8bc 930a 1cbc f5b3 9cbc 0eb8 203c
00000020: 9ee8 1939 a1e4 9b3c a581 c1bc 2c99 ba3b
00000030: 9934 b5bc 9059 813c a4d6 013d 5d84 b3bb
00000040: 45a8 50bc 0868 f83c 5c63 a43c cd00 153c
00000050: 7d14 ef3c 8f5c f93c 416f 553c 9c2d 653c
00000060: 17c7 95bc 3ad9 bd3a 20aa 9cbc 9aea b83c
00000070: d7a4 ecbc 9837 f1bc f837 59bc 1b09 f2bc
00000080: bf44 123d 469a 7a3c 227b 713c 9a34 56bb
00000090: 06a2 b53b ed0c acbc bb87 18bc 1927 af3b
000000a0: a0d8 01bd e4dd 2cbb ffac efba a2f1 9f3c
000000b0: ea33 143d 5ab8 0a3b 7ebf 18bb 23f9 0d3d
000000c0: e139 92bc bbab 4c3c fd2c 5d3c feb9 a5bc
000000d0: 1fea 7abc d28d db3b 5de8 74bc da6d 8e3a
000000e0: fc76 0f3d 3fc6 fcba 31a4 803c 5691 d03c
000000f0: 1c09 b6bc 5f7b 0939 96de de3a bd6c f2bc
00000100: 0214 b8bc e2f5 e33c 03ee 04bd 5152 8f3c
00000110: 3d0e c6bc c7f0 0abc 37e2 08bd 3f1b 073c
00000120: 3d1b bd3c 8611 bcbb 251e 74bc ffa2 babc
00000130: 5455 053d 6310 4abc e641 b43c 8d60 80bc
00000140: 36e8 8c3b 6378 823b 691f d5b9 6518 ecbc
00000150: 4eb5 6e3c b1e3 8f3c fcab 15bc 51cc ff3c
00000160: 37a4 dcb9 a831 7fbc 2f4d 35bc 5668 9abb
00000170: 296b f23b 714a f2bc a161 c5bc 7082 fcbc
00000180: 1c16 80bb 6148 5dbc b0cc 23bd 34a7 713b
00000190: 55e8 b2bc ef82 793a 8be6 7fbb d9f4 58bc
000001a0: 251c c1bc c959 8e3c 24d2 e2bb 7d1a d13c
000001b0: fe0e 0a3d 58eb e13b c987 ddbb a4db b43b
000001c0: 5a6a 053d 3320 d2bc c9da 9e3c 7840 ebbc
000001d0: 2301 f23c ebdc b03c 9218 f93c 3d9a e1bb
000001e0: 72b0 7e3c c2cb 0fbd 2287 0fbd 55f2 02bd
000001f0: 78a4 ad3c 253d 443c 2b2e 2bbc bf1b f03c
00000200: 6aee 89bc 6e18 b03c 3618 bc3c 7f3c 7e3c
00000210: d238 a7bc b126 103d aaf8 d43c 78b7 76bb
00000220: 47d5 1e3d e171 a1bc 19e5 8e3c dfe9 b53c
00000230: 2542 28bc 831a e0bc 0582 21bc 951f dfbc
00000240: b991 d1bc 278d eabb cf30 59bc 4ab6 56bc
00000250: 10a6 483c 4154 c53c 1b5b 84bb d863 e9bb
00000260: 7e11 b23b b5aa f3bb 8738 183b 8a7e b23c
00000270: cd3b 1bbc 974b a23c 7a0f 3b3c f859 283c
00000280: 8ebb 233d 0d9c bab9 c65b 33bc 8edf 88bc
00000290: 622d 5d3c 3d67 133c 438f 90bc f62e 41bc
000002a0: 6c6c dbbc 1316 133b 93d8 dbbb a2a5 75bc
000002b0: 88d1 c73c e783 253c b367 f1bc 2811 c23c
000002c0: 266c eb3c 5545 c0bc db3f b83c 5e12 70bc
000002d0: 78f3 cd3c 04b0 b23c 57e1 4c3c d21b c53c
000002e0: 8255 573c cc42 05bc e76d b33c e09e 2a3d
000002f0: a739 e23c 5edf b23b 5277 4ebc 759f 0b3d
00000300: 136e a23b ebe2 b9bc 6167 e23c 0148 3ebc
00000310: 14d1 d43c 45e2 a9bb 1c7d 25bc 13f2 e53c
00000320: b1a4 e9bc f738 4bbc 355a 033d 8c08 e3bc
00000330: 5f67 5abc 40cf dabc d5b7 863c 1125 b4bc
00000340: 8fea b7bc 8a93 b0bc 3edc 94bb a53c 00bc
00000350: e36d 92bc b604 17bd f9ac 013c ae2a 78bc
00000360: 9d7f fb3c 2428 6cba 44ca f83c d519 523c
00000370: 6e9c dbba c77c 0f3d c7f4 ddbc 179c dfbc
00000380: ce37 cc3b 532b 393a a1d7 a23c 1a58 ca3c
00000390: 38da aebc 8784 813b d3dc efbc 6ed9 e13c
000003a0: 8a0c 1a3c e829 22bd e6b4 713c f11b 3bbc
000003b0: a200 24bc bf95 7d3b 6450 9c3a 18a7 a0bc
000003c0: a31e b23b cc86 6cbc 0fc9 fd3c 6f5f 71bc
000003d0: e151 173c 2f60 073d 9934 f03c 62dd 8abc
000003e0: a2b2 4d3d b140 313c 442e b8bc 314d 0abd
000003f0: 3bbc b63c 43c1 99bc 2a85 bf3c 1332 d93c
0.0034943144 0.024890905 0.03493168 -0.02596389 -0.022563789 -0.009524005 -0.019128779 0.009809507
0.00014677874 0.019029917 -0.02362139 0.005694529 -0.022119807 0.015789777 0.031698838 -0.0054784254
-0.012735431 0.030323043 0.02006691 0.009094429 0.029184574 0.030439643 0.013027013 0.013987925
-0.01828341 0.0014484294 -0.01912409 0.022572804 -0.028887196 -0.029445454 -0.013257973 -0.029545357
0.035710093 0.015295571 0.01473883 -0.0032685162 0.0055429963 -0.021002257 -0.009309704 0.005345237
-0.03170073 -0.0026377374 -0.001828581 0.0195244 0.03618232 0.002116701 -0.0023307498 0.034661423
-0.017849864 0.012492116 0.013499496 -0.02023029 -0.015314608 0.006700256 -0.014947978 0.0010866479
0.03502558 -0.0019285156 0.015703293 0.025459927 -0.02222114 0.00013111297 0.0017003592 -0.029592866
-0.022470478 0.027827207 -0.03245355 0.017495306 -0.024176711 -0.008480257 -0.03341886 0.008246242
0.023084277 -0.0057393936 -0.014899765 -0.0227828 0.03255208 -0.012333008 0.02200408 -0.015671039
0.0043001426 0.0039816364 -0.00040649928 -0.028820226 0.014569594 0.017564626 -0.009135243 0.031225355
-0.0004208402 -0.015575804 -0.011065765 -0.004712145 0.0073980284 -0.029576512 -0.024094405 -0.030823916
-0.0039088856 -0.013506026 -0.039990127 0.0036873342 -0.0218393 0.0009518107 -0.0039047326 -0.01324197
-0.02357299 0.017376797 -0.0069220234 0.025525326 0.033705704 0.0068945102 -0.0067605716 0.0055193473
0.032572128 -0.02565012 0.019391434 -0.028717265 0.029541558 0.021589717 0.030407224 -0.0068848417
0.0155449975 -0.035106428 -0.035040982 -0.031969387 0.021196589 0.011977469 -0.010448019 0.029310105
-0.016837317 0.021496024 0.022960763 0.015517353 -0.020412836 0.03519315 0.025997479 -0.0037645977
0.038777616 -0.019707622 0.017443227 0.022206245 -0.010269676 -0.027356392 -0.009857659 -0.02723674
-0.025582181 -0.00715794 -0.013256266 -0.013104985 0.012246624 0.024088027 -0.004039181 -0.007122498
0.005434214 -0.0074361213 0.0023227052 0.021788854 -0.009474707 0.019811435 0.011417264 0.0102753565
0.039973788 -0.00035592951 -0.010947173 -0.016708162 0.01349959 0.008996782 -0.017646438 -0.0117909815
-0.026785098 0.0022443577 -0.0067091673 -0.014993103 0.024391904 0.010102249 -0.029468393 0.023689821
0.028738093 -0.02347056 0.022491386 -0.014652817 0.025140509 0.021812446 0.012504897 0.024061117
0.013142945 -0.008133601 0.021902991 0.04165542 0.027615381 0.0054587563 -0.01260169 0.034087617
0.0049569695 -0.02269121 0.027637186 -0.011613847 0.025978602 -0.005184444 -0.010100629 0.028069532
-0.028520914 -0.012403718 0.03206845 -0.027714036 -0.01333031 -0.026710153 0.01644508 -0.02199033
-0.022450713 -0.021554727 -0.0045428565 -0.007826959 -0.017874664 -0.036869727 0.007914775 -0.015146894
0.0307005 -0.0009008667 0.030369885 0.012823542 -0.0016754994 0.035031106 -0.027094258 -0.02729611
0.0062322384 0.0007063646 0.01987821 0.024700213 -0.02134429 0.003952566 -0.029280102 0.027569499
0.009402404 -0.039590746 0.014752602 -0.011420236 -0.0100099165 0.0038693992 0.0011925814 -0.019610927
0.005435781 -0.014436435 0.030979661 -0.014732226 0.00923583 0.033050712 0.029321956 -0.016951267
0.050219186 0.010818646 -0.022482999 -0.03376502 0.022306552 -0.018768912 0.023378927 0.026513135

model.0.bias f4 [256]
00000000: 1617 593c 14bb 5abc 9bfe b43b 66a1 cc3c
00000010: f64e 8b3c bcd5 16bc 9060 b23c 9501 ad3b
00000020: 802c 0f3d a539 bc3c 75cf f6bc 8451 e03c
00000030: 374e e13c e38b 8a3a 5a15 803c 69db 06bd
00000040: 4de9 e5bc 88d5 fcbc 5b80 983c 6900 df3b
00000050: 89f1 743c edb6 7bbb f84a 9bbb 5d7d 0d3d
00000060: d719 373c e642 27bc 318c 143d eb13 aebc
00000070: e325 d13c 0030 b83c 8423 e13c 666a 10bb
00000080: 0034 2bbc 5d63 053b 8583 d0bc 6330 a2bc
00000090: 5fc5 203b c557 f63c 1cbd 943b efa1 75bc
000000a0: 3645 f4bc 1270 823c 273e 083d 7013 773a
000000b0: 7a7e 183d 9180 023c d31f 8bbc ef18 5f3c
000000c0: 2f5e b73c 55d3 853a bfdf d7bc a2b0 ddb9
000000d0: 98b5 c1bc bcbf 5a3c d733 2a3c c311 083d
000000e0: fad6 1cbd 284d 87bc 757f 7a3c 4b3a 953c
000000f0: dc1c f73b b931 173d e121 0d3c adf6 03bd
00000100: ed25 40bc d697 0cbd 9145 adbb a5d7 a53c
00000110: c2ba 4e3c dd46 f53c c112 073d 3e48 84bc
00000120: 2200 ad3c a6b6 213c e2eb aebc 7ca0 0cbd
00000130: 43d4 173d 7685 01bd d28e ac3c fbe1 93bc
00000140: d37e 92bc 1e62 08bc 4f20 b23b a005 593c
00000150: e189 fdbb bb1d ebbc 25e3 08bd 1355 8e3c
00000160: 8276 e2bc 339a 37bc 57d6 c4bc 3b90 57ba
00000170: c332 cebc 6bfb d6bc 30ca 653c 6401 1d3c
00000180: 3f57 fcbb 2184 013d 8973 b4bc 1a89 443c
00000190: 6248 523c 968c 273c f013 ea3c b639 85bc
000001a0: 2943 e13b 78f1 62bc 068b 7e3c 540c 05bc
000001b0: a0cf c2bc fcdf 023d 0cc7 953c 9ce1 893c
000001c0: 389c eebc c077 ae3c 8da4 b4bc 3b35 babc
000001d0: dcdd 923b b10e 1abd a93f 68bc 22ec 173d
000001e0: d004 03bd 719c acbc 7ef3 5f3c 06e4 73bc
000001f0: 921f ec3c 2acd cabc 860f 063d 7239 ee3c
00000200: 1474 1fbc c353 2bbc 920c 24bc 6de5 813c
00000210: 2e4c eabc 7ffd bfbb c309 afbc 0e48 b33c
00000220: 8829 833c 2196 0e3a edae 98bc 9122 d5bc
00000230: 2bb5 ea3b 78a2 a23c 7703 a13c 781f 043b
00000240: 764f 07bc ef33 4a3c 59fd 89ba 64e7 5d3c
00000250: b0c2 b93c 42ac 44bb 9f19 f3bc ee85 1b3c
00000260: 3eae b7bc df9d 01ba b131 aa3c 22ea 03bc
00000270: 3351 af3c 324e 1a3c 0e78 67bc 692c fd3c
00000280: b5c3 e4bb 685b f73c 7343 c9bc 316f 143d
00000290: 363c e73c bf18 ae38 5f0a d33c 9cf4 d2b9
000002a0: 8679 bcbb 357b c23c ce86 b53c 1734 093c
000002b0: f616 8c3c c6dc 77bc 2e36 0e3d 7ca8 bd3c
000002c0: 7781 f5bb b4f4 b13c e3d5 093d 5709 023d
000002d0: fedb 61bc 6736 aebb 2852 77bb 24a5 953a
000002e0: 3710 153b eeaf 2ebc 4143 33bc 9763 92ba
000002f0: e9e0 49bc 4dc8 033d 618a e03c e659 0dbd
00000300: b021 e73c c14c f6bc 68c1 013d cbcc 073d
00000310: 3b0b 9d3c d876 093d 6082 03bc ad5c bcbb
00000320: 304c cebc e0cd d5bc cccd ea3c fa5a 523b
00000330: 146d a43c eca8 b53c c078 8c3c 1373 07bc
00000340: aae9 d93c 8ed9 86bc a3c6 e33c 4c35 d7bb
00000350: eca1 8f3c 8812 8ebc 6b6a d63c 9d95 903c
00000360: e2a9 bfbb 406d 02bc 4cd2 8dbc e93e e6bb
00000370: a2a3 89bc 796d 05bd 282b 1b3d 6a18 a1bc
00000380: 2c4e c83c 2c0f 3f3c 95b0 9cbc f2bc 643b
00000390: 0cfc 0f3d 3ebf f43c 9913 94bc d286 9a3a
000003a0: 8152 85bc 4f3c 06bd a0be f13b d99e d23c
000003b0: 7a97 5f3c ddbc 773a 8838 883c 5938 d6b9
000003c0: 140d ce3b 38f6 2a3c e574 1cbb c8d4 8c3c
000003d0: 270b b1bc 98a9 aebc d421 44bc 1abb 9ebb
000003e0: 3db0 ba3b 8cea 013d 3493 03bd a516 fc3b
000003f0: 1ce3 30bc 93d2 25bb 78f5 c63c 842c 9ebb
0.013250133 -0.013350267 0.0055235154 0.024979305 0.017005425 -0.009206232 0.02177456 0.0052797296
0.034954548 0.022976706 -0.03012822 0.02738262 0.027503116 0.0010570254 0.015635181 -0.03292409
-0.028065348 -0.030863538 0.018615892 0.006805469 0.014950165 -0.0038408593 -0.0047391616 0.034543384
0.011175594 -0.010208821 0.03626651 -0.021249732 0.025530761 0.022483826 0.027482755 -0.0022036075
-0.0104494095 0.0020353415 -0.025453338 -0.019798463 0.0024531705 0.030071149 0.004539145 -0.014992221
-0.029818159 0.01592258 0.033262398 0.00094251987 0.037229992 0.007965223 -0.016982948 0.0136167845
0.022383777 0.0010210077 -0.026351808 -0.00042284006 -0.023646161 0.013351377 0.010388336 0.033220064
-0.038290955 -0.016516283 0.015289177 0.018216273 0.007541282 0.036912654 0.008614034 -0.03221767
-0.011727792 -0.03432449 -0.005287834 0.020244429 0.012617769 0.029941017 0.03297687 -0.016147729
0.021118227 0.009870207 -0.021352712 -0.034332737 0.037067663 -0.03162142 0.021064196 -0.018052092
-0.01788274 -0.008324174 0.0054359804 0.01324597 -0.0077373837 -0.0287007 -0.033419747 0.01737455
-0.0276444 -0.011206198 -0.024027986 -0.0008223091 -0.02517069 -0.026242932 0.014025256 0.009582851
-0.00770083 0.03162015 -0.022027748 0.011995578 0.01283464 0.010226389 0.02857396 -0.01626287
0.006874461 -0.013851516 0.015536075 -0.008120615 -0.023780644 0.03195189 0.01828339 0.016831212
-0.029127225 0.021297336 -0.02205112 -0.02273046 0.004482014 -0.037611667 -0.014175334 0.03709043
-0.03198701 -0.02107069 0.013668893 -0.014885908 0.028823648 -0.024756033 0.032729648 0.029080126
-0.009732265 -0.010456982 -0.010012763 0.015856469 -0.028600778 -0.0058590765 -0.02136696 0.021884944
0.016011015 0.0005439241 -0.018638099 -0.02601746 0.00716271 0.019852862 0.019654972 0.0020160358
-0.008258691 0.0123414835 -0.0010527774 0.013543937 0.022675842 -0.00300099 -0.029675303 0.009492381
-0.022421952 -0.0004944484 0.020775648 -0.008051427 0.021401023 0.009418057 -0.014127744 0.030904965
-0.006981338 0.030194953 -0.024568295 0.036238853 0.028226953 8.301576e-05 0.025761781 -0.0004023657
-0.0057517914 0.02374039 0.022159006 0.008374236 0.017100792 -0.01512832 0.03471964 0.023151629
-0.00749224 0.021723129 0.033651244 0.03174719 -0.01378536 -0.005316544 -0.0037738178 0.0011417014
0.002274526 -0.010662062 -0.010941328 -0.0011168596 -0.012321689 0.032173444 0.027409734 -0.034509562
0.028214306 -0.030065896 0.031678587 0.03315429 0.019170394 0.033560604 -0.008026689 -0.0057483525
-0.025182813 -0.026099145 0.028662585 0.0032097683 0.020071544 0.022175275 0.017147422 -0.008267182
0.026600678 -0.01646116 0.027804678 -0.006567633 0.017533265 -0.01734282 0.02617379 0.017649466
-0.005849109 -0.007960618 -0.017312191 -0.0070265424 -0.016801659 -0.032575104 0.037882954 -0.019664962
0.024451338 0.011661332 -0.01912717 0.003490266 0.03515248 0.029876348 -0.018075751 0.0011789447
-0.016274692 -0.03277236 0.0073774606 0.02571051 0.013646955 0.0009450445 0.016628519 -0.00040859243
0.00628818 0.01043468 -0.0023873386 0.017191306 -0.021611763 -0.021321103 -0.011970956 -0.0048440816
0.005697279 0.031717822 -0.032122806 0.007693129 -0.010796335 -0.0025302514 0.02428697 -0.004827084

model.1.weight f4 [10, 256]
00000000: e80a 213c 1364 15bd 111c 393c 4ebd d63d
00000010: 6e1a 343d 91d3 9e3d 09bd 81bc 6bae ed3d
00000020: c0b6 b3bc b41b ab3d 92bf e2bb a1be b93d
00000030: 2602 b7bd ac4d e93c 4246 5abd ef1f 0fbe
00000040: 1833 b9bd 7540 9ebd d66d 2fbd 3bcf c1bd
00000050: b044 0cbd 3287 273c a84a 663b c8a0 833b
00000060: 9c9e ef3c 1c4f 613c 557e a3bd e7df 073e
00000070: 9871 1abe e096 743c a9c8 b8bc 88d5 6f3d
00000080: 8c88 0b3c 614d 193d 22a0 003e c772 843d
00000090: 1ab0 f03b 1891 993d 2f6a 66bd 1fa4 c73d
000000a0: a0e1 313d e29d f4bd 6ed0 4a3e 9d0f 53bd
000000b0: 6157 02be b5a0 e63d 54bb 9ebd c1cf 0e3e
000000c0: 48f0 f73d 312a acbd aae9 103d 6e0e d83d
000000d0: 8604 c9bd ec49 1c3e 273f a8bc 71e1 bb3d
000000e0: 3cfb e53d de32 963b 603e 8ebc 518b e4bc
000000f0: db9a 2fbd 24c8 c6bd 96d3 673c 0696 9dbd
00000100: 4fad fbbd c001 b1bd cbf5 49bd bbe2 26bd
00000110: e496 9fbd 0b53 b8bd 0a7d 02be 1ab8 963d
00000120: 5921 ce3d ef8d d03d 05e4 9abd b43a 0dbe
00000130: d5bf 74bd 7b82 a5bd d097 55bd c4a5 b8bc
00000140: f5cf 0d3d 3af5 f43d 5ba8 253d 59a0 053d
00000150: 06e8 3b3b 701f 9d3c 444a a83d a612 09bd
00000160: 70f9 84bd 2167 dabd 748c b43d 66d7 f53c
00000170: 1bc2 7a3d d5d5 af3d 49cf 1c3e 937b efbc
00000180: 7b46 a8bd 6d9e ebbb e459 d43d 4ed6 973d
00000190: 6485 ae3d d9ea b3bd 8756 dd3d 6eb1 35be
000001a0: 54bb a1bd 102c 1fbe be41 24be 2d4f e73a
000001b0: 5280 4cbd 2bab 5a3d bcbd a63c cad5 ff3b
000001c0: 6896 e93d d3e0 c5bd b597 6cbc 47f3 acbd
000001d0: 0ffb a23d d788 95bd 77c9 2abd 47ed 10bc
000001e0: b965 b03d 40a4 a93d 355e ef3c 6100 7c3c
000001f0: 2bbb a03d 02b3 083d c2d5 81bd 9487 803d
00000200: bb36 9abd 108f 01bc d3d9 81bd ec71 42be
00000210: 1c21 e83c 33ac 063d e951 a0bb b6f6 4bbd
00000220: c71a a93c bd47 bfbd a6f6 19be cc5e 9b3d
00000230: 7385 abbc e3c0 613b b448 91bd 499a 713d
00000240: 8962 a83c 134d 8ebc 0797 8d3d ff5c 393e
00000250: af47 b83c c99d b23c 6e3a 3dbd 70a8 3c3c
00000260: c44c 2cbc 8a6e 21bd 0716 923b ac8f d63d
00000270: 42a6 d5bd cce4 4abd 0438 f9bd 4c3f 9fbd
00000280: 249d 463d 2057 86bc 9fd4 9bbd e047 cfbb
00000290: b679 a03d 2908 063d 5575 093e 3292 ec3d
000002a0: 6834 eabb 4dc0 a93c ca3b 053c 5903 43bd
000002b0: 3ed8 093d 33fe 0dbe 4ac3 453d cc60 edbc
000002c0: bc81 e7bd 91f7 05be 8d5f 96bc 5bee 013e
000002d0: d85a 4b3d 8fc6 673d 3826 c43d 6dc2 4f3a
000002e0: de95 773d dee5 fd3c 5e8c 18bb d988 80bd
000002f0: 2d7e 5fbd 63f3 44ba f5c9 aa3d 912d cebc
00000300: 4032 a8bd bc15 5a3d aa4c 28bd 05ca c8bd
00000310: b00a 70bd 53ca 7a3d 8e70 c23d 8439 2fbd
00000320: c30f b1bd 653e 553e 91f3 d9bb 0e61 083d
00000330: a063 5b3d bddd ce3d 0140 113e 89ff 963d
00000340: 4bb7 b43d 324c af3d 852b d2bc 2951 b83d
00000350: dd20 53be e31d 00be f006 0cbe f7e3 d4bd
00000360: 54a4 96bd 5573 893d 6d00 ddbd 58bb 453d
00000370: 28ac 813d 8d1d 98bd ffa2 47bd c651 abbd
00000380: c34f f0bd 24b9 e8bc 1ff7 853d 0b3f 4dbd
00000390: ca4d a13d 8802 8f3d 1cfc 953b ed8a 03be
000003a0: 1dca 27bd ddce db3d 9fa5 a7bd 1e23 5dbd
000003b0: 023b 65bc e1d5 06be 741a d4bd f69b 123d
000003c0: 1bac 123e f6d7 a53c 8e1d 5f3d 073f 613c
000003d0: 5592 473d 81cf cb3d 15ca c9bd 0bc8 b23a
000003e0: f771 9bbd 716f 143d 5280 573d a4f9 6dbd
000003f0: 1925 2b3c 4d8a 16bd 65c5 c0bc 8860 a3bc
0.00982926 -0.03647239 0.011298195 0.10485326 0.043970518 0.07755197 -0.01583721 0.11605533
-0.021937728 0.08354893 -0.0069198096 0.09069563 -0.08935957 0.02847942 -0.05328966 -0.13977025
-0.090429485 -0.07727138 -0.042829357 -0.09463354 -0.034245193 0.010225104 0.0035139713 0.0040169694
0.029250436 0.013751771 -0.0798308 0.13269006 -0.15082395 0.0149285495 -0.02255662 0.05855325
0.008516442 0.03742731 0.12561086 0.064672045 0.0073452117 0.074983776 -0.05625361 0.097481005
0.043428063 -0.11944176 0.19806072 -0.05152856 -0.12728645 0.11261121 -0.07750574 0.1394644
0.12106377 -0.08406485 0.03537909 0.10549627 -0.09815316 0.15262574 -0.020537926 0.09173859
0.1122956 0.0045837006 -0.017363727 -0.027898462 -0.04287229 -0.097061425 0.014149567 -0.0769463
-0.12288915 -0.08642912 -0.049306672 -0.04074357 -0.07792452 -0.09000214 -0.12743011 0.07359333
0.10064954 0.10183322 -0.075630225 -0.13791925 -0.059753258 -0.08081528 -0.052146733 -0.02253998
0.03462215 0.11960836 0.04044376 0.032623623 0.0028672232 0.01918003 0.0821729 -0.03346505
-0.06492889 -0.106642015 0.08815852 0.030009937 0.06122027 0.08585707 0.15313448 -0.02923373
-0.08216568 -0.0071905167 0.10368708 0.07413922 0.08521536 -0.08785028 0.108075194 -0.17743465
-0.07897058 -0.15544152 -0.16040704 0.0017647498 -0.049927063 0.053385895 0.020354144 0.007807468
0.11405641 -0.096620224 -0.014440467 -0.08444839 0.07958042 -0.07301491 -0.041696038 -0.008845634
0.08613152 0.08283281 0.029219726 0.01538095 0.078481995 0.03337384 -0.06339599 0.062758595
-0.0752997 -0.007907644 -0.06340375 -0.1898877 0.0283361 0.032879066 -0.004892577 -0.04979583
0.020642651 -0.09339855 -0.15035495 0.075864404 -0.020937657 0.0034447245 -0.07093945 0.05898503
0.020554798 -0.017370736 0.06913572 0.18101881 0.022495119 0.021803753 -0.0461983 0.011514768
-0.010516349 -0.03941206 0.0044581923 0.10476622 -0.10432102 -0.049534604 -0.12168887 -0.07775745
0.048489705 -0.016398966 -0.07608914 -0.006325707 0.078357145 0.032722626 0.13423665 0.11551322
-0.0071473606 0.020721579 0.008131931 -0.047610614 0.03365349 -0.138665 0.048281945 -0.02897682
-0.11304042 -0.1308272 -0.018356109 0.12688582 0.049647182 0.056585845 0.09577602 0.0007925395
0.06044566 0.030993398 -0.0023277025 -0.062761016 -0.05456369 -0.0007513074 0.083393015 -0.025168212
-0.082127094 0.053243384 -0.041088738 -0.09804157 -0.058603942 0.061228108 0.09494124 -0.04277946
-0.086455844 0.20824583 -0.00665135 0.033295684 0.053561807 0.10100887 0.14184572 0.07372958
0.08824023 0.08559455 -0.025655517 0.08999855 -0.20618005 -0.12511401 -0.13674521 -0.10395043
-0.07355562 0.06711451 -0.10791097 0.048274368 0.06331664 -0.07427511 -0.04873943 -0.083652064
-0.11733963 -0.028408594 0.06541275 -0.05010895 0.07876165 0.06982905 0.004577173 -0.12845965
-0.040964235 0.107328154 -0.081858866 -0.05398857 -0.013991119 -0.13167526 -0.10356608 0.035793267
0.14323466 0.02024458 0.054471545 0.013747937 0.048723537 0.099516876 -0.09852997 0.001363994
-0.075900964 0.03623909 0.05261261 -0.058099404 0.0104458565 -0.036752988 -0.023531625 -0.01994349

model.1.bias f4 [10]
00000000: e731 413d 4c71 8dbd c28c 493d e1f6 123b
00000010: 0c4b 783c 705a 033d 291a 63bb 5f51 9b3c
00000020: 6e41 963c cf7f 66bd
0.04716673 -0.06906375 0.049206503 0.0022424983 0.015154611 0.03206867 -0.0034653044 0.0189597
0.018341746 -0.05627423
